Alphabet_Recognition/LeNet1/model.pth (torch, 28039 bytes, 6 tensors)

conv1.weight f4 [4, 1, 5, 5]
000000 b2 d9 b7 be af 13 ad be 87 67 13 bf 77 40 14 bf
       -0.35908276 -0.3380408 -0.57579845 -0.57910866
000010 6c 37 0c bf e4 04 9b be f3 84 80 be 49 0d d0 be
       -0.5477207 -0.3027717 -0.25101432 -0.40635136
000020 ab 7c 95 be 41 ea 04 bf 54 0e cd be 9c 2d 85 be
       -0.29196677 -0.51919943 -0.40049994 -0.2601136
000030 78 6f 79 be 3b e8 31 be 42 d4 0f bf 9e 47 d3 be
       -0.24358928 -0.17373745 -0.56183255 -0.41265577
000040 62 f4 10 be 25 01 a4 be 41 7c 96 be 6f e0 0f be
       -0.14155725 -0.32032123 -0.29391673 -0.14050458
000050 2a 74 ce be ce 9b 3b bf 16 9a ef be 7f 60 02 bf
       -0.40323 -0.73284614 -0.46797246 -0.5092849
000060 cc 28 32 be 52 3b f5 bd f1 6e 8b be aa 7b 39 bf
       -0.17398375 -0.11974205 -0.2723308 -0.7245432
000070 16 67 bd be 76 78 29 bf 0d 5f 3c be 2f 62 82 be
       -0.3699271 -0.66199434 -0.18395634 -0.25465533
000080 b4 6e 7b be 8e 7f 56 be 1d d2 d6 be de 65 c2 be
       -0.24553949 -0.20947096 -0.4195718 -0.37968343
000090 62 97 16 be a4 ef ab be e2 d0 62 be 81 7d 39 be
       -0.14706185 -0.3358127 -0.22149995 -0.18114282
0000a0 8a a1 af be 7c 88 8f be d0 55 9c bd 78 f3 84 be
       -0.34302932 -0.28033817 -0.07633555 -0.25967002
0000b0 b9 f5 99 be 24 48 84 bf dc 20 33 bf fd 13 06 bf
       -0.30070284 -1.0334516 -0.69972014 -0.5237425
0000c0 eb 9e 11 bf d7 7f 25 bf 34 93 37 be b5 b3 65 be
       -0.56883115 -0.64648193 -0.17927247 -0.22431834
0000d0 17 82 91 3e 6a 3f ea 3e f8 a3 a9 bc d3 be cf be
       0.28419563 0.45751506 -0.02070807 -0.40575275
0000e0 9c 90 47 bf 8d a7 9e 3e ba aa 23 3f 2e 3f 58 bd
       -0.7795503 0.30987206 0.63932383 -0.052794628
0000f0 3e 79 58 bf d2 f3 3b bf 69 66 5b 3e be e0 0f 3f
       -0.8456 -0.73418915 0.21425785 0.56202304
000100 e3 eb 79 3d e0 40 0f bf 66 90 81 be f5 20 0f 3f
       0.061015975 -0.55958366 -0.2530548 0.55909663
000110 65 a7 23 3f bd 38 ce 3c 77 a4 06 be 42 d7 d6 3d
       0.639273 0.02517354 -0.13148676 0.10490276
000120 af 0c 20 3f c6 0b 0d 3f ef c1 46 be 9b 3f e6 be
       0.62519354 0.5509609 -0.19409917 -0.44970402
000130 10 1b b7 bd 89 44 21 be 79 24 54 bd e8 cd cd be
       -0.08940709 -0.157488 -0.051792596 -0.40196157
000140 45 58 96 3e c1 08 25 3f e9 b4 3b 3f 79 ae a4 3e
       0.2936422 0.6446648 0.7332292 0.32164362
000150 4c 10 15 bd 5b 61 84 3e 6d b5 43 3f 53 32 15 3f
       -0.036392495 0.25855526 0.7644871 0.58279914
000160 8a 8c 2c 3e 14 d3 2e be 45 52 93 3e 1d 88 ed 3e
       0.16850486 -0.17072707 0.28773704 0.4639291
000170 27 79 da 3e 5a dd dc 3d 4b 97 e1 bc a2 56 24 bf
       0.42670557 0.10784407 -0.027537962 -0.6419469
000180 73 2f 26 3d c4 31 ec 3d 8e 54 47 3d c2 af 99 3b
       0.040572595 0.115329295 0.048664622 0.0046901414

conv1.bias f4 [4]
000000 1d 82 7b 3d 57 e1 04 3e 40 5d 46 3f 66 da f7 3c
       0.061403383 0.12976585 0.7748604 0.030255508

conv2.weight f4 [12, 4, 5, 5]
000000 fd 12 d4 3c 0c 51 f5 bc 6f c6 e0 bd d4 88 52 be
       0.02588796 -0.029945873 -0.10975348 -0.20560008
000010 be ee c8 bd 7b 3b 01 3d 89 79 dc 3c 41 4a 05 3e
       -0.098111615 0.031550866 0.026913421 0.13016607
000020 ab 4a 55 3e 1d b7 74 3e 6e cf 7b be da df 8c 3d
       0.20829265 0.23897977 -0.24590847 0.06878634
000030 e9 47 66 3e ae 17 91 3e 25 42 58 3e f5 ef d4 be
       0.22488369 0.2833838 0.21118982 -0.41589323
000040 57 dd 29 3a 7b f3 47 3c 25 d2 25 3e 86 3e 01 3e
       0.00064798206 0.012204046 0.16193445 0.12621507
000050 c1 7d 26 be 33 9a 83 bd 96 f2 39 be 77 30 8e bd
       -0.16258909 -0.064258955 -0.18158945 -0.06942838
000060 41 9c e4 bd ea 4c ea 3c 0d 61 ce 3d b5 c5 63 3d
       -0.111626156 0.028601129 0.10077105 0.05560847
000070 e4 14 2f bd cb 1a 20 be a0 aa ba bd ac b5 df 3d
       -0.042744532 -0.1563522 -0.091145754 0.10923323
000080 7e 9a ab 3d 1a bc 2a 3e 2a ed 3e 3e 73 10 10 be
       0.083790764 0.16673318 0.18645158 -0.14068775
000090 cf 97 d3 3d 8a 02 81 3e 0f 52 8a 3e 6c 73 71 3e
       0.103316896 0.2519725 0.2701573 0.23579186
0000a0 a8 b7 a5 be 1a bf 3a bd ff 42 81 3d 92 f6 15 3e
       -0.3236668 -0.045592405 0.063116066 0.1464484
0000b0 01 3f 6d 3e 52 d7 89 bd 53 44 00 3d 00 5b 4b be
       0.23168565 -0.06730522 0.03131516 -0.19858932
0000c0 a0 8f fd bd 61 21 2c be e3 75 84 be 94 cd 04 bf
       -0.1238091 -0.16809608 -0.2587119 -0.5187619
0000d0 6c 0b 76 3e 69 d3 8b 3b 3e 79 4a be 81 e8 1a be
       0.24027795 0.0042671454 -0.19772813 -0.15127756
0000e0 57 80 1c bf 53 17 ae be 6b 9a 89 bd 70 1e 6a be
       -0.6113333 -0.3400217 -0.06718906 -0.22863173
0000f0 5c 2a 1c 3d 2c 84 0f be 7d 96 66 be 02 65 03 be
       0.038126335 -0.14015263 -0.22518344 -0.128315
000100 5f 21 be bc e2 35 45 3d 8a a7 34 3d e3 d8 0a be
       -0.023209272 0.04814709 0.04410509 -0.13559298
000110 a3 35 c4 bd 03 43 0a be c9 e0 50 be 7a 39 5c 3c
       -0.09580543 -0.13502125 -0.20398249 0.013441438
000120 4f 4c ae 3b 50 60 56 be 30 0d cf be 98 35 4c be
       0.0053191553 -0.20935178 -0.4043975 -0.1994232
000130 30 7b 80 be db 9f 06 be 14 b8 d5 3e cc 21 bd 3d
       -0.25093985 -0.13146918 0.41742003 0.09234962
000140 b7 7d 1b be c9 e3 18 be f3 8e 14 bf 4c 85 5c be
       -0.15184675 -0.14930643 -0.58030623 -0.21535224
000150 6d ec 83 be 9e ed 14 3a 47 dc 62 3e b4 82 12 3e
       -0.25766316 0.00056811597 0.22154342 0.14307672
000160 53 a4 0c 3e d7 4d 73 bd 90 15 bc 3a d5 e1 4b 3e
       0.1373456 -0.059400406 0.0014349688 0.19910367
000170 d1 43 99 3e d5 47 ad 3e d7 b7 8b 3e bb 2f 2f 3d
       0.29934552 0.33843866 0.27288696 0.04277013
000180 19 27 51 bc c0 11 2d 3e 5a 2c 1b 3e 04 a4 c0 3d
       -0.012765669 0.16901302 0.15153638 0.094062835
000190 38 05 65 be b4 c6 e2 bd 02 fe 02 bd b1 58 76 3c
       -0.22365272 -0.11073056 -0.031980522 0.015035794
0001a0 08 4c c0 be 1d e5 62 be af f1 53 be c5 ac bf 3e
       -0.37558007 -0.22157712 -0.20697664 0.374365
0001b0 c4 02 a5 3e 27 8d bc be 76 7e 80 be 96 32 a3 be
       0.32228673 -0.3682644 -0.25096482 -0.31874532
0001c0 e7 57 08 3f 9e c9 0a 3f fa c3 35 bf 9b 5c 5a bd
       0.5325913 0.54213893 -0.7100216 -0.05331097
0001d0 f0 01 21 bf 3a 92 3e bf 52 3c 5f bf 39 da 03 bd
       -0.6289358 -0.74441874 -0.87201416 -0.032190535
0001e0 dd c5 aa 3e a2 a0 5c be 02 25 9e bd 14 37 2c 3d
       0.33354083 -0.21545652 -0.077219024 0.042044714
0001f0 d9 82 1c 3e d8 b4 94 be d9 6d 41 be 9b eb 75 3c
       0.1528429 -0.29044223 -0.1888956 0.015009786
000200 94 25 32 3c 32 55 11 bf 20 c2 83 be 21 b7 59 be
       0.010873217 -0.5677062 -0.25734043 -0.21261264
000210 41 94 b0 3e 5e a7 c3 3e 86 cc f1 be 7b b9 b4 be
       0.3448811 0.3821363 -0.47226351 -0.3529776
000220 ae a4 c2 be bd 97 c1 3e 07 58 07 3f 0c ff 1d bf
       -0.38016266 0.3781108 0.52868694 -0.61717296
000230 20 30 52 bd 3d 7f 57 bf c4 4f 86 bf be db 64 bf
       -0.051315427 -0.84178525 -1.0493093 -0.893978
000240 6e 8a 02 3e 44 8e 9a 3d 38 ef 69 be a6 73 8a be
       0.12748119 0.07546666 -0.22845161 -0.27041358
000250 28 e1 9c bd b0 75 b0 3e 1f 0b 0d be 6b 17 e7 bc
       -0.07660133 0.34464788 -0.13773774 -0.028209409
000260 a4 1d 49 bd f3 9d 6b bd 5e ba 2f 3e ba 08 26 bc
       -0.049100533 -0.05752368 0.17160937 -0.0101339165
000270 a6 07 31 bd 49 f1 24 be 15 4e 56 3e 43 7a b8 3e
       -0.043220185 -0.16107668 0.20928223 0.36030778
000280 8f f8 35 bc d1 fb c1 bd 8e 71 97 be bf 12 8b 3e
       -0.011106624 -0.09471858 -0.29578823 0.2716274
000290 01 64 ab 3e ff 35 95 bc 83 01 1b bd c4 8e d3 bd
       0.33474734 -0.018214224 -0.03784324 -0.10329965
0002a0 82 ee 17 3d 2b 14 19 bd 76 10 d1 bd df 3c 81 3d
       0.037092693 -0.03737275 -0.10208218 0.06310438
0002b0 74 06 b7 3c b8 58 a6 be 90 15 e9 be b0 f2 12 be
       0.022341944 -0.32489562 -0.45524263 -0.1435039
0002c0 19 31 32 be ab 4e 83 3c 86 c5 1b 3e 01 5e 84 3e
       -0.17401542 0.016028723 0.15212068 0.2585297
0002d0 2e 4a 90 bd 50 d9 69 bd d8 a9 86 bd af ed 65 bd
       -0.07045399 -0.05709201 -0.06575364 -0.056134876
0002e0 57 bb 73 3e a4 a8 3b be 16 8d 7b 3d b7 a4 c3 3b
       0.23801933 -0.1832605 0.061413847 0.0059705633
0002f0 b3 31 df 3d c2 51 97 3d d0 d0 33 3b ed 32 05 be
       0.10898151 0.07388641 0.0027437694 -0.13007708
000300 8f 11 01 bd 3d 47 1d 3e 63 2d 27 3d 0e f4 23 be
       -0.031510886 0.15359206 0.04081477 -0.16011068
000310 96 48 d4 ba d0 11 7a 3d 29 4a 4a 3e ff a4 2c 3d
       -0.0016195949 0.061052144 0.19754852 0.04214954
000320 f2 aa 86 be bf 49 ef bd 40 c8 99 bb a0 92 db ba
       -0.26302296 -0.11683988 -0.004693061 -0.0016752072
000330 31 85 9d bc f6 8c ea be 8b 89 e1 3d 93 7c 44 3e
       -0.01922855 -0.4581067 0.11012562 0.19188146
000340 a1 84 d6 3d 63 4a 1a 3d 72 9e 59 bf 4d e2 e4 3c
       0.10474516 0.037668597 -0.85007393 0.02793994
000350 62 8d 85 3e 48 d7 8f 3c ab 4d b0 bd a8 9a 7c be
       0.2608443 0.017558709 -0.08608564 -0.24668372
000360 cf 5b 3d bf c4 4d 0c bf 86 01 d6 be b7 9f 8e bd
       -0.73968214 -0.5480616 -0.41798037 -0.06964057
000370 3e d4 3c 3e 77 04 48 3e 48 42 b5 3d e9 18 e5 3c
       0.18440339 0.19532953 0.08850533 0.02796598
000380 96 8c 05 3e ee 34 d4 be 51 37 37 be 88 08 30 3e
       0.1304191 -0.41446632 -0.17892195 0.17190754
000390 67 4c 37 3d de 61 96 3d 54 03 2f bf c6 3f 2f 3c
       0.044750597 0.073428854 -0.68364453 0.010696357
0003a0 7f d8 8e 3e 73 19 15 3e b1 71 14 3e f9 e4 47 bf
       0.27899548 0.1456049 0.14496495 -0.7808376
0003b0 59 0b 23 3e f0 23 95 3d a4 43 f1 bd 1b bb e0 bd
       0.15922298 0.07282245 -0.117804796 -0.109731875
0003c0 e3 75 7a be 2c 5b 4b bf e1 14 0f bf a4 26 9b be
       -0.24459033 -0.7943599 -0.55891234 -0.30302918
0003d0 ae 7a 56 be 38 39 6a 3e b8 a4 7a 3d b7 cc c3 bc
       -0.20945236 0.2287339 0.061192244 -0.023901327
0003e0 f7 44 dd 3d d7 e1 5b 3e 4e 85 60 3d 05 28 79 3e
       0.108041696 0.2147287 0.05481463 0.24331672
0003f0 5a 9b 1b 3e 26 30 62 3e 54 5c 19 bc c7 1d 82 3d
       0.1519598 0.2208868 -0.009360392 0.06353336

conv2.bias f4 [12]
000000 ac 18 64 be ca 64 6f 3e dc 95 38 3e 9a 1d 91 be
       -0.22275037 0.23378292 0.18025917 -0.28342897
000010 56 c1 aa bc 41 35 17 be 24 5f b6 bd 78 d0 5e 3e
       -0.020844143 -0.14766409 -0.089048654 0.21759212
000020 7f d4 4c 3e e5 5a 73 3e b3 5d d5 3d 80 2e 69 be
       0.20002936 0.23765142 0.10418262 -0.22771645

fc.weight f4 [27, 192]
000000 9f f2 cd bd 47 08 83 bd 26 30 05 bd fb 52 42 bc
       -0.10056042 -0.06398063 -0.03251662 -0.011860604
000010 6d 0c 05 be 8d d7 94 bc a8 5e ac bd 81 b0 89 bd
       -0.12993021 -0.018169189 -0.08416492 -0.067231186
000020 a8 61 cb bd 09 2e 02 bd 4d 63 d9 bd 84 28 cc 3b
       -0.09930736 -0.031782184 -0.10614643 0.006230416
000030 a1 6b db bb dd 08 cc bc 51 73 19 bd 0e 47 af bd
       -0.00669618 -0.02490657 -0.03746349 -0.085584745
000040 61 f7 75 bc a6 66 5e bd 02 aa 33 bd 91 af 89 bd
       -0.015012593 -0.054297112 -0.043863304 -0.0672294
000050 c6 ee eb bd 7a 1b ab bd 2d c4 7e bb 03 40 c1 bd
       -0.11520152 -0.0835485 -0.0038874254 -0.094360374
000060 fd e2 29 bd 58 e2 82 bd 54 43 09 be 54 e7 25 be
       -0.04147624 -0.06390828 -0.1340459 -0.16201526
000070 a4 d5 1d bd 7a 92 0d be 07 02 be bd b2 6f da bd
       -0.03853382 -0.13825408 -0.092777304 -0.106658354
000080 96 2e b3 bd 8d c2 2a bd 7a be 10 3c 72 5e e2 bc
       -0.0874912 -0.041689444 0.008834476 -0.027632926
000090 b2 c9 54 bd 14 1c fc bc 19 0f 3f bd 97 66 28 bd
       -0.051950164 -0.030775107 -0.046645258 -0.041113462
0000a0 61 91 cc bc f9 48 84 3c f0 78 fe bd 18 54 2a bd
       -0.024971666 0.016148077 -0.12425411 -0.041584104
0000b0 4e 70 c6 bd 01 7c 5d bd 23 15 d1 bd 9e 6d eb bd
       -0.09689389 -0.054073337 -0.1020911 -0.11495517
0000c0 ea 43 b3 bd 10 3a bc bd 6c 11 92 bd 22 92 c1 bd
       -0.08753188 -0.09190762 -0.07132229 -0.09451701
0000d0 1b 53 e9 bd 72 b1 4b 3c 72 eb 3e bd 96 77 61 3c
       -0.11392804 0.012432443 -0.046611257 0.013761422
0000e0 dc 6a 9e bd 23 e2 08 be 88 a2 b5 bd e5 0d b8 bd
       -0.077352256 -0.13367514 -0.08868891 -0.08987025
0000f0 9a 67 a7 bd bf c7 06 be 1f e5 c1 bd e3 43 c0 bd
       -0.08174057 -0.13162135 -0.094675295 -0.09387948
000100 82 54 8b bd 43 45 08 bd a9 78 6e bd 2c b2 e6 bd
       -0.06803228 -0.033269178 -0.05822054 -0.11264452
000110 78 7a 49 bc 93 af 03 bd c7 44 be bd 47 29 84 bd
       -0.012297265 -0.032149862 -0.09290462 -0.064531855
000120 f4 4e 29 bd e3 b6 d6 bc 5c 93 d9 bd e7 4c e4 bd
       -0.04133506 -0.026210254 -0.1062381 -0.111474805
000130 0c 94 af bd 9a e1 d3 bd ea 76 b2 bc 1a 23 b6 bd
       -0.085731596 -0.103457645 -0.021785218 -0.08893414
000140 4d dd 9b bd 32 f1 35 bd 5e b5 10 bc 8e 5e ca bd
       -0.07610569 -0.044419475 -0.008832304 -0.09881316
000150 9a f0 a9 bc c7 d3 e8 bd 14 5f 0c bd a0 bc 13 bc
       -0.02074461 -0.11368518 -0.03427036 -0.00901714
000160 17 9c f4 bd 48 3d 4d bd 48 da 72 bd 6e 8e 43 bd
       -0.11943834 -0.05010727 -0.0592902 -0.047743253
000170 66 66 da bd c2 ab b4 bd 52 39 b9 bd d7 db c5 bd
       -0.10664062 -0.08821823 -0.09044136 -0.09661072
000180 d5 f0 2c be 2e 22 01 be 6e 48 c0 bd f7 2e 4d bd
       -0.16888745 -0.12610695 -0.09388815 -0.050093617
000190 ac cd 01 be 53 ce 59 bd b6 21 a5 bc 9d ca c5 bd
       -0.12676114 -0.05317528 -0.020157676 -0.09657786
0001a0 e7 da 8c bd 20 0e 4d bd ef ea 24 3b 5c 16 da bb
       -0.0687769 -0.0500623 0.0025164445 -0.0066554975
0001b0 1f 79 83 bd ee 47 bc bc 66 48 f7 bd 45 19 5e bd
       -0.064195864 -0.022983517 -0.12074356 -0.054223318
0001c0 ec 2c c9 bb a0 f9 4f bb e5 3a 4a bc 17 c3 9f bd
       -0.0061393883 -0.0031734481 -0.012343143 -0.07800882
0001d0 d7 07 90 bd 91 1e e6 bd e4 f2 06 be 23 43 9b be
       -0.07032745 -0.11236299 -0.13178593 -0.3032466
0001e0 9a 86 0b be 1e 5d 4f be af af 89 be 08 23 a2 be
       -0.13625565 -0.20250365 -0.26891848 -0.31667352
0001f0 fb 6d 4c be b9 ff 92 be a3 9c 90 be 23 4b b5 be
       -0.19963829 -0.28710726 -0.28244504 -0.35408887
000200 63 03 b5 bd ae e5 e5 bd b5 53 83 bc 77 fb 9c bd
       -0.088385366 -0.112254485 -0.016031126 -0.076651506
000210 36 0d a1 bc 64 66 9b bc df b9 03 be 51 af c1 bd
       -0.01965962 -0.018969722 -0.12863873 -0.09457267
000220 a8 5c f4 bc 40 ba c7 bd a0 cd 5e bd 6a 22 ff bd
       -0.029829338 -0.09752321 -0.054395318 -0.12457736
000230 fc ec 94 bd 64 7e 0d be f5 a4 5f bd f7 b9 12 be
       -0.07271764 -0.13817745 -0.054600675 -0.14328752
000240 d9 be ff bd fb 5c 01 be 61 00 8c bc 1a db 5a bd
       -0.12487573 -0.12633125 -0.017090024 -0.053431608
000250 ef 02 03 be 06 28 c3 bc 6f a7 8b bc 4b 3b b5 bd
       -0.12794088 -0.023822796 -0.017047612 -0.088492
000260 d8 b8 9a bd 48 3b 11 bc 4d 8f c8 bd fd 51 03 be
       -0.075547874 -0.008864231 -0.097929575 -0.12824245
000270 b2 62 54 bd e0 99 f2 bd 14 dd a7 bd e0 dc c9 bc
       -0.051851936 -0.118457556 -0.08196464 -0.024641454
000280 f6 2c cd bd 8e 08 a3 bd 24 45 64 bd 4f 5d 09 3c
       -0.10018341 -0.07960616 -0.05573 0.008384063
000290 2a e4 c0 bd b8 3f e0 bd dc 95 df bd 98 0d 74 bc
       -0.09418519 -0.109496534 -0.10917255 -0.014895819
0002a0 5f 8f 92 bd 52 a6 4a bd 59 ef c2 bc 0f c1 db bd
       -0.07156252 -0.04947502 -0.02379577 -0.107301824
0002b0 de e3 6a bd 37 b8 8b bd ea 78 68 bd 6b 39 c2 3b
       -0.057346217 -0.068222456 -0.056755938 0.005927255
0002c0 a6 35 e7 bd 1d f0 7d bd de fe ad bd c2 66 78 bd
       -0.112895295 -0.061996568 -0.08495878 -0.060644872
0002d0 04 b0 c6 bd 82 ad 2f be 56 b5 03 be 4a ea 0d be
       -0.09701541 -0.17156032 -0.12862143 -0.13858905
0002e0 83 dc 14 be 04 ec 22 be 09 d3 d0 bd 28 60 1a be
       -0.14537244 -0.15910345 -0.10196502 -0.15075743
0002f0 4a e8 86 bd 51 68 31 be 25 e6 01 be 63 f9 1c be
       -0.065872744 -0.1732495 -0.1268545 -0.15329508
000300 0a 76 24 be 0b 28 80 be 9c ff a8 bc 04 1b 9d bd
       -0.16060653 -0.2503055 -0.020629697 -0.076711684
000310 7d 6e 60 be d2 c0 3c bd 47 b8 27 be f8 6b 39 be
       -0.21917148 -0.046082325 -0.1637889 -0.18107593
000320 75 a6 ca be c2 02 81 bd da e1 5b be 1b b4 b2 3c
       -0.39580122 -0.06299354 -0.21472874 0.021814397
000330 43 a6 56 be 5e 94 1a 3d a3 37 21 3e 3d ce b5 3d
       -0.20961861 0.03773915 0.1574388 0.088772275
000340 18 1d b1 3d 02 32 5c 3e 1a c6 09 be 5a 08 3d bd
       0.08648127 0.21503451 -0.13454476 -0.046150543
000350 d1 a0 35 3d 43 0c c7 3d 1b 8c 4e bc f8 69 39 be
       0.04434282 0.097191356 -0.012606646 -0.1810683
000360 f3 57 ca bb f6 f4 5c 3d 23 fe 0f bc 15 ee 1d be
       -0.006175035 0.05394455 -0.008788618 -0.15422852
000370 9f e0 70 bd 87 12 a3 3d d8 33 fd bd 97 68 c8 bd
       -0.058807965 0.07962518 -0.12363404 -0.09785574
000380 c8 8d 31 be 13 06 6a bd c2 21 69 3e ed e5 e1 3b
       -0.17339242 -0.0571347 0.22766784 0.0068938644
000390 88 04 b9 3d f0 04 8c 3d 9b f2 d0 3d f1 89 e7 3d
       0.090340674 0.06836879 0.10202523 0.11305607
0003a0 fe df 44 3e 17 bf 45 3e e4 ff e4 3d 63 c7 90 3d
       0.19226071 0.19311176 0.1118162 0.0706928
0003b0 c0 34 4f 3e 2d a9 fa 3d 56 02 7d 3b dc c7 b3 3d
       0.20234966 0.12239299 0.0038606129 0.087783545
0003c0 af 33 41 3d 7f 2e 22 3e 57 94 d1 bc 9d 3c 54 3d
       0.04716843 0.1583805 -0.02558343 0.051815618
0003d0 0c c9 5f bd 2f 72 a9 3c 5f a3 c7 be d0 39 21 be
       -0.054635093 0.02068433 -0.3899183 -0.1574471
0003e0 d8 93 4b be 87 a8 4f 3c 39 7e 14 3d 51 e3 d6 bd
       -0.19880617 0.012674457 0.036253188 -0.10492576
0003f0 b2 27 c0 3d 7a ac b0 3c e4 ef 44 bc 5c bd 71 be
       0.09382571 0.021566618 -0.012020085 -0.23607391

fc.bias f4 [27]
000000 68 99 05 3d 8c 62 88 bc 51 9e 4e 3e b0 c4 ae bc
       0.032617003 -0.016648553 0.2017758 -0.021334022
000010 3b 34 fb bd 8d 12 1d 3e 65 99 ab bd 16 32 ac 3d
       -0.122658215 0.15339108 -0.08378867 0.08407991
000020 89 56 58 3d 80 10 d9 bd a4 6b d3 bd 92 d1 15 3e
       0.0528169 -0.1059885 -0.10323265 0.14630726
000030 e6 c2 18 be 0d 03 be 3e e0 4f 38 bd 92 f1 7e bd
       -0.14918098 0.37111703 -0.04499805 -0.0622421
000040 13 f3 01 bd b9 92 86 3e 93 68 84 bc 7e b7 3c bd
       -0.031725954 0.26283816 -0.016163146 -0.04607343
000050 36 00 b6 be 2a 91 79 bb 9c 4f 88 3b 50 bd cd 3e
       -0.35547036 -0.003808091 0.004159881 0.40183496
000060 15 9e 05 3e 52 bd e7 bd 29 30 07 be
       0.13048585 -0.11315407 -0.13201965
