Alphabet_Recognition/Boosted LeNet4/model2.pth (torch, 214789 bytes, 8 tensors)

conv1.weight f4 [4, 1, 5, 5]
0	0xbdd4b47a	-0.10385986
1	0xbde8c583	-0.11365797
2	0x3e52dd85	0.20592315
3	0xbc9f1e41	-0.019423606
4	0xbec11cd4	-0.37717307
5	0xbd9df070	-0.077118754
6	0x3cba1535	0.02271519
7	0x3eca8d9d	0.39561167
8	0x3e61b62f	0.22042154
9	0xbe862faf	-0.26208255
10	0xbdffc6ee	-0.12489115
11	0xbeb9500f	-0.36193892
12	0x3ee3ae93	0.44469127
13	0x3edbf4e8	0.42960286
14	0x3e26db40	0.16294575
15	0xbeee2e83	-0.4651986
16	0xbe35a226	-0.17737636
17	0x3e9ff21d	0.31239405
18	0x3ecfa386	0.40554446
19	0x3ec929da	0.39289743
20	0xbead299a	-0.33820802
21	0xbedb788d	-0.4286541
22	0x3d243c3e	0.040096514
23	0x3ed3e05f	0.4138212
24	0x3d114e7c	0.03547524
25	0x3e3c2c20	0.18376207
26	0x3ef2a66f	0.47392604
27	0x3ec2ecea	0.38071376
28	0x3eacfad5	0.3378512
29	0xbe90f513	-0.28311977
30	0xbe913a1a	-0.2836464
31	0x3e5dc0c9	0.21655573
32	0x3f1f6d2f	0.62275976
33	0x3eb75972	0.3581043
34	0x3dee2fbd	0.11630199
35	0xbefee130	-0.4978118
36	0xbdd459f9	-0.103687234
37	0x3e11edd7	0.14250885
38	0x3e532369	0.20618977
39	0xbe81ad23	-0.25327405
40	0xbec1bce3	-0.37839422
41	0xbe20433c	-0.15650648
42	0xbe132fc8	-0.14373696
43	0x3e2fde45	0.17174633
44	0xbddeb254	-0.10873857
45	0xbe9158a1	-0.2838793
46	0xbc9a7471	-0.018854352
47	0xbdac5e90	-0.08416474
48	0x3db3988a	0.08769329
49	0xbe1f20fb	-0.15539925
50	0xbe1d74a9	-0.15376534
51	0xbec6b5ac	-0.3881048
52	0xbedd9016	-0.4327399
53	0xbbc77f70	-0.00608819
54	0xbd0d40ee	-0.03448575
55	0x3dcec5be	0.1009631
56	0xbd1c29ff	-0.038125988
57	0x3ecde1f4	0.4021145
58	0x3f0687b5	0.5255082
59	0x3e606f12	0.2191737
60	0x3e5b44f0	0.21413016
61	0x3e24bd51	0.16087843
62	0x3e4b02d9	0.19825305
63	0x3eea9dd9	0.45823553
64	0x3e88ac1e	0.26693815
65	0x3e53575f	0.20638798
66	0x3e089f44	0.13342005
67	0x3e0b766b	0.13619392
68	0x3e82d213	0.255509
69	0xbe1d0a3d	-0.15335937
70	0xbe0a3b99	-0.13499297
71	0xbe98ab61	-0.29818252
72	0xbebb60f9	-0.36597422
73	0xbe4f10d3	-0.20221262
74	0xbe9289a5	-0.2862064
75	0xbee10771	-0.4395099
76	0xbe3edf60	-0.18639898
77	0x3e9a8821	0.30181983
78	0x3e9bf88e	0.3046307
79	0x3dc8f610	0.09812558
80	0xbeee73b2	-0.46572644
81	0xbe01a22a	-0.12659517
82	0x3ecd18fd	0.40058127
83	0x3f00266a	0.50058615
84	0x3e0a9729	0.13534226
85	0xbec8a416	-0.39187688
86	0x3e938341	0.28811076
87	0x3ec0fade	0.37691396
88	0x3e0dafcb	0.13836591
89	0xbe4fe666	-0.20302734
90	0x3d8e5e46	0.06951575
91	0x3ecd6f6a	0.40124065
92	0x3ef8cce7	0.48593828
93	0x3ca3b285	0.019982586
94	0xbea4b7ca	-0.3217147
95	0x3e0873ab	0.13325374
96	0x3e5b76d9	0.21432056
97	0xbe2e2125	-0.17004831
98	0xbe90e6ca	-0.28301078
99	0xbecc5835	-0.39911047

conv1.bias f4 [4]
0	0x3f2733b4	0.6531327
1	0x3ea675c3	0.3251172
2	0x3e9d0618	0.30668712
3	0xbe4570c4	-0.19281298

conv2.weight f4 [16, 4, 5, 5]
0	0xbe0ab2e7	-0.13544808
1	0xbe4df001	-0.20111085
2	0xbe573927	-0.21017896
3	0x3d38c08f	0.045105513
4	0x3df496da	0.11942835
5	0xbe5d93ff	-0.21638487
6	0xbe9d3697	-0.3070571
7	0xbd80ffab	-0.06298765
8	0x3de52afe	0.11189841
9	0xbca37e19	-0.019957589
10	0xbea81b86	-0.328335
11	0xbecbfa2d	-0.39839306
12	0x3e09eca5	0.13469179
13	0x3e993ebd	0.29930678
14	0x3e420282	0.18946269
15	0xbe26e220	-0.16297197
16	0xbf4897c0	-0.7835655
17	0x3e4dff1a	0.20116845
18	0x3e174f5b	0.14776365
19	0x3d8795f8	0.06620401
20	0xbd14c65f	-0.036321994
21	0xbe944f52	-0.28966767
22	0x3e4922ec	0.19642228
23	0x3e53ba1b	0.20676462
24	0xbd6b3d61	-0.057431582
25	0xbcec0c66	-0.028814506
26	0x3e296906	0.1654397
27	0x3dc0556f	0.09391295
28	0xbd63e59d	-0.0556389
29	0x3e14fe7c	0.14550203
30	0xbd74db67	-0.05977955
31	0xbafbb3cc	-0.0019203364
32	0xbed3c745	-0.41362968
33	0xbdb6befb	-0.089231454
34	0x3da93f29	0.08264
35	0xbe03f197	-0.12885128
36	0xbe05a3e7	-0.13050805
37	0xbea35f91	-0.3190885
38	0x3df2acb6	0.11849348
39	0x3e5fee41	0.2186823
40	0x3ddbaab8	0.107259214
41	0xbede28f9	-0.43390635
42	0x3c9fe68b	0.019519111
43	0x3e17101b	0.14752237
44	0x3e6783c2	0.22608855
45	0x3ee60704	0.44927227
46	0xbeb90399	-0.36135557
47	0xbd64f03e	-0.055893175
48	0x3df07bef	0.117423885
49	0xbc8579bb	-0.016293397
50	0xbd3bf107	-0.04588416
51	0x3bf544bf	0.007485002
52	0xbe6f7f0b	-0.23388307
53	0xbeb0fd53	-0.3456827
54	0x3d13bfc8	0.03607157
55	0xbdd8e95c	-0.10591385
56	0xbf13427a	-0.5752331
57	0xbec2b4b4	-0.3802849
58	0x3d433ff6	0.04766842
59	0x3c893009	0.016746538
60	0x3db38fa8	0.08767635
61	0xbf36dd92	-0.7143184
62	0xbe672fd4	-0.22576839
63	0x3dc6cc42	0.09706928
64	0x3ddb4b9a	0.10707779
65	0x3e52f9f8	0.20603168
66	0xbf2fc33e	-0.6865729
67	0xbdf7d9ef	-0.121021144
68	0x3e3d749f	0.18501519
69	0xbe071d38	-0.1319474
70	0x3e51d789	0.20492376
71	0xbe584cc1	-0.2112303
72	0xbca3b20a	-0.019982357
73	0x3d9ba5a1	0.075999506
74	0xbccbcfc4	-0.024879344
75	0x3d194680	0.03742075
76	0x3e33a594	0.17543632
77	0xbe00822f	-0.12549661
78	0xbeb6eb37	-0.3572633
79	0xbdf13ff2	-0.11779775
80	0xbca0dfbc	-0.019637935
81	0xbea1f84b	-0.31634745
82	0xbe5f8ea0	-0.21831751
83	0xbe0a732e	-0.135205
84	0x3e095624	0.13411766
85	0xbdaed0f4	-0.085359484
86	0xbe418e6c	-0.18901986
87	0xbe340b53	-0.17582445
88	0x3e32af2b	0.17449634
89	0xbc3c8bed	-0.01150797
90	0x3e6af4a3	0.22944884
91	0xbed33162	-0.41248614
92	0xbd854e49	-0.06509072
93	0x3ea14adc	0.31502426
94	0xbcbd4415	-0.023103753
95	0x3e5d8e6e	0.21636364
96	0xbf14c70f	-0.5811624
97	0x3db8ae00	0.09017563
98	0x3e12cbd2	0.14335564
99	0xbc3c37a6	-0.011487877
100	0x3cec01e2	0.028809492
101	0xbd19f96f	-0.037591394
102	0xbcc6f813	-0.024288213
103	0x3dff778f	0.12473976
104	0xbe1a26c3	-0.15053849
105	0x3e372f96	0.17889246
106	0xbcf63c14	-0.030057944
107	0xbe8e201e	-0.27758878
108	0x3e71a5c7	0.23598395
109	0x3c5965ee	0.013268931
110	0x3e23cfaa	0.15997186
111	0x3e4da033	0.20080642
112	0xbec2cd0d	-0.38047066
113	0xbdd55672	-0.10416879
114	0x3e0e9f74	0.13928014
115	0x3cfa8010	0.030578643
116	0x3eb83fed	0.35986272
117	0xbc3cb98a	-0.011518845
118	0xbf05a4a9	-0.52204376
119	0xbcd8314c	-0.026390694
120	0xbe591350	-0.21198773
121	0x3db78e24	0.08962658
122	0x3d8f7def	0.07006442
123	0xbe5bb749	-0.21456636
124	0xbe825f24	-0.25463212
125	0x3e0fe346	0.14051542
126	0xbe7984ed	-0.24367113
127	0xbda4db23	-0.080496095
128	0xbbc17d74	-0.0059048478
129	0xbcddbd27	-0.027067734
130	0x3df43b51	0.11925376
131	0xbe4788d5	-0.19485791
132	0xbd78436b	-0.06061117
133	0x3e2fac56	0.17155585
134	0x3d0146a0	0.031561494
135	0x3dbc2d4e	0.09188329
136	0x3e4b7dd2	0.19872215
137	0xbe4526dd	-0.19253106
138	0xbd04454f	-0.03229266
139	0x3e24bf3a	0.16088572
140	0xbc79621d	-0.015221146
141	0x3e785187	0.2424985
142	0x3d3ab4e8	0.045582682
143	0xbefed29d	-0.4977006
144	0x3ccc7d0e	0.024961974
145	0xbc8420c2	-0.016128901
146	0x3e9a199f	0.30097672
147	0x3e748349	0.23878206
148	0xbeb35869	-0.3502839
149	0xbeba41eb	-0.36378416
150	0x3d4a443b	0.049381476
151	0x3ccda552	0.025103245
152	0x3d75b1a9	0.059983883
153	0x3d615754	0.055014923
154	0xbcf82efe	-0.030295845
155	0xbb5816be	-0.003297254
156	0xbdbc7de0	-0.09203696
157	0x3d981ceb	0.07427391
158	0xbbba9574	-0.0056940857
159	0xbe1027ee	-0.14077732
160	0xba9243f6	-0.001115917
161	0x3d831bbb	0.064017735
162	0xbdaa0a3f	-0.083027355
163	0xbd011627	-0.031515267
164	0x3e29f995	0.16599114
165	0x3def8b20	0.11696458
166	0x3d8f51a2	0.06997992
167	0xbdf36928	-0.11885291
168	0xbd4daf59	-0.050216053
169	0x3e01f2d7	0.12690292
170	0x3d234216	0.039857946
171	0x3e35a8f3	0.1774023
172	0xbc418d1b	-0.011813427
173	0xbc46c966	-0.012132978
174	0x3d98c023	0.07458522
175	0x3d847fec	0.06469712
176	0x3dcbf62e	0.099590644
177	0xbe0d98f4	-0.13827878
178	0xbe0b26b6	-0.13588986
179	0xbcb44865	-0.022007177
180	0x3bdbb29e	0.0067046424
181	0x3c96998e	0.018383767
182	0xbd7108e6	-0.058846377
183	0xbdc07558	-0.093973815
184	0xbcf713ee	-0.03016087
185	0x3cb82dad	0.022482717
186	0xbe2ff017	-0.17181431
187	0x3cb2286e	0.021747794
188	0xbc657b93	-0.014006513
189	0x3e0df998	0.13864744
190	0xbd79ff84	-0.061034694
191	0xbdd127ee	-0.10212694
192	0xbe415e35	-0.18883593
193	0xbdd21f4c	-0.10259876
194	0x3ebf75b1	0.3739448
195	0xbcf2b881	-0.029628994
196	0x3d5cfb45	0.053950567
197	0x3d0ebc8d	0.034847785
198	0xbe5838f2	-0.21115473
199	0x3e5eab7e	0.21745107
200	0xbe0bbcda	-0.1364626
201	0xbe740669	-0.2383057
202	0xbed15246	-0.40883082
203	0xbe8552be	-0.2603969
204	0x3e6c3157	0.23065697
205	0x3e3e2e39	0.1857232
206	0x3e7c702c	0.24652165
207	0xbc0c96b2	-0.00858085
208	0xbf0c40a7	-0.5478615
209	0x3c63aacb	0.013895701
210	0x3dd924c4	0.106027156
211	0x3e64126d	0.22272654
212	0x3ec48799	0.38384703
213	0x3e2ab074	0.16668874
214	0xbe13df33	-0.14440612
215	0x3e0e720c	0.13910693
216	0x3c67d03a	0.014148766
217	0x3da7b701	0.08189202
218	0x3e6d9449	0.23201098
219	0xbe3a5dc6	-0.18199834
220	0xbd21bece	-0.039488606
221	0x3cc42e89	0.023947971
222	0xbc188a38	-0.009310298
223	0x3d958e8d	0.0730258
224	0x3c693d0c	0.014235746
225	0xbd662bbb	-0.05619405
226	0xbdcdc5b7	-0.10047477
227	0x3e0072f8	0.12543857
228	0x3d4b612b	0.049653213
229	0x3e3258ba	0.17416659
230	0xbd72e072	-0.05929608
231	0xbdff8a2e	-0.124775276
232	0xbee8eb63	-0.45492086
233	0xbec24341	-0.37941936
234	0xbd907a5b	-0.070545875
235	0x3ca0a8a0	0.019611657
236	0x3e1da875	0.15396293
237	0x3ea6701e	0.32507414
238	0x3d5b7d5b	0.053586345
239	0xbe139be4	-0.14414936
240	0x3da1baee	0.07896982
241	0x3dbbac54	0.09163728
242	0x3ea41d13	0.32053432
243	0x3ead3381	0.33828357
244	0x3ab5ffde	0.0013885458
245	0x3d02ef13	0.03196628
246	0x3c86fbcf	0.016477494
247	0x3e05e2d7	0.13074814
248	0x3e0a929f	0.13532494
249	0x3dfad045	0.122467555
250	0x3dab8996	0.08375852
251	0x3cdbf283	0.026849037
252	0x3d18c6a5	0.037298817
253	0xbd34cac5	-0.04413869
254	0x3e32c7ce	0.17459032
255	0xbb89df5f	-0.004207536

conv2.bias f4 [16]
0	0x3e2fac1e	0.17155501
1	0xbe8afebd	-0.27147475
2	0xbe185f42	-0.14880088
3	0xbe3905d0	-0.18068624
4	0xbeb0b1d2	-0.34510666
5	0xbeb8a85f	-0.36065957
6	0x3d87d9ad	0.06633315
7	0xbe839ee9	-0.25707176
8	0xbe84328f	-0.25819823
9	0xbe6144cf	-0.21998905
10	0x3cbc343c	0.022974126
11	0xbd375e4d	-0.044767667
12	0xbdc7c6c9	-0.09754712
13	0xbd8f9e66	-0.07012634
14	0xbe0e21ea	-0.13880125
15	0x3f083223	0.532015

fc1.weight f4 [120, 400]
0	0x3de362f9	0.11102862
1	0xbdae88ba	-0.08522172
2	0xbdf9ee2a	-0.12203629
3	0xbd05ef0c	-0.032698676
4	0x3ca9b5d9	0.020716595
5	0x3d758bff	0.059947964
6	0xbdbaf99a	-0.09129639
7	0xbcc72a29	-0.024312096
8	0xbc988619	-0.01861863
9	0x3dcd160b	0.1001397
10	0xbde11f45	-0.10992292
11	0xbe0d59db	-0.13803808
12	0xbe8324c8	-0.25614
13	0xbc404f68	-0.011737682
14	0x3e60b0eb	0.21942489
15	0xbe31d586	-0.17366609
16	0xbe2a0614	-0.16603881
17	0xbe6fd546	-0.23421201
18	0x3db866cc	0.09003982
19	0x3e8ea145	0.27857414
20	0x3d5cafee	0.053878717
21	0x3e19b90a	0.15011993
22	0xbd7664f6	-0.060154878
23	0x3cca4cad	0.024694765
24	0x3e17ad9b	0.14812319
25	0xbd978ff0	-0.07400501
26	0xbe59aea5	-0.21258028
27	0xbe3c6749	-0.18398775
28	0x3dddfa81	0.108387955
29	0x3d337414	0.043811873
30	0xbcccc0d8	-0.024994299
31	0xbda0f06c	-0.07858357
32	0xbbb59e6d	-0.0055425675
33	0xbacd7d0f	-0.0015677529
34	0xbd0ede30	-0.034879863
35	0x3e146fd4	0.14495784
36	0xbdb81d95	-0.08990017
37	0xbb944ab1	-0.0045255055
38	0xbd8f1a4d	-0.06987438
39	0x3dc75a1e	0.09733985
40	0xbdc8f1a5	-0.09811715
41	0xbea0d393	-0.31411418
42	0x3e430cde	0.19047877
43	0x3dde6d4f	0.10860693
44	0x3e31c572	0.17360476
45	0x3d63a4a5	0.05557694
46	0xbd4f379d	-0.050590146
47	0x3dd928c8	0.106034815
48	0x3e2419b6	0.16025433
49	0xbcb07777	-0.02154134
50	0xbe29b27b	-0.16571991
51	0xbe36b62a	-0.17842928
52	0xbd86f457	-0.06589573
53	0x3d03e5b6	0.03220149
54	0x3cf40881	0.029789211
55	0xbe3f0fb5	-0.18658336
56	0xbe19a163	-0.1500297
57	0xbd851eeb	-0.06500038
58	0x3cfe4447	0.031038417
59	0x3d623b3d	0.055232275
60	0x3dd839fc	0.10557935
61	0xbcabb5d4	-0.020960726
62	0x3d4b86ac	0.04968898
63	0x3d5d46e2	0.054022677
64	0x3d827e95	0.063718
65	0xbcd82656	-0.026385467
66	0x3cccd5ae	0.025004234
67	0x3dddd80e	0.10832225
68	0xbc4aec4b	-0.012385438
69	0x3bc2cee9	0.005945076
70	0xbe2d85cf	-0.16945575
71	0xbe0f84b9	-0.14015473
72	0x3e2838c8	0.1642791
73	0x3e1a6980	0.15079308
74	0x3e5ea7ce	0.217437
75	0xbe117641	-0.14205267
76	0xbd339474	-0.043842748
77	0xbc332474	-0.010933984
78	0x3e0a2a4d	0.13492699
79	0x3c9f5291	0.01944855
80	0xbe85f76b	-0.26165327
81	0xbe131cd3	-0.14366464
82	0xbd92df59	-0.071715064
83	0xbd0eaa2c	-0.034830257
84	0xbd92bd64	-0.0716503
85	0xbd16475c	-0.036689147
86	0xbe50a086	-0.20373735
87	0xbe9f8fc4	-0.31164372
88	0xbdfe3299	-0.124119945
89	0xbdfc74fa	-0.12326999
90	0xbb930d81	-0.004487694
91	0x3d91b45f	0.07114481
92	0xbd352a50	-0.044229805
93	0xbd830c7b	-0.06398865
94	0xbd5f9958	-0.0545896
95	0x3e322565	0.17397077
96	0x3dac79ac	0.084216446
97	0xbdb782b1	-0.08960474
98	0xbe7fa8ff	-0.2496681
99	0xbdfb5d59	-0.12273664
100	0xbd1dbc27	-0.038509514
101	0xb9588275	-0.00020647964
102	0x3b0a587f	0.0021109877
103	0x3c51f1a3	0.012813958
104	0x3d968860	0.0735023
105	0xbe0c3995	-0.13693841
106	0xbdd40fe3	-0.10354593
107	0xbd4b6798	-0.04965934
108	0xbc93e400	-0.018053055
109	0x3d33aa2f	0.04386347
110	0x3d75bd07	0.059994724
111	0xbdc8e6f2	-0.09809674
112	0xbc3d843c	-0.011567172
113	0xbd7c8b5b	-0.061656337
114	0xbd8cee08	-0.06881338
115	0x3e14384a	0.14474598
116	0xbcf5a3e1	-0.02998537
117	0xbdb0f666	-0.08640747
118	0xbe867b8c	-0.26266134
119	0xbd84bb5c	-0.064810485
120	0xbd1ef47b	-0.038807373
121	0xbd840189	-0.06445605
122	0xbd6674c5	-0.056263704
123	0xbddb4761	-0.10706974
124	0xbe00852b	-0.125508
125	0xbd28aa2c	-0.041177914
126	0xbc8d8bf6	-0.017278653
127	0xbdccf7df	-0.10008215
128	0xbd1f1f62	-0.03884829
129	0xbe0d53d4	-0.13801509
130	0x3d23f583	0.04002906
131	0xbdaa7dd9	-0.08324785
132	0xbe0ffdc8	-0.14061654
133	0xbe9388c6	-0.28815287
134	0xbe57272c	-0.21011037
135	0x3d411970	0.0471434
136	0xbdbec0f0	-0.09314144
137	0xbd4e117d	-0.050309647
138	0xbe84e713	-0.25957546
139	0xbe53e5c5	-0.20693119
140	0xbd8934de	-0.06699537
141	0xbe1f9053	-0.15582399
142	0x3ceac65e	0.028659042
143	0xbe1bf6fb	-0.15230934
144	0xbe2b41ef	-0.1672437
145	0xbdcdae1b	-0.100429736
146	0xbeca439e	-0.39504713
147	0xbe5124a5	-0.20424135
148	0xbdb6add5	-0.089198746
149	0x3cf19379	0.029489266
150	0xbdf9a100	-0.121889114
151	0xbe86589c	-0.2623948
152	0xbe0d84e0	-0.13820219
153	0xbca0a24b	-0.019608637
154	0xbc43a11c	-0.011940267
155	0xbd4e5d8c	-0.050382182
156	0xbdc2f08b	-0.09518536
157	0x3d8aa2b3	0.06769314
158	0xbda3565a	-0.07975455
159	0xbd68e3af	-0.05685776
160	0x3d8a0baf	0.0674051
161	0x3e1fa1cc	0.15589064
162	0xbd942c2e	-0.07234989
163	0xbda0887b	-0.078385316
164	0xbd8a92d0	-0.067662835
165	0x3cfb5d9b	0.030684283
166	0xbce2277b	-0.027606716
167	0xbd806398	-0.06268996
168	0xbc93b4be	-0.01803052
169	0xbdf7400d	-0.120727636
170	0x3de3a050	0.111145616
171	0x3d9fc001	0.07800294
172	0xbe49a3f9	-0.19691457
173	0xbe4440f5	-0.19165404
174	0x3c0cdc5b	0.008597459
175	0x3d72f341	0.059314016
176	0x3e25c719	0.16189231
177	0x3d8acd4c	0.067774385
178	0xbdf8d3ad	-0.12149749
179	0xbe07f8f9	-0.1327857
180	0x3dbc905b	0.09207221
181	0xbcfbc888	-0.03073527
182	0xbc21a5ec	-0.009866219
183	0xbdbb8734	-0.09156647
184	0xbdb360f5	-0.087587275
185	0x3dc855a3	0.09781959
186	0x3d86641c	0.06562063
187	0x3dc0c42a	0.09412415
188	0xbdab3cd1	-0.08361209
189	0xbdc9a285	-0.09845451
190	0xbe30e58d	-0.17275067
191	0x3e24c9ba	0.16092578
192	0xbd2f27b7	-0.042762484
193	0xbdab8a24	-0.083759576
194	0xbcc05045	-0.023475775
195	0xbdcc97e7	-0.099899106
196	0xbe0f470c	-0.13991946
197	0xbe610e51	-0.21978118
198	0xbb85b855	-0.004080812
199	0xbc92d8c2	-0.017925624
200	0xbd100359	-0.035159443
201	0xbd5bdf17	-0.053679552
202	0xbd4232ce	-0.047411732
203	0xbd6191f6	-0.05507084
204	0xbd381ff2	-0.04495234
205	0xbd54a2b2	-0.05191297
206	0xbe809fe0	-0.25121975
207	0xbe10c95b	-0.14139311
208	0xbe7cd1a3	-0.24689345
209	0xbe1a4f25	-0.15069254
210	0x3d3fce6f	0.04682773
211	0xbd57fdac	-0.052732155
212	0xbdf29eb9	-0.1184668
213	0xbe653ce4	-0.22386509
214	0xbe2d8e06	-0.16948709
215	0x3e1cd259	0.15314616
216	0xbde5998f	-0.112109296
217	0x3d669075	0.05629011
218	0xbd8c0429	-0.06836731
219	0xbe9425a5	-0.2893497
220	0xbceda093	-0.029007232
221	0xbe78e2c4	-0.24305254
222	0xbd5d9ac1	-0.054102663
223	0xbe097b5c	-0.13425964
224	0xbde97aca	-0.11400373
225	0x3ea682b5	0.32521597
226	0x3d92acf8	0.071618974
227	0xbd635ccb	-0.055508416
228	0xbdd8d35b	-0.10587188
229	0xbe357670	-0.17720962
230	0xbe07673a	-0.13222972
231	0xb9faf4c7	-0.0004786609
232	0xbd761ffd	-0.0600891
233	0xbe2436f7	-0.16036592
234	0xbc6a32b9	-0.01429432
235	0x3c58ce22	0.01323274
236	0x3d6df8a0	0.058098435
237	0x3b9f9cba	0.004870978
238	0xbe01b464	-0.1266647
239	0x3c8103ab	0.01574882
240	0x3d21619e	0.039399736
241	0xbdbacfb7	-0.0912165
242	0xbd0a8a91	-0.033823553
243	0xbd32e983	-0.043679725
244	0x3e2d1d86	0.16905794
245	0x3d18ece0	0.037335277
246	0x3dcd1e8d	0.10015593
247	0x3d1dc3ac	0.038516685
248	0x3dc9efde	0.09860204
249	0x3e2aa735	0.16665347
250	0xbe48d5db	-0.1961283
251	0xbd760271	-0.060060922
252	0x3d62561c	0.0552579
253	0xbc907cfe	-0.017637726
254	0x3c95fa37	0.018307788
255	0xbe3d07f8	-0.18460071

fc1.bias f4 [120]
0	0xbbef2ebe	-0.0072992733
1	0xbd5c2ec2	-0.05375553
2	0xbe0ab25e	-0.13544604
3	0xbca7cb56	-0.0204827
4	0x3d800247	0.06250434
5	0x3db22898	0.08699149
6	0x3d07d88a	0.033165492
7	0xbdb021df	-0.086002104
8	0xbdb356de	-0.08756803
9	0xbb7237f7	-0.0036959627
10	0xbc4e53b5	-0.0125931995
11	0xbcb7a2c7	-0.022416485
12	0x3def8d69	0.11696894
13	0xbd9bbd18	-0.07604426
14	0xbccc8b9e	-0.024968918
15	0xbc0e8425	-0.008698498
16	0x3e0a29d0	0.13492513
17	0x3d44d997	0.048059072
18	0xbdec8592	-0.11548914
19	0xbb0323e0	-0.0020010397
20	0xbce3154c	-0.027720116
21	0x3d6306fe	0.05542659
22	0x3c912feb	0.017723044
23	0x3d4aee2e	0.049543552
24	0x3db47e4e	0.08813153
25	0x3d1f67f6	0.038917504
26	0xbc78ffb4	-0.015197683
27	0x3c2bf9b4	0.010496546
28	0xbb0394ed	-0.002007778
29	0xbdd38b8f	-0.10329353
30	0xbdbc9a94	-0.09209171
31	0x39a904d2	0.00032237783
32	0xbd7148fd	-0.058907498
33	0xbd836721	-0.06416155
34	0xbd196a06	-0.037454627
35	0x3d029f66	0.031890295
36	0x3d9d3620	0.07676339
37	0xbda2a378	-0.079413354
38	0x3e3a2eb2	0.18181875
39	0xbe140837	-0.14456259
40	0x3ca1ac25	0.019735405
41	0x3c54549f	0.012959628
42	0x3d1f7732	0.038932033
43	0x3d1f71dd	0.038926948
44	0x3d9663a5	0.073432244
45	0x3de2dc5f	0.11077189
46	0xbd143d65	-0.036191363
47	0xbd7868d1	-0.060646836
48	0x3c7c49d8	0.015398465
49	0x3d332fe5	0.043746848
50	0xbd271e17	-0.04080018
51	0xbd8847b1	-0.06654299
52	0x3e818c94	0.25302565
53	0x3d3fd8da	0.046837665
54	0x3d72db40	0.059291124
55	0x3e1b45da	0.15163365
56	0xbdc82d3b	-0.09774252
57	0xbd398cb0	-0.045300186
58	0xbde8370a	-0.11338623
59	0xbd94bdc3	-0.07262757
60	0xbd077554	-0.033070877
61	0xbd1c4d0d	-0.03815942
62	0x3cae915b	0.021309545
63	0x3cf15dde	0.029463705
64	0xbd658bdd	-0.056041587
65	0xbc4e0daf	-0.012576505
66	0x3b60a8a4	0.0034280205
67	0x3c643c09	0.013930329
68	0xbd4bf060	-0.049789786
69	0xbd8efaf5	-0.0698146
70	0xbd070779	-0.03296611
71	0x3c150458	0.009095274
72	0x3d80a33c	0.062811345
73	0x3d85e569	0.06537897
74	0xbce3529f	-0.027749358
75	0xbd88837d	-0.066657044
76	0xbd932749	-0.071852274
77	0x3d3c5217	0.045976724
78	0xbd9c97d9	-0.0764615
79	0x3e23a085	0.15979202
80	0xbd36ebfb	-0.044658642
81	0xbe90b256	-0.2826106
82	0x3ddf827b	0.10913559
83	0x3e2ee4b4	0.17079431
84	0xbe017367	-0.12641679
85	0xbd53fcf1	-0.051754896
86	0x3da73ebf	0.08166265
87	0xbd306750	-0.043067276
88	0x3d1b22aa	0.037874855
89	0xbd7136a0	-0.058889985
90	0x3c9f7e5d	0.019469434
91	0x3d096a17	0.03354844
92	0xbd8d05af	-0.0688585
93	0x3dbbc9dc	0.09169361
94	0xbdc5da59	-0.09660787
95	0x3db7b186	0.08969407
96	0xbd4f2c18	-0.05057916
97	0xbcf5f2bc	-0.030022971
98	0xbd41f4f1	-0.047352735
99	0xbd4065a6	-0.04697194
100	0x3e0c817f	0.13721274
101	0xbdc203be	-0.0947337
102	0xbd571649	-0.052511487
103	0x3d8ec00c	0.06970224
104	0xbdf1cd5d	-0.11806748
105	0x3cc0e29f	0.023545561
106	0xbd5318da	-0.051537372
107	0xbd542752	-0.05179531
108	0xbd8dac42	-0.06917621
109	0xbc91db0a	-0.017804641
110	0xbda0d913	-0.078539036
111	0xbd16320c	-0.036668822
112	0x3d53f916	0.05175122
113	0x3d1663eb	0.036716383
114	0xbd2cb51b	-0.042164903
115	0x3d46d1ae	0.04853981
116	0x3addc565	0.001691979
117	0xbd3ee259	-0.04660258
118	0xbd30bd0c	-0.04314904
119	0x3db9cd4c	0.090723604

fc2.weight f4 [27, 120]
0	0xbe6cee7a	-0.23137847
1	0xbc9b2f59	-0.018943476
2	0xbe2e098f	-0.16995834
3	0xbe377c72	-0.17918566
4	0xbdabcd38	-0.08388752
5	0xbd8a5030	-0.06753576
6	0xbdd2ff3e	-0.1030259
7	0xbd9b7023	-0.07589748
8	0xbd45b537	-0.048268523
9	0xbd9a8b98	-0.07546157
10	0xbe025f8a	-0.12731758
11	0x3d0a6174	0.033784345
12	0xbd20aae8	-0.03922549
13	0xbe475adc	-0.19468254
14	0xbd3c9724	-0.046042576
15	0xbe0c2b18	-0.13688314
16	0xbe0e39ec	-0.13889283
17	0xbd8a7ae4	-0.06761721
18	0xbd23b238	-0.039964885
19	0xbe29ee4f	-0.16594814
20	0xbddd3af2	-0.108022586
21	0xbe101d70	-0.1407373
22	0xbe2abe38	-0.16674125
23	0xbe65a4af	-0.22426103
24	0xbe2d5099	-0.16925277
25	0xbe0bc581	-0.1364956
26	0xbf70ac33	-0.94012755
27	0xbcfb39d4	-0.030667223
28	0xbe94b045	-0.29040733
29	0xbe24a61a	-0.16078988
30	0xbdb991d4	-0.09061018
31	0xbdf66537	-0.12031024
32	0xbcd03879	-0.025417553
33	0x3d55ff06	0.052245162
34	0xbe0cbb6d	-0.13743372
35	0xbd9875ab	-0.074443184
36	0xbee96f4c	-0.45592725
37	0xbdb6c857	-0.089249305
38	0xbda664c1	-0.08124686
39	0xbe4a626d	-0.19764109
40	0xbe6b46f8	-0.22976291
41	0xbd917dc9	-0.0710407
42	0xbe27469b	-0.16335528
43	0xbe2db045	-0.16961773
44	0xbe0fe4c3	-0.1405211
45	0xbd83b4ac	-0.06430945
46	0x3d8ffc76	0.07030575
47	0xbdde831a	-0.108648494
48	0xbe098b96	-0.13432154
49	0x3c72fb39	0.014830404
50	0xbe12e548	-0.14345276
51	0xbdd1199a	-0.10209961
52	0xbe7bb3d4	-0.24580318
53	0xbdf023cf	-0.1172558
54	0xbe10f9da	-0.14157811
55	0xbe243e98	-0.16039503
56	0xbe1cbaed	-0.15305682
57	0x3d86979c	0.06571886
58	0xbde1665c	-0.110058516
59	0xbc613108	-0.0137446
60	0xbda1267d	-0.07868669
61	0xbdbf957e	-0.09354685
62	0xbec4186d	-0.38299885
63	0xbdffd319	-0.124914356
64	0xbd5adfe9	-0.053436194
65	0xbe02ff0b	-0.12792604
66	0xbd7d76e9	-0.06188098
67	0xbdd56a15	-0.10420624
68	0xbcdc7f23	-0.026916092
69	0xbdb97c09	-0.09056861
70	0xbdeae6f9	-0.11469836
71	0xbcee4616	-0.029086154
72	0xbdad232f	-0.08453976
73	0xbe7e6987	-0.24844943
74	0xbdbf7f7b	-0.09350487
75	0x3d782872	0.060585447
76	0x3d3ee3fc	0.04660414
77	0xbe48e659	-0.1961912
78	0xbd4a2046	-0.049347185
79	0xbd3de0f9	-0.04635713
80	0xbc22c28c	-0.009934079
81	0xbe65c8b4	-0.22439843
82	0xbd5825ae	-0.05277031
83	0xbe04302a	-0.12908998
84	0xbdba3c39	-0.09093518
85	0xbf0711c3	-0.5276148
86	0xbf2cb6d0	-0.6746645
87	0xbe99c9f1	-0.30036882
88	0xbe35f050	-0.17767453
89	0x3d5b01b9	0.05346844
90	0xbcf14c87	-0.029455436
91	0x3d932a19	0.07185764
92	0xbe2709ef	-0.16312383
93	0xbe78704b	-0.24261586
94	0xbda9f3d2	-0.08298458
95	0xbde6eee5	-0.11276034
96	0xbe2d7207	-0.16938029
97	0xbd9b9f42	-0.075987354
98	0xbc18dbc4	-0.00932974
99	0xbd88c89f	-0.066788904
100	0xbdd316b3	-0.10307064
101	0xbe67250c	-0.22572726
102	0x3cb275d1	0.021784695
103	0xbe1e86e5	-0.15481146
104	0x3d7e62eb	0.062106054
105	0xbdb39e2c	-0.08770403
106	0xbd256b6c	-0.04038565
107	0xbe32154d	-0.17390938
108	0xbd8506d6	-0.064954445
109	0xbe24c546	-0.16090879
110	0x3d8af282	0.06784536
111	0xbdc628ae	-0.09675728
112	0xbc894b2c	-0.016759478
113	0xbbe19f80	-0.006885469
114	0xbe34853d	-0.17628951
115	0xbcd4c172	-0.025971148
116	0x3da6368d	0.081158735
117	0x3da341aa	0.07971509
118	0xbe2a913f	-0.1665697
119	0xbd380065	-0.04492225
120	0xbe8e46cd	-0.27788392
121	0x3ce3ed6d	0.027823174
122	0xbc40a9f1	-0.011759267
123	0xbe900136	-0.28125924
124	0x3d823141	0.06357051
125	0x3d793a59	0.06084666
126	0xbe4ea2a9	-0.20179237
127	0xbd98ad10	-0.07454884
128	0x3d48cb68	0.04902211
129	0xbe95b488	-0.29239297
130	0xbeab6986	-0.33478945
131	0xbd4b0bfa	-0.04957197
132	0xbe0807a5	-0.13284166
133	0x3ddc08e7	0.107438855
134	0x3d2d3375	0.0422854
135	0x3e37e340	0.17957783
136	0xbde7bf62	-0.113158
137	0x3c94ca18	0.018162772
138	0x3e008d1f	0.12553833
139	0xbe281e5e	-0.16417834
140	0xbdc9cafd	-0.0985317
141	0x3e29893b	0.16556256
142	0xbeb9ed50	-0.36313868
143	0x3d9004a6	0.070321366
144	0x3c8984d5	0.016786972
145	0xbd626d3e	-0.055279963
146	0x3e75720f	0.23969291
147	0x3d3c8eee	0.046034746
148	0xbe536204	-0.20642859
149	0xbe09bd33	-0.1345108
150	0x3ceed7a2	0.029155556
151	0x3d5eb926	0.05437579
152	0xbe348be6	-0.17631492
153	0x3d81494d	0.06312809
154	0xbe399792	-0.18124226
155	0xbd878992	-0.06618036
156	0xbe309cd9	-0.17247333
157	0x3dbf266b	0.093334995
158	0xbd1c8404	-0.038211837
159	0xbe82c5ac	-0.25541437
160	0xbdeb9608	-0.115032256
161	0x3e34d691	0.17659976
162	0xbbeaa5cb	-0.0071608773
163	0xbd8cde37	-0.068783216
164	0x3d556169	0.05209485
165	0x3d21f328	0.039538532
166	0x3dc99c41	0.09844256
167	0x3db89e7a	0.09014602
168	0xbe21fb0c	-0.15818423
169	0xbddd746b	-0.108132206
170	0xbe237612	-0.15963009
171	0x3c66ffc4	0.014099065
172	0xbd6c3a6e	-0.05767291
173	0x3d8cc71a	0.06873913
174	0xbe07d148	-0.13263428
175	0x3e9292b9	0.28627566
176	0x3a990160	0.0011673383
177	0x3cc09926	0.023510527
178	0x3e262930	0.1622665
179	0xbe478ff0	-0.19488502
180	0xbed4c4a6	-0.4155628
181	0x3da109a2	0.078631654
182	0xbdec7640	-0.11545992
183	0x3d141341	0.036151174
184	0x3e53068a	0.20607963
185	0xbcb8de1b	-0.022566846
186	0x3e0bdbe1	0.13658096
187	0x3eb4d85e	0.35321325
188	0xbc5d83d6	-0.013520202
189	0xbdba3b8d	-0.0909339
190	0xbe6c7609	-0.23091902
191	0x3d592309	0.053011928
192	0x3db3790d	0.08763323
193	0x3e19a886	0.15005693
194	0x3e9aba71	0.30220369
195	0x3d5a7638	0.0533354
196	0x3d50b17b	0.05095051
197	0xbe280162	-0.16406778
198	0x3d401345	0.046893377
199	0x3d4bfd0f	0.049801882
200	0xbc7e0757	-0.01550468
201	0xbcc022a3	-0.023454016
202	0xbde11173	-0.10989656
203	0xbe0d05ac	-0.13771695
204	0x3dd5356f	0.10410582
205	0xbdad090b	-0.084489904
206	0xbe9e6e5c	-0.30943573
207	0x3d16ad20	0.0367862
208	0xbe0f68a2	-0.14004758
209	0xbc6ed224	-0.014576469
210	0xbcb69501	-0.022287847
211	0xbd514799	-0.05109367
212	0x3db764ed	0.08954797
213	0xbd81ec7b	-0.06343933
214	0xbdfe7ab0	-0.124257445
215	0x3c0b0ce4	0.00848696
216	0xbe1be02a	-0.1522223
217	0x3d618440	0.055057764
218	0xbe391db6	-0.1807774
219	0x3cbbca7d	0.022923702
220	0xbde054b1	-0.109536536
221	0x3e157e8d	0.14599057
222	0x3da0d932	0.07853927
223	0xbc8c14fb	-0.017099848
224	0xbe909793	-0.28240642
225	0xbeecdedf	-0.46263787
226	0xbd0a2b37	-0.03373262
227	0x3e01f78d	0.1269209
228	0xbda00dec	-0.078151554
229	0x3d3d53ed	0.046222616
230	0x3adcb410	0.0016838331
231	0xbcfd0ce9	-0.030889945
232	0x3da9a88a	0.082840994
233	0x3d52a64f	0.051428135
234	0xbe39f968	-0.18161547
235	0x3c55526e	0.013020141
236	0xbd4bcbe5	-0.049754996
237	0x3d83f88f	0.06443893
238	0x3e14de6d	0.14537974
239	0xbeacfd09	-0.337868
240	0x3de2f1f9	0.11081309
241	0x3d535790	0.051597178
242	0xbe2248ff	-0.15848158
243	0x3e704ba8	0.2346636
244	0xbe514e13	-0.20439939
245	0x3dc7ad97	0.097499065
246	0x3caa5d93	0.020796573
247	0x3d24a248	0.040193826
248	0xbd2881f1	-0.041139547
249	0xbcb71783	-0.022350078
250	0x3e38124a	0.17975727
251	0xbd2ec4cb	-0.042668145
252	0x3e32707e	0.17425725
253	0x3e1c230b	0.15247743
254	0xbd910957	-0.070818596
255	0x3d5411c5	0.05177476

fc2.bias f4 [27]
0	0x3b1f4418	0.0024302062
1	0xbd485cd0	-0.048916638
2	0x3d402b3c	0.04691623
3	0x3d40ca5f	0.047067996
4	0x3d6e0c55	0.05811723
5	0x3d01aa35	0.031656463
6	0x3d1f5bb0	0.0389058
7	0x3d97cbc2	0.074119106
8	0x3da074ee	0.078348026
9	0xbd823c9c	-0.063592166
10	0x3dbaea38	0.09126705
11	0x3d260512	0.04053218
12	0x3db20cf8	0.0869388
13	0x3e04c4cc	0.12965697
14	0xbd63ec17	-0.055645075
15	0xbc3f239c	-0.011666205
16	0x3d5f51b5	0.05452128
17	0xba22082a	-0.0006181026
18	0xbe2b27fa	-0.16714469
19	0xbcf2eae9	-0.02965303
20	0xbe33685f	-0.17520283
21	0xbdac1793	-0.08402934
22	0xbcbce8cc	-0.023060225
23	0x3d62be41	0.05535722
24	0x3c28e769	0.010309079
25	0x3c050312	0.008118408
26	0xbd4cae2d	-0.049970794
