model.pth (torch, 249735 bytes, 10 tensors)

conv1.weight f4 [6, 1, 5, 5]
0	0x3e7f355d	0.249227
1	0x3e59bc6f	0.21263288
2	0xbe0a9f19	-0.13537253
3	0xbd4b4e5c	-0.049635276
4	0x3d8c3a1f	0.06847023
5	0x3eaa956f	0.33317134
6	0x3dee7c8d	0.1164485
7	0xbea01bc1	-0.31271175
8	0xbeb4f81e	-0.35345548
9	0x3e6385c6	0.22219
10	0x3e9ecca6	0.3101551
11	0xbe07efd0	-0.13275075
12	0xbeaf1856	-0.34198254
13	0xbc9f9781	-0.019481422
14	0x3e1ab3c7	0.15107642
15	0x3e143b71	0.144758
16	0xbe016e1b	-0.12639658
17	0xbe0d7203	-0.13813023
18	0xbd93e025	-0.072204866
19	0x3da9d584	0.08292678
20	0x3d118dd3	0.035535645
21	0xbe051b02	-0.12998584
22	0x3e0c3ec6	0.13695821
23	0xbd0d8272	-0.03454823
24	0x3c14ab25	0.009074007
25	0x3e925ca6	0.2858631
26	0xbd82d8f6	-0.06389038
27	0xbe374ae0	-0.17899656
28	0xbddcc7e6	-0.10780315
29	0xbe419a23	-0.18906455
30	0x3e8011b3	0.25013503
31	0x3e946994	0.289868
32	0xbe26ed2c	-0.16301411
33	0xbe85bac8	-0.26119065
34	0xbde11614	-0.10990539
35	0x3dc681b0	0.09692705
36	0x3e232cc6	0.15935048
37	0x3e81c1b5	0.253431
38	0xbe8dce71	-0.27696565
39	0xbe697943	-0.22800164
40	0x3887619f	6.455485e-05
41	0x3d7dddaf	0.061978992
42	0x3e82862a	0.25492984
43	0xbdcf2c11	-0.10115827
44	0xbc600cc4	-0.013674919
45	0x3cf3131e	0.029672202
46	0x3e42c900	0.19021988
47	0x3b3c5113	0.0028734847
48	0x3e432153	0.19055681
49	0xbcf90648	-0.030398503
50	0x3e128f20	0.1431241
51	0xbdebc110	-0.11511433
52	0x3d0a574d	0.033774663
53	0x3eb6e6ac	0.35722864
54	0x3e3f62e0	0.18690062
55	0x3e1999b8	0.15000045
56	0x3e6cf22b	0.23139255
57	0x3e9c9238	0.30580306
58	0x3e5f9c6c	0.21837014
59	0x3e82da14	0.25557005
60	0x3d139cb5	0.03603812
61	0x3d9b634b	0.07587298
62	0xbd3a8f83	-0.04554702
63	0xbe0fd120	-0.14044619
64	0xba635a48	-0.0008672816
65	0xbe3487d6	-0.17629942
66	0xbe81f79e	-0.2538423
67	0xbe9df0b6	-0.3084771
68	0xbec4343f	-0.3832111
69	0xbd053de6	-0.032529734
70	0xbdadc7a2	-0.084853426
71	0xbe0e5252	-0.1389859
72	0xbe92392f	-0.28559253
73	0xbd59a976	-0.053140126
74	0xbe1c7fa2	-0.15283063
75	0xbe936d55	-0.2879435
76	0xbeaf341a	-0.34219438
77	0xbe318977	-0.17337595
78	0x3e1f0cb8	0.15532196
79	0x3c2eacf5	0.010661353
80	0xbed7977e	-0.42107767
81	0xbe49a152	-0.19690445
82	0x3e26c1d9	0.16284885
83	0x3e1b147d	0.15144534
84	0x3e831321	0.25600532
85	0xbe34970e	-0.17635748
86	0xbd1a1995	-0.037622053
87	0x3e7f6a78	0.24942958
88	0x3eb07254	0.34462225
89	0xbd0e2cbc	-0.03471063
90	0x3e18323e	0.14862916
91	0x3ea90add	0.330161
92	0x3e656f3f	0.22405718
93	0xbd7112d1	-0.058855835
94	0x3ce88cf3	0.028387522
95	0x3e333d28	0.17503798
96	0xbe18aaa6	-0.14908847
97	0x3d3243f5	0.04352184
98	0xbdde7825	-0.108627595
99	0xbdff76bd	-0.124738194
100	0xbdd902b1	-0.105962165
101	0x3d859947	0.06523376
102	0xbdcde2aa	-0.10052998
103	0x3d2b4c0d	0.041820575
104	0xbe171574	-0.14754277
105	0x3ccd22b9	0.025040971
106	0xbdb362a2	-0.08759047
107	0xbe57153a	-0.21004191
108	0xbecc6984	-0.39924252
109	0xbedfdc9e	-0.43723005
110	0xbbf2a58b	-0.007404988
111	0xbcab9035	-0.020942787
112	0x3c0471ba	0.008083755
113	0xbdc300e7	-0.095216565
114	0xbcd45eac	-0.02592405
115	0x3e2a1eb8	0.16613281
116	0x3d7b7f1f	0.06140053
117	0x3e47fab0	0.19529223
118	0x3e35b950	0.17746472
119	0x3db057f7	0.08610528
120	0x3d9f1827	0.077682786
121	0x3e04b60f	0.12960075
122	0x3df2b5db	0.118510924
123	0x3ea623c3	0.3244916
124	0x3ea8a063	0.32934865
125	0xbc373ad7	-0.011183462
126	0x3de168b7	0.11006301
127	0xbe0f52c9	-0.13996424
128	0x3d2b211d	0.041779626
129	0x3c887044	0.016655095
130	0x3e0a441d	0.13502546
131	0xbe02d85a	-0.12777844
132	0xbceab04e	-0.028648522
133	0x3e21c522	0.15797856
134	0x3e3fa8a1	0.1871667
135	0x3e380891	0.17972018
136	0xbe406d18	-0.18791616
137	0x3ba0575e	0.0048932275
138	0x3c8ff7e4	0.017574258
139	0xbdea37e5	-0.11436442
140	0x3dc5f193	0.09665217
141	0xbe2e352a	-0.17012468
142	0xbdc678be	-0.096909985
143	0xbd08431f	-0.033267137
144	0xbde655f2	-0.112468615
145	0x3e00e6f0	0.12588096
146	0x3e8b8c88	0.27255654
147	0x3e1c7e63	0.15282588
148	0x3e4dd356	0.2010015
149	0xbdbe72ee	-0.09299265

conv1.bias f4 [6]
0	0xbd8f6bd4	-0.070029885
1	0xbe29e7da	-0.1659235
2	0x3d9bda0b	0.07609948
3	0xbd9d3dec	-0.07677826
4	0x3dbb0e80	0.09133625
5	0xbe319d49	-0.17345156

conv2.weight f4 [16, 6, 5, 5]
0	0xbdb44703	-0.08802607
1	0x3c1eb722	0.009687217
2	0x3df7ed41	0.121057995
3	0x3ddcc9f8	0.1078071
4	0x3d581c9e	0.052761666
5	0xbc2105d1	-0.009828047
6	0xbdb7571a	-0.0895216
7	0xbdff1195	-0.124545254
8	0xbe4c2f33	-0.1993988
9	0x3d8a07d5	0.06739775
10	0x3d7d1b8a	0.06179384
11	0x3c238112	0.009979503
12	0xbdf52209	-0.11969382
13	0xbe455dde	-0.19274089
14	0x3dd190a1	0.10232664
15	0x3e44015d	0.19141145
16	0x3e192b16	0.14957842
17	0xbd8343f1	-0.06409443
18	0xbd3ca604	-0.046056762
19	0x3d38f537	0.04515573
20	0x3e936b59	0.28792837
21	0x3e51d367	0.204908
22	0xbde3b709	-0.111188956
23	0x3e817b6c	0.25289476
24	0x3e06670a	0.13125244
25	0xbe172d3c	-0.1476335
26	0xbe04cd78	-0.12969005
27	0xbcf99d67	-0.030470563
28	0x3df67c33	0.12035408
29	0x3b95b923	0.004569189
30	0x3c8f45f7	0.017489417
31	0xbdc52fca	-0.09628256
32	0xbe2e3c5b	-0.17015211
33	0x3b6a6aa9	0.003576914
34	0xbc5ea857	-0.01358994
35	0x3e16e571	0.14735962
36	0x3d862040	0.0654912
37	0xbdb63d03	-0.08898356
38	0xbcc02f5a	-0.023460079
39	0x3bb0df90	0.0053977445
40	0x3d8b197e	0.067919716
41	0x3d8a2144	0.06744626
42	0xbd8c4d5e	-0.06850694
43	0x3ade6701	0.0016967953
44	0x3d95eb9a	0.07320328
45	0x3dc1d5cb	0.09464606
46	0xbb269f71	-0.0025424624
47	0xbdf1f9a0	-0.1181519
48	0x3dd1eb72	0.10249986
49	0x3d9df024	0.07711819
50	0x3dd677d8	0.10472077
51	0x3deda234	0.116032034
52	0x3dfc7e34	0.12328759
53	0x3d1cd612	0.03829009
54	0xbc9c8898	-0.019108102
55	0xbe1a3ab8	-0.15061462
56	0x3d7dd508	0.06197074
57	0x3dd546f4	0.10413924
58	0x3dfeb325	0.12436513
59	0xbd62dd1b	-0.055386644
60	0xbea31179	-0.31849268
61	0xbeac1abd	-0.3361415
62	0x3cd430ab	0.025902113
63	0x3d7c5f45	0.061614294
64	0xbd4d6087	-0.050140884
65	0xbe0e9df9	-0.1392745
66	0xbe1554c0	-0.14583111
67	0xbe84f227	-0.25965998
68	0x3d90e58f	0.07075035
69	0x3ce4557e	0.027872797
70	0x3ccff460	0.025385082
71	0xbda515fe	-0.08060835
72	0xbe6cd97e	-0.23129842
73	0x3b12e203	0.0022412546
74	0x3c3e0519	0.011597895
75	0x3db33b4e	0.08751546
76	0x3d8bdf3c	0.06829688
77	0xbca75303	-0.020425325
78	0xbc71581d	-0.0147304805
79	0xbd547fb6	-0.051879607
80	0xbdf0d486	-0.11759286
81	0xbe11d4da	-0.14241353
82	0x3d59d1d2	0.053178616
83	0xbd967b5c	-0.07347748
84	0x3d364a0d	0.044504214
85	0xbdc23052	-0.094818726
86	0xbe0697d6	-0.13143858
87	0xbdbe80db	-0.09301921
88	0x3d77b9cd	0.060479928
89	0x3e089ac8	0.13340294
90	0xbdca5762	-0.09879948
91	0xbe5643b6	-0.20924267
92	0xbd2dcffd	-0.04243468
93	0x3dcdbcaf	0.10045754
94	0x3d7e01b6	0.06201335
95	0x3be5e0b6	0.007015313
96	0xbc2f6bb8	-0.0107068345
97	0x3e135890	0.14389253
98	0x3bdf35db	0.00681184
99	0xbdb169f7	-0.08662789
100	0xbe433a54	-0.19065219
101	0xbe5c9742	-0.21542075
102	0xbc991528	-0.018686846
103	0xbd7656d9	-0.060141418
104	0xbd0aaeac	-0.033857986
105	0xbc8e2830	-0.017353147
106	0xbd4459e5	-0.047937293
107	0xbb5aa49b	-0.0033362273
108	0xbc16ca19	-0.009203457
109	0xb9235441	-0.00015576278
110	0xbd8b8641	-0.06812716
111	0xbd2cb833	-0.042167854
112	0xbd193311	-0.037402216
113	0xbd8bef74	-0.068327814
114	0xbdad5735	-0.08463899
115	0xbd483bf2	-0.048885293
116	0xbda88d93	-0.08230128
117	0xbdc68edf	-0.09695219
118	0xbe454dcb	-0.19267957
119	0xbe2aa593	-0.16664724
120	0xbdbcb362	-0.09213902
121	0xbd5d1b2d	-0.053980995
122	0xbe1f9113	-0.15582685
123	0xbddd280d	-0.10798655
124	0x3ddbba34	0.10728875
125	0xbd966e5f	-0.0734527
126	0xbe086c50	-0.13322568
127	0xbe25ff02	-0.16210559
128	0xbd00f4e5	-0.03148355
129	0x3d0a1bff	0.033718105
130	0xbca3fb80	-0.020017385
131	0xbe0b0a9b	-0.13578264
132	0xbda4265e	-0.080151305
133	0xbdf01591	-0.117228635
134	0x3d36fc72	0.044674344
135	0x3d3f4126	0.04669299
136	0xbd7f15f8	-0.06227681
137	0xbe08f4a1	-0.13374569
138	0xbc701175	-0.0146526
139	0x3d427fb7	0.04748508
140	0x3d016e80	0.03159952
141	0xbd543809	-0.05181125
142	0x3d60437c	0.054751858
143	0xbdd5b294	-0.10434452
144	0xbe1821ba	-0.14856616
145	0x3d895e70	0.06707466
146	0xbc8ed638	-0.017436132
147	0x3ceb0fd5	0.028694073
148	0xbd98ee57	-0.07467335
149	0xbd6bca77	-0.057566132
150	0x3cf525f9	0.029925333
151	0x3d498aaf	0.049204525
152	0xbd99cab1	-0.075093634
153	0xbd055695	-0.032553274
154	0xbddecf80	-0.10879421
155	0xbd328c7a	-0.043591
156	0x3e333d3a	0.17503825
157	0x3c30ab3b	0.010783012
158	0xbdbaa99a	-0.0911438
159	0xbc1cd0c4	-0.009571258
160	0x397b05db	0.00023939407
161	0x3c33a89e	0.010965494
162	0xbdf74363	-0.120734
163	0x3c178cf4	0.009249914
164	0x3dbcfc2b	0.09227785
165	0x3d4f60f3	0.050629567
166	0x3d106692	0.03525407
167	0x3dc9d63a	0.098553136
168	0x3d81683c	0.06318709
169	0x3dd12e8e	0.10213958
170	0x3d938b89	0.072043486
171	0x3d208e41	0.039198164
172	0xbd101433	-0.035175513
173	0xbd018024	-0.031616345
174	0x3c00e018	0.007865928
175	0xbcb1e69a	-0.021716405
176	0x3d4d17ed	0.050071646
177	0x3d614866	0.055000685
178	0x3e399e26	0.18126735
179	0x3e1c0e7a	0.15239897
180	0x3cb20fc9	0.021736043
181	0xbb43847c	-0.0029833606
182	0x3d1913ac	0.037372276
183	0xbce5e4d5	-0.028063217
184	0x3c8eefad	0.01744827
185	0x3c8efaab	0.017453512
186	0xbe21071d	-0.1572537
187	0xbe2d5b00	-0.16929245
188	0xbe3ac33c	-0.18238539
189	0xbd24b967	-0.040215876
190	0xbe354e4f	-0.17705654
191	0xbdd112fb	-0.10208698
192	0xbd9db709	-0.07700927
193	0x3d0e3c17	0.034725275
194	0xbdbc2672	-0.0918702
195	0xbd10a9d4	-0.03531821
196	0x3ce7de31	0.028304191
197	0xbd1fb9fe	-0.038995735
198	0xbc6a8148	-0.01431305
199	0xbc6bf7c7	-0.014402336
200	0xbd61ce03	-0.05512811
201	0x3dd3a04c	0.103333086
202	0xbde0b692	-0.109723225
203	0xbe0f0d97	-0.13970028
204	0xbe792085	-0.24328811
205	0xbe5e4240	-0.2170496
206	0xbe5ae0f3	-0.21374874
207	0xbe9cd3e2	-0.30630404
208	0xbd2d463d	-0.042303313
209	0xbd1f13d2	-0.03883726
210	0xbdc9486f	-0.09828269
211	0xbe214252	-0.15747955
212	0x3dcb9bf5	0.09941856
213	0x3e17c723	0.14822058
214	0x3d07a1ef	0.033113416
215	0x3e6063ff	0.21913145
216	0x3e471c23	0.19444327
217	0x3e5f1d45	0.21788509
218	0x3dfcf4a0	0.12351346
219	0xbd9d1527	-0.0767005
220	0xbd35b0a5	-0.044357914
221	0x3ce4c3e2	0.027925435
222	0xbddd0498	-0.10791892
223	0xbe3babb8	-0.18327224
224	0xbe863cf6	-0.26218385
225	0xbd2fabc4	-0.042888418
226	0x3c71fe2c	0.014770072
227	0x3d64d12c	0.055863544
228	0xbdb62793	-0.08894267
229	0xbe14197f	-0.14462851
230	0x3dc1720f	0.09445583
231	0xbe155187	-0.14581881
232	0xbbb265dd	-0.005444272
233	0x3df788fe	0.12086676
234	0xba47d446	-0.0007622879
235	0xbdbfeda6	-0.093715
236	0x3e17a4c9	0.14808954
237	0x3e5cb832	0.2155464
238	0x3e28a977	0.16470896
239	0x3c900e01	0.017584803
240	0xbc7f7eb6	-0.015594175
241	0xbd5687b4	-0.05237551
242	0xbd9b50dd	-0.07583783
243	0xbe51f7bb	-0.20504658
244	0xbd554fef	-0.052078184
245	0xbe09cf00	-0.1345787
246	0xbe6a43c9	-0.2287742
247	0xbd5c1967	-0.053735163
248	0x3bfc5cea	0.007701506
249	0xbd2c498c	-0.042062327
250	0x3d9d39f4	0.07677069
251	0xbca3594a	-0.019940037
252	0x3caca9f8	0.021077141
253	0x3c6ed317	0.014576695
254	0xbd3d86ce	-0.046271138
255	0xbd1bc303	-0.038027775

conv2.bias f4 [16]
0	0x3cff3ebb	0.031157842
1	0xbdcfd820	-0.101486444
2	0xbc9fc6a3	-0.019503897
3	0x3c86ce88	0.016455904
4	0xbda5e068	-0.08099443
5	0xbcaf49f8	-0.021397576
6	0xbdc21233	-0.094761275
7	0xbd3eaae4	-0.046549693
8	0x3d322f29	0.043502007
9	0xbe259412	-0.16169766
10	0xbca04680	-0.019564867
11	0xbe1c32ec	-0.152538
12	0xbdb0c72e	-0.086317405
13	0x3d798c6e	0.06092494
14	0x3cd07592	0.025446687
15	0xbcc3c6b0	-0.023898453

fc1.weight f4 [120, 400]
0	0x3dade401	0.08490754
1	0x3d8ac2e6	0.06775455
2	0x3c0db5b5	0.008649279
3	0xbe9a31fc	-0.3011626
4	0xbe5e541d	-0.21711774
5	0x3ad1f866	0.0016019463
6	0x3d5c050e	0.053715758
7	0x3e046336	0.12928471
8	0x3d89ee14	0.06734863
9	0xbc9000e9	-0.017578559
10	0xbdde88ca	-0.10865934
11	0xbe1a8b2e	-0.15092155
12	0x3dbd05d0	0.09229624
13	0xbc93d014	-0.018043555
14	0x3db1f0f9	0.0868854
15	0xbdf2913b	-0.11844107
16	0xbe3edc15	-0.18638642
17	0x3cc3c88d	0.023899341
18	0xbcc12344	-0.023576386
19	0x3cf1e6e9	0.029529052
20	0xbd07edf8	-0.03318593
21	0xbca87a50	-0.020566136
22	0xbc3f58de	-0.011678902
23	0xbc7d3301	-0.015454055
24	0xbd9822c5	-0.07428507
25	0xbe410caa	-0.18852487
26	0x3bdfc53a	0.006828931
27	0x3e036f26	0.12835369
28	0x3e3785e6	0.17922172
29	0x3d797d76	0.060910664
30	0xbe58156e	-0.21101925
31	0xbe023214	-0.12714416
32	0xbe4f5a8c	-0.20249385
33	0xbe0d777f	-0.13815115
34	0xbd7bf32b	-0.0615112
35	0xbdcebceb	-0.10094627
36	0xbe0e0a95	-0.13871224
37	0xbd9afd07	-0.075677924
38	0xbdf0fa02	-0.11766435
39	0xbee976a1	-0.4559832
40	0x3d2322ca	0.0398281
41	0xbc8a2973	-0.016865468
42	0x3ce0d1d0	0.027443796
43	0xbe298477	-0.16554438
44	0x3d7040bb	0.05865548
45	0x3cc9de69	0.024642186
46	0x3d178067	0.03698769
47	0xbc117bc3	-0.008879605
48	0x3db52f03	0.088468574
49	0x3d9c0870	0.07618797
50	0xbdeb5d7d	-0.11492441
51	0xbc452f57	-0.0120352125
52	0xbd06d828	-0.032920986
53	0x39758ac9	0.00023416722
54	0x3ccf0244	0.025269635
55	0xbcad1510	-0.021128207
56	0x3d887026	0.066620156
57	0xbd70329e	-0.058642022
58	0xbe4ed3c8	-0.20197976
59	0xbda812c0	-0.08206701
60	0x3d844fa4	0.06460503
61	0x3e2e6b2e	0.17033073
62	0x3e0ff783	0.14059262
63	0x3d1b4832	0.037910648
64	0xbe0c011e	-0.13672301
65	0x3e6bf24c	0.23041648
66	0x3da3ba62	0.07994534
67	0x3de6bf65	0.11266974
68	0x3df8dde5	0.12151698
69	0x3db893e0	0.0901258
70	0x3da876a9	0.08225758
71	0x3e2c6eaa	0.1683909
72	0x3e2eff67	0.17089616
73	0x3e18fdc9	0.14940561
74	0x3d36a5da	0.044591762
75	0xbdf375fa	-0.118877366
76	0x3dbce24b	0.092228495
77	0x3db795fb	0.089641534
78	0xbd0cd61c	-0.034383878
79	0x3c3756ae	0.0111901
80	0xbdc94831	-0.098282225
81	0x3cbc6c70	0.023000926
82	0x3e99e59d	0.30057994
83	0x3df76fd6	0.12081878
84	0xbe1741b4	-0.14771158
85	0xbc0dbc74	-0.008650888
86	0x3d186930	0.03720969
87	0x3cdb614b	0.026779791
88	0xbd975e52	-0.07391037
89	0xbebc1c58	-0.36740375
90	0x3e017226	0.126412
91	0xbe00ade6	-0.12566337
92	0x3d4930fc	0.04911898
93	0xbd4abf7e	-0.049499027
94	0xbe3bd430	-0.18342662
95	0xbcd0efba	-0.025504936
96	0xb9827cc9	-0.00024888504
97	0xbd2bbc2c	-0.0419275
98	0x3cb799ed	0.022412265
99	0xbdcd719f	-0.10031437
100	0xbd0b1dc9	-0.033963952
101	0x3e8333f8	0.25625587
102	0x3e2df9f9	0.16989888
103	0xbdd021b1	-0.10162676
104	0x3e48554d	0.1956379
105	0xb9d3118a	-0.00040258124
106	0x3d97d4dc	0.074136466
107	0x3d05db98	0.032680124
108	0xbcb56145	-0.022141108
109	0xbd4f3e1e	-0.05059635
110	0x3c94768e	0.018122938
111	0x3c37a023	0.011207613
112	0x3d7e559b	0.06209336
113	0x3d3c4903	0.045968067
114	0xbe8ea3d6	-0.27859372
115	0x3da62bf0	0.08113849
116	0xbb5f9913	-0.003411834
117	0x3d86c8cd	0.065812685
118	0x3e075848	0.1321727
119	0x3c909363	0.017648404
120	0xbc5779cc	-0.013151597
121	0x3bdc531a	0.0067237737
122	0xbcdf9d24	-0.02729661
123	0x3dc7e7c4	0.09761003
124	0x3d48e02e	0.04904192
125	0xbd98074e	-0.07423268
126	0x3e4736d5	0.1945451
127	0x3e0d8e8d	0.1382391
128	0x3dd0fe00	0.10204697
129	0x3dc4a1c6	0.09601168
130	0xbd36537f	-0.04451322
131	0x3e102922	0.14078191
132	0x3e1d1e9f	0.15343712
133	0x38554123	5.084382e-05
134	0xbebd957f	-0.3702812
135	0xbe1571bc	-0.14594167
136	0x3d883562	0.06650807
137	0x3d96926f	0.07352149
138	0xbe94da51	-0.29072812
139	0xbe9d13a6	-0.30679053
140	0x3cf3dbaf	0.02976784
141	0xbda01029	-0.07815582
142	0x3dd1f81d	0.10252402
143	0xbd2352a2	-0.039873727
144	0xbe12dfe6	-0.14343223
145	0xbd8a7d24	-0.0676215
146	0xbdc34441	-0.09534503
147	0x3c8d7d9d	0.017271811
148	0x3d3dec5c	0.046367988
149	0xbc055ee8	-0.008140303
150	0xbcbaf09b	-0.022819808
151	0x3d8655cb	0.065593325
152	0x3cf5d686	0.03000952
153	0xbdfc9209	-0.123325415
154	0xbe05df4a	-0.1307346
155	0xbe368fb0	-0.1782825
156	0xbd991d82	-0.07476331
157	0xbcff504a	-0.031166214
158	0xbd778ca4	-0.06043686
159	0xbe071bb3	-0.1319416
160	0xbe16e2f4	-0.14735013
161	0xbd6d2ade	-0.05790221
162	0x3ceb5f4e	0.028731968
163	0x3d0afbd7	0.03393158
164	0x3d6a49ec	0.057199404
165	0x3da7655a	0.08173628
166	0xbc265eac	-0.0101544075
167	0x3d8eb694	0.06968418
168	0x3e2edd87	0.17076693
169	0x3d928632	0.07154502
170	0x3e0a2aec	0.13492936
171	0x3e188762	0.14895394
172	0x3dc87ec7	0.09789806
173	0x3de4957e	0.11161326
174	0x3de71a31	0.112842925
175	0xbd95f915	-0.07322899
176	0xbada5893	-0.0016658477
177	0xbd5f9dc6	-0.054593824
178	0xbebccfce	-0.36877292
179	0xbe344335	-0.17603762
180	0xbb4b11d4	-0.0030985968
181	0x3c1859f9	0.009298795
182	0xbe74846e	-0.23878643
183	0x3d02f3c2	0.031970747
184	0xbe2f91fc	-0.17145532
185	0x3d21253f	0.03934216
186	0xbe542468	-0.20717013
187	0x3c091fcd	0.008369398
188	0xbd97ca6e	-0.07411657
189	0xbbd4356c	-0.006476095
190	0xbd7b470a	-0.061347045
191	0x3cb08299	0.021546649
192	0xbce7d931	-0.028301807
193	0xbe3b8965	-0.1831413
194	0xbd82c624	-0.063854486
195	0x3dd64d44	0.10463956
196	0x3d5a370c	0.053275153
197	0xbdf2fe0a	-0.1186486
198	0xbde98aa0	-0.11403394
199	0xbd147ae9	-0.03625003
200	0x3dfa4732	0.12220611
201	0x3e0c6baa	0.13712946
202	0x3c40360a	0.011731634
203	0xbde226f2	-0.110425845
204	0x3e2f4028	0.17114317
205	0x3dee757c	0.11643502
206	0x3e97b538	0.29630446
207	0x3e05c051	0.13061644
208	0xbdabad86	-0.08382706
209	0xbe07d124	-0.13263375
210	0x3d8a0802	0.067398086
211	0x3d99e49c	0.07514307
212	0x3de694eb	0.112588726
213	0x3d9cf2c8	0.07663494
214	0xbe6322c1	-0.22181226
215	0xbd07b767	-0.03313389
216	0xbdc9bc7f	-0.09850406
217	0x3ddac101	0.10681344
218	0xbcf188e4	-0.02948422
219	0xbdd68082	-0.1047373
220	0xbc59504f	-0.013263776
221	0xbe642a35	-0.22281726
222	0x3d93e485	0.07221321
223	0xbddb9888	-0.107224524
224	0xbcb0a603	-0.021563536
225	0xbdddec20	-0.10836053
226	0xbdbe7fe1	-0.09301735
227	0x3dbde619	0.09272403
228	0x3d9c0d8e	0.07619773
229	0x3e58ebc5	0.21183689
230	0x3d3bdc71	0.045864526
231	0x3dcbba1a	0.099476054
232	0xba625818	-0.0008634343
233	0xbdc2dd5c	-0.09514877
234	0xbbe0dc52	-0.0068622017
235	0xbded9f50	-0.11602652
236	0x3dedb5c8	0.11606938
237	0x3e0ce4db	0.13759176
238	0xbe2813ab	-0.16413753
239	0xbe3f6664	-0.18691403
240	0x3dadd973	0.08488741
241	0x3d94c3ff	0.07263946
242	0xbda4d897	-0.08049124
243	0xbd72690f	-0.059182223
244	0x3d222be1	0.039592627
245	0xbd9f7e1d	-0.07787726
246	0x3e09a420	0.13441515
247	0x3ca166cd	0.01970234
248	0x3b6eca1b	0.0036436382
249	0xbcc9713a	-0.024590123
250	0xbdb8768d	-0.09006987
251	0xbdf665b1	-0.12031115
252	0xbdc6490f	-0.096819036
253	0xbc6b6e0b	-0.014369498
254	0x3d1492c4	0.03627278
255	0xbe09cf0c	-0.13457888

fc1.bias f4 [120]
0	0xbd2b8de5	-0.041883368
1	0xbc1ae4db	-0.009453977
2	0xbd9478b4	-0.07249585
3	0xbdb85b1f	-0.09001755
4	0xbb8a7880	-0.0042257905
5	0xbcf7a80e	-0.030231502
6	0xbd91c1b9	-0.07117028
7	0xbc889eb4	-0.016677238
8	0xbb88063a	-0.004151133
9	0x3d533499	0.051563833
10	0xbc3e8f82	-0.011630895
11	0x3bc3b247	0.00597218
12	0x3cbb1735	0.022838214
13	0x3d23155d	0.039815295
14	0x3d2eccad	0.042675663
15	0xbca51e73	-0.02015612
16	0x3bc1ba69	0.0059121144
17	0x3d606d06	0.054791473
18	0x3d490056	0.049072586
19	0xbd25acce	-0.040448003
20	0xbc8cebd7	-0.017202301
21	0x3db0cedc	0.08633205
22	0xbc8683f2	-0.016420338
23	0x3bac6223	0.0052607222
24	0x3d996c21	0.07491327
25	0x3d29ef91	0.041488234
26	0x3c86b6e8	0.016444638
27	0xbcfb5ddd	-0.030684406
28	0xbd110ad8	-0.035410732
29	0x3cb7fb6d	0.022458756
30	0xbd6618c0	-0.056175947
31	0x3c09a90d	0.008402121
32	0xbd81db8c	-0.06340703
33	0x3d3ec7ff	0.04657745
34	0x3cc35d4e	0.023848202
35	0x3c9a71dc	0.01885312
36	0x3c8e89b9	0.017399656
37	0xbcfcbdf9	-0.030852305
38	0x3d3d45f8	0.046209306
39	0xba9e0f71	-0.0012059045
40	0x3c6d8bf1	0.014498697
41	0x3bf59c4c	0.0074954387
42	0xbd443d04	-0.04790975
43	0xbcd54715	-0.026034871
44	0x3c70aaf5	0.014689197
45	0xbcf04c4d	-0.029333258
46	0x3c9036b8	0.017604217
47	0x3c33dda4	0.010978136
48	0x3d2bf858	0.041984886
49	0x3d4e5fae	0.050384216
50	0x3d70c671	0.058783
51	0x3ba30dad	0.0049759955
52	0xbc736f4d	-0.014858079
53	0xbd495f47	-0.04916313
54	0xbd66ae93	-0.05631883
55	0xbd33086a	-0.043709196
56	0xbd1d48f4	-0.03839965
57	0xbcfa0c10	-0.03052333
58	0x3d272a8b	0.040812057
59	0xbc4b479f	-0.0124072125
60	0xbd6e07a7	-0.058112767
61	0xbd959163	-0.07303121
62	0x3c8796f5	0.016551474
63	0xbdaa719b	-0.0832245
64	0xbb074b12	-0.002064411
65	0x3d451dfe	0.048124306
66	0x3d1cc714	0.038275793
67	0x3d5014c5	0.050801057
68	0x3c899950	0.016796738
69	0xbb9d1f59	-0.0047949967
70	0x3da08519	0.07837886
71	0x3cc53aef	0.024075953
72	0x3d569b64	0.052394286
73	0x3d905ac3	0.070485614
74	0xbdbe5c67	-0.09294968
75	0x3c4ce297	0.012505195
76	0x3ca358f4	0.019939877
77	0x3cc46267	0.023972703
78	0x3beb955d	0.0071894364
79	0x3c219636	0.009862473
80	0xbccbe7a1	-0.024890723
81	0xbda16192	-0.07879938
82	0x3c66d349	0.01408846
83	0xbd2d4bf5	-0.042308766
84	0x3c6de815	0.014520665
85	0xbd267065	-0.04063453
86	0xbc403550	-0.011731461
87	0x3cafd5e1	0.02146429
88	0xbd0edc72	-0.0348782
89	0x3d9b76b2	0.07590999
90	0x3b94c3bc	0.004539935
91	0x3cba16ab	0.022715887
92	0x3b3a9d2b	0.0028475027
93	0xbc47d215	-0.012196084
94	0xbcd79719	-0.026317166
95	0xbd6880c1	-0.056763414
96	0xbcb9e355	-0.022691408
97	0x3beab4c1	0.007162661
98	0x3b9f8bf5	0.004868979
99	0x3d19ff7e	0.037597172
100	0xbd0b0f2e	-0.033950023
101	0xbb25f37f	-0.0025322137
102	0xbd14e00c	-0.03634648
103	0xbc4170d5	-0.011806686
104	0x3ca5210f	0.020157365
105	0xbc3ef35b	-0.0116547
106	0x3c420f5e	0.011844484
107	0x3d055ec9	0.032561097
108	0x3d1a7902	0.03771306
109	0xbd7e545f	-0.06209218
110	0xbd09a27e	-0.03360223
111	0x3d5449e5	0.051828284
112	0x3b235a5f	0.0024925692
113	0x3d7d1abc	0.061793074
114	0xbd2ed703	-0.04268552
115	0xbcfba1d6	-0.030716818
116	0xbc8dbd55	-0.017302195
117	0xbc7be1c1	-0.015373648
118	0x3acb5d07	0.0015515395
119	0xbcf47213	-0.029839551

fc2.weight f4 [84, 120]
0	0xbe3febc0	-0.18742275
1	0xbdcfe90a	-0.101518705
2	0x3d5799ca	0.0526369
3	0xbb90e945	-0.004422339
4	0xbc70e4fe	-0.0147030335
5	0x3d1a366b	0.037649553
6	0xbe75d188	-0.24005711
7	0xbdbc0c6f	-0.09182059
8	0xbda98d37	-0.08278888
9	0xbe7b0166	-0.24512252
10	0x3d347c36	0.04406377
11	0xbd80bafd	-0.06285665
12	0xbcc661e8	-0.024216607
13	0x3d4e8991	0.050424162
14	0x3db48c92	0.08815874
15	0xbd03f10b	-0.0322123
16	0x3b93b748	0.004507933
17	0xbe5096e1	-0.20370056
18	0xbd02f2d3	-0.031969856
19	0x3dc1bf07	0.09460264
20	0x3d69b706	0.05705931
21	0xbd83c37c	-0.0643377
22	0x3d8f3acf	0.06993639
23	0x3d29ec03	0.041484844
24	0x3d15a457	0.03653368
25	0x3db5d7f9	0.08879084
26	0xbdc54539	-0.09632344
27	0x3b87213b	0.0041238344
28	0xbda30529	-0.079599686
29	0x3db64017	0.08898943
30	0xbc014424	-0.007889781
31	0x3d8b09c4	0.06788972
32	0xbd008b79	-0.03138301
33	0xbbddba1f	-0.006766572
34	0x3d6fdea1	0.058561925
35	0x3d9841a1	0.07434393
36	0xbcd9e03c	-0.026596181
37	0x3c7e68aa	0.015527884
38	0x3e076d43	0.13225274
39	0xbc3d7fb5	-0.011566092
40	0x3d8bc364	0.06824377
41	0x3dcfdac5	0.10149149
42	0x3dca5ab6	0.09880583
43	0xbddd54ca	-0.10807188
44	0x3e0e4ead	0.138972
45	0x3cac8808	0.021060959
46	0x3df17e21	0.11791635
47	0x3d8fad0e	0.070154294
48	0x3dafdbd0	0.08586848
49	0x3d8d1073	0.06887903
50	0x3d743e49	0.059629712
51	0x3e1ec776	0.15505776
52	0x3da4e229	0.08050949
53	0xbe6960cb	-0.2279083
54	0xbd73d018	-0.059524626
55	0x3e02ec0d	0.12785359
56	0x3cc177f6	0.023616772
57	0xbd81bf99	-0.063353725
58	0xbc6ff151	-0.014644937
59	0xbafc1f45	-0.0019235393
60	0xbc8d9c8e	-0.017286565
61	0x3cadc930	0.021214098
62	0x3d6a1542	0.05714918
63	0xbd1323f6	-0.035922967
64	0x3d04cdab	0.032422703
65	0xbd84aadb	-0.064779006
66	0xbdbb0b0a	-0.09132965
67	0x3d9a6fc4	0.07540849
68	0x3d3dd4fc	0.046345696
69	0x3d60712f	0.05479544
70	0x3e0539c4	0.13010317
71	0xbc1e4974	-0.009661067
72	0x3dbb76c5	0.09153513
73	0xbd8b9b04	-0.06816676
74	0xbd9c8864	-0.07643202
75	0xbc143e87	-0.009048111
76	0x3d1baa7e	0.03800439
77	0xbd7e03da	-0.062015392
78	0x3dc8f75d	0.09812806
79	0xbcc599bc	-0.024121158
80	0x3dd6b433	0.10483589
81	0xbdd72967	-0.10505944
82	0xbdf42f59	-0.11923093
83	0xbd198201	-0.037477497
84	0x3cf74993	0.03018645
85	0x3d3ee0fa	0.046601273
86	0x3d6c01e8	0.057619005
87	0xbc779928	-0.015112199
88	0xbda5c5bb	-0.08094355
89	0x3e15a1eb	0.14612548
90	0xbd9271c7	-0.071506076
91	0xbd4d7d82	-0.05016852
92	0xbc8bfd49	-0.01708855
93	0x3bef1794	0.007296512
94	0xbdba4c4c	-0.09096584
95	0xbc5c8222	-0.01345876
96	0xbd3f85fb	-0.046758633
97	0xbdc55e61	-0.09637142
98	0xbd9b4466	-0.07581405
99	0xbcccf783	-0.025020367
100	0xbdab693d	-0.08369682
101	0xbccd307c	-0.025047533
102	0x3db64671	0.089001544
103	0x3c21978d	0.009862793
104	0xbdca5363	-0.09879186
105	0x3dceb742	0.100935474
106	0xbdae53c1	-0.085120685
107	0xbd55095e	-0.052010886
108	0x3ceaf92d	0.02868327
109	0xbbc1a479	-0.0059094992
110	0xbdaadf72	-0.083434
111	0xbe8e163a	-0.27751333
112	0x3d9bea7b	0.07613083
113	0xbd12a8b8	-0.035805434
114	0x3bf7fd6e	0.007568053
115	0x3d9eb70b	0.077497564
116	0x3d6f4db3	0.05842371
117	0x3b9b4108	0.004737977
118	0x3d5da0bb	0.054108363
119	0x3d56c7a7	0.052436497
120	0xbe1c36e2	-0.15255311
121	0xbe0b2420	-0.13588
122	0x3d14889d	0.036263097
123	0xbc887775	-0.016658524
124	0xbd6f266d	-0.058386255
125	0xbc4e5499	-0.012593412
126	0x3d8f9db7	0.070125036
127	0x3dc781ed	0.09741578
128	0xbd56aca4	-0.052410737
129	0x3d404fd5	0.046951134
130	0xbdb50361	-0.08838535
131	0x3d845c7b	0.06462952
132	0x3d0d646e	0.034519605
133	0x3dcac0c9	0.09900052
134	0x3e4895c6	0.19588384
135	0x3dd5d292	0.10440554
136	0x3df3a8a6	0.118974015
137	0xbddffac0	-0.10936499
138	0x3c32cf02	0.010913612
139	0x3d28fe3c	0.04125808
140	0x3d4e7e41	0.050413374
141	0x3dba7f83	0.09106352
142	0x3c7505c6	0.01495499
143	0x3d2da085	0.04238941
144	0x3d4bf495	0.0497938
145	0x3e0b9499	0.13630904
146	0x3d948654	0.072521836
147	0x3dd70347	0.10498672
148	0xbd86bc0e	-0.06578837
149	0xbcecd36c	-0.028909408
150	0x3d779ba6	0.060451172
151	0xbd6015d6	-0.054708324
152	0x3da256a2	0.0792668
153	0xbd72b3bc	-0.05925344
154	0x3ad70399	0.001640427
155	0xbde8f891	-0.11375535
156	0x3c5bc055	0.013412555
157	0xbdb3a317	-0.08771341
158	0x3d434874	0.04767652
159	0xbcd02982	-0.025410417
160	0x3dea0121	0.114259966
161	0x3e10e95b	0.14151518
162	0xbd922fd6	-0.0713803
163	0x3c846896	0.016163152
164	0x3cb81f73	0.022475934
165	0xbe1bead1	-0.15226294
166	0x3e2c9194	0.16852409
167	0x3b670430	0.0035250299
168	0xbd09223b	-0.03347991
169	0xbdc67988	-0.09691149
170	0x3dddbf33	0.10827484
171	0x3c69b4c9	0.014264294
172	0x3d4697b7	0.04848453
173	0x3c7d75ca	0.015469978
174	0xbcf43708	-0.029811397
175	0x3dbc454e	0.09192906
176	0xbce3c61a	-0.027804423
177	0xbbfeddd4	-0.007777909
178	0x3d3e0672	0.046392865
179	0x3dc7e9a9	0.09761364
180	0xbcacfea7	-0.021117521
181	0xbcb1bab4	-0.021695472
182	0x3dd6696f	0.104693286
183	0x3c1f4a5e	0.00972232
184	0xbda87d58	-0.082270324
185	0xbd1629b5	-0.03666087
186	0x3d894737	0.06703036
187	0xbd9dde62	-0.07708432
188	0x3c9d4340	0.019197106
189	0xbd90cdad	-0.070704795
190	0x3e12d3d1	0.14338614
191	0x3da97ae5	0.082753934
192	0x3db44ea1	0.0880406
193	0x3d406c6c	0.0469784
194	0x3dc42e90	0.095791936
195	0xbde4ebdc	-0.11177799
196	0xbe064fd7	-0.13116394
197	0xbd84f3bf	-0.064918034
198	0x3d9bd2be	0.07608555
199	0x3d9366b9	0.07197327
200	0xbd6faf2c	-0.058516666
201	0xbe007a5e	-0.1254668
202	0x3c44f960	0.012022346
203	0x3de68ff0	0.11257923
204	0x3d912358	0.070868194
205	0xbc4acceb	-0.012377958
206	0x3e043385	0.12910278
207	0xbde5fa2f	-0.11229359
208	0xbd9176c9	-0.071027346
209	0xbe31a2d6	-0.17347273
210	0xbccc8b4b	-0.024968764
211	0x3d78ccca	0.060742177
212	0x3df28122	0.118410364
213	0x3d2c3567	0.042043116
214	0xbd7d9380	-0.061908245
215	0x3d76b731	0.0602333
216	0xbca13eb0	-0.019683212
217	0x3d6c78d2	0.05773241
218	0xbd51195c	-0.051049575
219	0x3de40478	0.11133665
220	0x39c23938	0.00037045195
221	0xbe08ed79	-0.13371839
222	0x3cf0de6e	0.029402938
223	0xbca31fd4	-0.019912638
224	0x3e2fe401	0.1717682
225	0xbda3bb62	-0.07994725
226	0xbd546b98	-0.051860422
227	0x3d03b9a2	0.032159455
228	0x3d53fe35	0.051756103
229	0xbd3736f5	-0.044730145
230	0x3da00ada	0.0781457
231	0x3e73907c	0.23785585
232	0xbbd58beb	-0.0065169237
233	0xbd2273aa	-0.039661087
234	0x3b434941	0.0029798301
235	0x3d4cee8f	0.050032195
236	0xbde997e3	-0.11405923
237	0x3db5780f	0.0886079
238	0x3d27ebc1	0.040996317
239	0x3e1e505a	0.15460339
240	0xbe296b6e	-0.16544887
241	0xbda3b603	-0.079937
242	0xbd256383	-0.040378105
243	0x3d6df6ea	0.058096804
244	0xbd1ec72a	-0.038764156
245	0x3d81ae16	0.063320324
246	0x3cede0a8	0.029037789
247	0x3d04a069	0.03237954
248	0xbdb47b98	-0.08812636
249	0x3a3ca528	0.0007196241
250	0xbdf35827	-0.11882048
251	0xbd25e744	-0.040503755
252	0x3debe5fd	0.11518476
253	0xbd12ce7a	-0.035841443
254	0xbd2c1efe	-0.042021744
255	0xbccd8cf6	-0.02509163

fc2.bias f4 [84]
0	0x3cd13013	0.025535619
1	0x3c013e45	0.007888381
2	0x3d617940	0.055047274
3	0xbda6bbe3	-0.08141305
4	0x3dc772d9	0.09738702
5	0xbc9f5146	-0.019447934
6	0xbb196a6d	-0.0023409382
7	0x3ac1264d	0.0014736146
8	0xbd5fe798	-0.054664224
9	0xbcb44762	-0.022006694
10	0x3d12f5fc	0.03587912
11	0xbd2c98db	-0.04213796
12	0xba05071f	-0.00050746085
13	0x3ce2b93c	0.027676217
14	0x3bc02849	0.0058641774
15	0x3dc166c6	0.094434306
16	0x3c21a012	0.009864824
17	0xbe18cd12	-0.14921978
18	0x3d9a4858	0.0753333
19	0x3e272402	0.1632233
20	0xbd6ff576	-0.0585837
21	0x3dee38a7	0.11631899
22	0xbda086a7	-0.07838183
23	0xbd3c5931	-0.045983497
24	0x3ca06fb5	0.019584516
25	0xbd14da71	-0.036341134
26	0x3c664318	0.014054082
27	0xbce80570	-0.028322905
28	0x3c8b7a19	0.017025994
29	0xbd56c40b	-0.052433055
30	0xbdb2aac5	-0.08723978
31	0xbd2290a0	-0.039688706
32	0xbcdffea4	-0.027343102
33	0x3dd3cc35	0.10341684
34	0xbdb83206	-0.08993916
35	0xbd5bf038	-0.053695887
36	0x3d473cb0	0.04864186
37	0x3d3ac111	0.04559428
38	0xbd8c4267	-0.06848603
39	0x3c0880e9	0.008331516
40	0x3bf036d2	0.007330754
41	0xbcba318c	-0.022728704
42	0x3d93665b	0.07197257
43	0x3d7159db	0.058923583
44	0x3da2994f	0.079393975
45	0x3d1fe8b4	0.039040282
46	0xbcedc973	-0.029026723
47	0x3d50dec0	0.05099368
48	0x3c8ec4dd	0.017427856
49	0x3dc447ad	0.095839836
50	0x3d2e5305	0.042559642
51	0xbc29f376	-0.010372987
52	0x3e01fa7e	0.12693211
53	0x3cc2a160	0.02375859
54	0x3db5fdc1	0.0888629
55	0xbdef5c00	-0.116874695
56	0x3d46ee99	0.04856739
57	0x3c640461	0.01391706
58	0x3d98f447	0.07468467
59	0x3cd599de	0.026074346
60	0xbd743885	-0.059624214
61	0xbcbe6067	-0.023239328
62	0x3cd750ac	0.026283585
63	0x3db64a0c	0.08900842
64	0x3d9c0015	0.07617203
65	0x3d4619db	0.0483645
66	0x3ddc3860	0.1075294
67	0x3d539c3b	0.051662665
68	0xbb8d81c0	-0.004318446
69	0x3d7887f6	0.060676537
70	0x3d8f5488	0.06998545
71	0x3c6ab687	0.0143257445
72	0xbcc19003	-0.02362824
73	0xbd346544	-0.044041887
74	0x3d3dde5d	0.04635464
75	0x3cd4d734	0.025981523
76	0x3cd25517	0.02567534
77	0x3ca05b64	0.019574828
78	0xbe146a3f	-0.14493655
79	0x3dc71a3f	0.09721803
80	0x3c5f0b4e	0.013613535
81	0x3d3c21f8	0.045930833
82	0x3d0f75f1	0.035024587
83	0x3d54a96b	0.051919382

fc3.weight f4 [10, 84]
0	0xbe75b87d	-0.23996158
1	0xbe2d2794	-0.16909629
2	0xbda28065	-0.079346456
3	0x3d2eb807	0.04265597
4	0xbd7d5da9	-0.0618569
5	0xbd32a53f	-0.043614622
6	0xbe775a54	-0.24155551
7	0x3df20aea	0.11818488
8	0x3d26136f	0.040545877
9	0xbd813b69	-0.0631016
10	0x3e0f16a0	0.13973475
11	0x3d2cc6ef	0.042181905
12	0xbc464b74	-0.01210295
13	0x3d9c8a19	0.076435275
14	0xbd611297	-0.05494937
15	0x3c39d642	0.011342587
16	0x3d57280f	0.052528437
17	0xbdcc8b00	-0.0998745
18	0x3dbcfee1	0.09228302
19	0xbd1f5382	-0.038898
20	0xbe34485f	-0.17605732
21	0x3d9f871d	0.07789443
22	0xbde1acd1	-0.1101929
23	0x3cceabb7	0.025228364
24	0x3d144fb6	0.03620883
25	0x3d3c88ea	0.04602901
26	0xbdef6c99	-0.11690635
27	0xbe34f009	-0.17669691
28	0xbdad2ab9	-0.08455414
29	0xbe1f3519	-0.15547599
30	0xbdc6aea5	-0.097012796
31	0x3e0c7f7f	0.13720511
32	0x3d8bfb03	0.06834986
33	0xbe5f78fc	-0.21823496
34	0x3d7007dc	0.058601245
35	0x3cd22502	0.025652412
36	0xbd4df760	-0.050284743
37	0x3da716ec	0.08158669
38	0xbca1b88b	-0.019741317
39	0x3e1f729c	0.15571064
40	0xbb5c81ea	-0.003364677
41	0xbdff0a47	-0.12453132
42	0xbd8e3d14	-0.069452435
43	0x3db9a729	0.090650864
44	0xbe2fc341	-0.17164327
45	0xbe60f595	-0.21968682
46	0xbdb9a516	-0.09064691
47	0x3b015be5	0.0019738611
48	0xbe827adb	-0.25484356
49	0xbe2ba688	-0.16762745
50	0x3e24700d	0.16058369
51	0x3dcb1a6d	0.0991715
52	0x3dc3c542	0.09559108
53	0xbe0ae5fd	-0.13564296
54	0x3e830ec1	0.25597194
55	0x3e0ea1a4	0.13928849
56	0xbe2ed43a	-0.17073146
57	0xbddeffcb	-0.108886324
58	0xbe800e51	-0.25010923
59	0xbdda74ec	-0.10666832
60	0x3defffa2	0.1171868
61	0x3e40c132	0.18823698
62	0x3d071fa0	0.032989144
63	0xbcb72ceb	-0.022360286
64	0xbe1919a7	-0.14951192
65	0xbe21c8c8	-0.15799248
66	0xbe7b29c9	-0.24527659
67	0xbd0a960f	-0.033834513
68	0xbdad4185	-0.084597625
69	0xbccd77f1	-0.025081607
70	0xbd91d70f	-0.07121097
71	0xbd66487c	-0.05622147
72	0x3c97d542	0.018534306
73	0xbe302729	-0.17202438
74	0xbe543c93	-0.20726232
75	0x3daaddea	0.08343108
76	0xbdd672d1	-0.10471118
77	0x3d671b60	0.05642259
78	0xbdfe8b72	-0.12428941
79	0xbc074f22	-0.008258613
80	0xbcc3b59a	-0.023890305
81	0x3da19f04	0.07891658
82	0xbd1d0914	-0.038338736
83	0x3e017116	0.12640795
84	0xbd9072fd	-0.07053182
85	0x3d3244a4	0.043522492
86	0xbca41364	-0.020028777
87	0xbbd2e1cd	-0.006435609
88	0xbded1251	-0.11575759
89	0xbd98eb32	-0.07466735
90	0x3d416367	0.047213938
91	0xbe15c91d	-0.146275
92	0x3dcc2167	0.099673085
93	0xbe4cba11	-0.19992854
94	0xbe444dfe	-0.19170377
95	0xbc024e9c	-0.007953312
96	0x3dd3e484	0.1034632
97	0xbe3232b3	-0.17402153
98	0x3d6bd250	0.057573617
99	0xbe873824	-0.2641002
100	0xbe37a0fd	-0.17932506
101	0x3d806982	0.06270124
102	0x3d003802	0.031303413
103	0xbcd9e2d5	-0.02659742
104	0x3e08cd11	0.13359477
105	0x3e3455f0	0.17610908
106	0x3d6d612a	0.05795399
107	0xbb9ca4b2	-0.0047803754
108	0x3e25cff8	0.16192615
109	0xbd473880	-0.048637867
110	0x3ddcf728	0.10789329
111	0xbe85a712	-0.26104027
112	0x3d2e14b7	0.042500224
113	0x3d334beb	0.043773573
114	0xbe368ca6	-0.1782709
115	0xbd0a00cc	-0.033692166
116	0x3c298176	0.010345807
117	0x3dd3694f	0.103228204
118	0x3dd91ac3	0.106008075
119	0xbe3bc299	-0.18335952
120	0x3d6ce510	0.05783564
121	0xbe91b846	-0.28460902
122	0x3dd9679d	0.10615466
123	0xbdd8a48f	-0.10578262
124	0xbe81cc93	-0.2535139
125	0xbdf8e93c	-0.12153861
126	0xbdd6d985	-0.10490707
127	0xbea0a19b	-0.31373295
128	0xbe3ef17b	-0.18646805
129	0xbccf8fb1	-0.025337072
130	0x3b4a49cd	0.0030866743
131	0x3d019078	0.031631917
132	0xbe079b03	-0.13242726
133	0x3db86ca6	0.09005098
134	0x3d2aa051	0.041656796
135	0x3db76b13	0.0895597
136	0xbe1ac611	-0.15114619
137	0x3de4248e	0.11139785
138	0x3d2b92cb	0.04188804
139	0xbe35e086	-0.1776143
140	0x3e0408bb	0.12893955
141	0xbe7d004f	-0.24707149
142	0xbd703eb7	-0.05865356
143	0x3e248bd5	0.16068967
144	0x3c1c1d28	0.009528436
145	0xbdb2b139	-0.08725209
146	0xbd4849ba	-0.048898436
147	0x3dc28607	0.0949822
148	0xbdaf26c8	-0.08552319
149	0x3e346507	0.17616664
150	0x3e0b6d69	0.13615955
151	0xbdd49ea9	-0.103818245
152	0x3eb813aa	0.35952502
153	0xbdcced4d	-0.10006199
154	0xbd706af1	-0.058695737
155	0xbd4ee50f	-0.050511416
156	0xbab79834	-0.0014007152
157	0xbe08e44a	-0.13368335
158	0xbd10b70b	-0.035330813
159	0x3d401994	0.046899393
160	0xbd05e049	-0.032684598
161	0x3de3ebd1	0.11128963
162	0x3cd298c1	0.025707604
163	0xbd8e12ac	-0.06937155
164	0xbe02eea9	-0.12786354
165	0xbdbc6e6a	-0.09200747
166	0xbe1a8443	-0.15089516
167	0x3df574c7	0.11985164
168	0xbdf94d8b	-0.12172993
169	0xbda55e3a	-0.08074613
170	0x3d8a8aee	0.0676478
171	0xbd31c29b	-0.04339848
172	0xbe78241e	-0.24232528
173	0x3d9abf29	0.07555992
174	0x3c74950e	0.0149281155
175	0x3de89d43	0.1135812
176	0xbc074529	-0.008256235
177	0xbdb4c826	-0.08827238
178	0x3b58b8cf	0.003306914
179	0x3cd696b2	0.026194904
180	0xbddef405	-0.10886387
181	0xbd0f4921	-0.03498185
182	0x3e003af6	0.12522492
183	0x3d65ebca	0.05613307
184	0x3ca3e17a	0.020004977
185	0x3c94ac3b	0.018148532
186	0xbe3840d1	-0.17993475
187	0xbe1e0578	-0.15431774
188	0x3e0338e9	0.12814678
189	0x3dcf7ff7	0.10131829
190	0xbd5e901d	-0.054336656
191	0x3daf5596	0.08561246
192	0xbd658840	-0.05603814
193	0x3dbd05a7	0.09229594
194	0x3d062e3a	0.03275893
195	0xbddbac1d	-0.107261874
196	0x3d9563f1	0.07294453
197	0x3d2cc003	0.042175304
198	0x3d623175	0.055222947
199	0xbc544c0b	-0.012957583
200	0x3d6022c4	0.054720655
201	0x3d5bfdc6	0.053708814
202	0xbd4ac55a	-0.049504615
203	0xbe1de3fe	-0.15419003
204	0x3d4b5f02	0.049651153
205	0xbdca5c9c	-0.09880945
206	0xbdc771d6	-0.09738509
207	0xbe33fd63	-0.17577128
208	0x3d6763fa	0.05649183
209	0x3be0b447	0.0068574282
210	0x3e1901fa	0.1494216
211	0xbd0f33fe	-0.034961693
212	0x3e115a44	0.1419459
213	0xbe31f671	-0.17379166
214	0xbdd13920	-0.10215974
215	0xbdb03323	-0.086035036
216	0x3e39e7ae	0.18154785
217	0x3d810b11	0.06300939
218	0x3d9aca66	0.07558136
219	0x3ce581b1	0.028015943
220	0x3dc2aa11	0.09505094
221	0x3e4ee84c	0.20205802
222	0xbe962ddf	-0.29331872
223	0x3de802e7	0.113286786
224	0xbe82fcd2	-0.25583512
225	0xbc979087	-0.018501533
226	0x3ca52f29	0.02016409
227	0xbe5dec9e	-0.21672294
228	0x3e1416af	0.14461778
229	0xbe24070c	-0.16018313
230	0xbdd0ac0d	-0.10189066
231	0xbd457ade	-0.04821288
232	0xbe5db270	-0.216501
233	0xbc9e0ea8	-0.019294098
234	0x3de38a51	0.11110366
235	0xbda9223b	-0.08258482
236	0xbeb4f50d	-0.3534321
237	0x3d493afc	0.049128518
238	0xbdc9512a	-0.09829934
239	0x3dff6319	0.12470073
240	0xbe0e28e8	-0.13882792
241	0x3d6625ab	0.056188267
242	0x3d9db8cb	0.07701262
243	0xbd7eb949	-0.06218842
244	0xbd83d3bc	-0.064368695
245	0x3d1c0185	0.038087387
246	0xbdaeed72	-0.08541383
247	0x3dc6fee0	0.09716582
248	0xbe720e64	-0.23638302
249	0x3ddfa0e6	0.10919361
250	0xbc47cd92	-0.012195008
251	0x3caf7df9	0.021422373
252	0x3d1a85de	0.037725322
253	0x3d28a4a4	0.04117264
254	0xbd9a3e70	-0.0753144
255	0xbc3d9ddf	-0.011573284

fc3.bias f4 [10]
0	0xbbd3d74c	-0.0064648744
1	0x3df519c2	0.119678035
2	0xbc20cf21	-0.009815008
3	0xbd45febe	-0.048338644
4	0xbd5e0232	-0.054201312
5	0x3dfc8ffc	0.1233215
6	0xbcec3c3a	-0.028837312
7	0xbcf31955	-0.029675165
8	0x3d9172ee	0.07101999
9	0xbc6f6ea0	-0.014613777
