Boosted LeNet4/model1.pth (torch, 206533 bytes, 8 tensors)

conv1.weight f4 [4, 1, 5, 5]
00000000: e03d 933e 7f3b 353e 1733 503e 98f5 813e
00000010: afa3 963e afbe 3f3e 044d c33e c37e 623e
00000020: e514 833e 0dd3 a23e 6cd4 17bd cda6 0b3c
00000030: 7d0c fcbc 2560 64be dc41 d3bd c794 f3be
00000040: 6aa0 fcbe f3cf dcbe 8edb 4ebe b322 b7be
00000050: a0ab 5dbe 37a8 95be 53ff 9bbe c518 7cbe
00000060: 35dd 903d 7c3f 1ebf 1144 bcbe d74f 81be
00000070: 5f49 a33c e042 d63d 9a89 c4be 23ce 8d3d
00000080: 7d72 1d3e dc6b c83e fa43 4b3e acd8 0b3e
00000090: bdef b43e d81f d93e fcea f03e c57a c5bd
000000a0: 51db b53e 2f38 e83e 5db8 993e 97f1 733c
000000b0: 5702 fabe 7b6d 783e f32b 9c3d bbf6 9d3d
000000c0: 8565 a7be 6cb7 13bf aa32 323e 87df 053e
000000d0: 530d 5bbd 5481 583d 02d4 f83d 0d36 203e
000000e0: fe5e 143e b005 013e 33ab 773e f800 2f3e
000000f0: 330a 333e 58b2 793e 275b 9a3e bbbf 563c
00000100: eb7d 633e 859e 013e b7fe 36be a43e 1ebe
00000110: bdfd d9bc 1d27 353e a552 b6bd b737 eebd
00000120: fb85 83be 8a9e 543d cca4 743e 8ace 5ebd
00000130: d110 24be 6579 2c3d 98ce 25be e0ce d7be
00000140: 68cc 703c e5e8 b63e 395c cd3d 6023 4ebd
00000150: 96c7 d4be 0fe5 683e f410 cf3e 1ca6 cb3e
00000160: 85cf 1d3e dd1a f7be 283b 8dbd 9650 a73e
00000170: 8ce3 eb3e 6c69 6a3e 0270 21be c62b 83be
00000180: 4e84 bcbd 4016 8d3e ed99 863e df11 e23a
0.28758144 0.17698477 0.20331989 0.25382686 0.29421756 0.18725084 0.38144696 0.22118668
0.2560188 0.31801644 -0.037067816 0.008523655 -0.030767674 -0.22302301 -0.10315296 -0.47574446
-0.49341136 -0.43127403 -0.20200941 -0.3576866 -0.21647501 -0.292299 -0.30468234 -0.24618824
0.07073442 -0.6181562 -0.3677068 -0.25256225 0.019932447 0.10461974 -0.38386232 0.06924083
0.15375705 0.3914479 0.1985015 0.13656873 0.35339156 0.42407107 0.4705428 -0.09642557
0.35518888 0.45355365 0.3002347 0.0148891425 -0.4882991 0.24260513 0.0762557 0.07713076
-0.3269464 -0.57701755 0.1740214 0.1307355 -0.053479504 0.052857712 0.12149812 0.15645619
0.14489362 0.12599826 0.24186401 0.17090213 0.1748436 0.24384439 0.3014767 0.013107236
0.22216003 0.12658127 -0.17870604 -0.15453583 -0.02661025 0.17690702 -0.08902482 -0.116317205
-0.25688156 0.051909007 0.2389099 -0.05439619 -0.1602204 0.04210796 -0.1619209 -0.4215002
0.014697172 0.3572456 0.10027356 -0.050326705 -0.41558522 0.22743629 0.40442622 0.3977517
0.15411194 -0.48262683 -0.06896049 0.3267867 0.46072042 0.22891778 -0.15765384 -0.25619334
-0.092049226 0.27556038 0.2628931 0.0017247758

conv1.bias f4 [4]
00000000: 2d53 1e3e af9a 3d3e 4bf2 803d 6dc3 b13e
0.15461417 0.18516038 0.06296214 0.3471941

conv2.weight f4 [16, 4, 5, 5]
00000000: aba3 64be c539 3bbe bf32 333b f550 0cbd
00000010: 90bd 5abd 8a7f 24be 6e1f 1dbe 3ab8 a8be
00000020: 0e38 21be 2f0f 7dbd 7933 68bb 33a6 8a3d
00000030: 520d 0dbe 7174 68be b345 3dbe 9801 073e
00000040: edc0 3abd 9d77 523d 9c00 2dbd 729e b13d
00000050: bcd4 473d ba8a 1f3d 8215 023e 1906 22bd
00000060: 6f70 b23d eef5 723e e3df 8b3c a88f f2bd
00000070: a620 56ba dc64 7bbc 938a d8bc 6236 d03a
00000080: d7f5 52bd 836c 86bd b35e 0fbd 6ee2 0e3e
00000090: 9a02 3cba 4e6a 5c3d 20a2 c4bc 7f32 483d
000000a0: fed7 ef3d d7bf 2d3d 3c1f 26be f733 923d
000000b0: 12e7 723d 8cbf e9bd b51d 233c d028 f13d
000000c0: 7000 433d c3c4 86be e052 74be 3ca0 51be
000000d0: dd59 f1bd da43 1cbd 30f0 123d 63ee ad3d
000000e0: 966c 2e3d 140b 753d e5c2 cd3a 8aaf 17be
000000f0: a315 bfbb 74b0 d13d 0460 cc3d bf80 67bd
00000100: df6b 32be 35cd 053e 8c91 453e 03da 7b3d
00000110: 2711 39bd 490f 163d 6b4d 00bd b91a 003e
00000120: e5fd 113d 1dd4 ba3d 5e09 8f3d bbeb b7bd
00000130: d0b3 5ebd bca8 11bd 0277 89bd b6cf 043b
00000140: 0826 8ebb e56a dd3d 0d84 5b3d 6eab e33d
00000150: 39ba 2ebe 5641 8bbd 129d 933c ef82 073e
00000160: de11 613d 7a22 0fbd 0a1e d2bc 3335 1abd
00000170: 4437 293d 169e 84bd ee78 893d 7b78 edbc
00000180: 2bcf 18be 6e62 d7bd e08b cdbd fda8 08be
00000190: e4fc ac3d 7148 63bd 19c1 03be 57af bcbd
000001a0: ace8 e73d 6ae1 3e3e 12f8 eebc 0a17 0c3e
000001b0: e188 293e d8c4 b83d 768e df3c 716b d4bc
000001c0: 32c0 873e eb29 803d df52 f6bd b452 5dbe
000001d0: 599e 90be 1d39 39be 0375 843b 4b9c 043e
000001e0: f91b 7e3d 1df5 d3bd 34d2 983d 87e8 c93d
000001f0: 8ab1 6b3b 422a c3bc c8a5 6ebe b331 b3bd
00000200: d272 8d3d d1cd 113e 117a dfbe 7f8e aebe
00000210: 14ff 83bd e7cc ddbd 17fa 91be 26ca 4abe
00000220: 0a84 d1be a4aa a0be 2005 9abe 9a71 90bc
00000230: 7956 babc 6948 b23d dc3c 743e 949e 9b3e
00000240: 0a20 9b3e c6a8 df3d bf01 a83d 17c8 363e
00000250: 3714 2f3e a2e7 e23d e86e 233e 1240 113d
00000260: 1cea 8c3c 269d 5fbc 58af 29bd ba28 3c3a
00000270: a8ce 8abd 09ce 803c a2f8 4cbd 6cc2 c3bd
00000280: 12ee bfbe bdd4 e4be 0d78 4ebe 71f8 c0be
00000290: 1460 5dbe 9233 5abe 3123 31be 9e0a d4bd
000002a0: e159 8b3d 6ef0 63bd bfd7 f8bc cf22 2b3e
000002b0: 0e62 4d3e af48 013e 07ce 153c ed82 dc3d
000002c0: 38e5 11be a4ef a0bd 1dba 393d 6fdd 163e
000002d0: 84ab 08be bb06 27be de00 64be 5acc 8e3d
000002e0: 15a0 20bc efeb ecbd 35b3 a9be 5646 aabe
000002f0: f45d 99be 6131 d1bd 9e66 cb3d 1464 e93c
00000300: 7bbc c0bd 6167 bdbc fe49 cd3b 86c4 783d
00000310: 6882 afbd 935c 473c 69cd c8bd 67ff 5fbd
00000320: c832 ec3d 7f80 4a3d 2d2f b6be b26c 43be
00000330: 0d99 e3bd 4aef 1b3e 6283 c4be 1c3f 82be
00000340: f735 adbd ae7a 22be 698b bdbe d642 8fbe
00000350: b58f 7dbd 1c08 14bc 6a25 a9bd aee7 4abe
00000360: 11ff 03be 8d8c 7a3b ad32 503e 5983 bb3e
00000370: 4667 963d 531c 213e c4e3 1e3e 13da 5f3e
00000380: bf4d 243e eb93 613d 5390 66be da41 d13d
00000390: 00e5 1f3e ad75 31bc bd33 91be 1215 693e
000003a0: e78c 903e e82a 32bb 9080 b9bc c876 4e3e
000003b0: d457 9f3e 9a75 bd3d e3d3 59be ab68 90be
000003c0: df11 873e 1668 443d 0a14 01be 0641 7ebd
000003d0: e464 b2bd 1846 23be e233 91be 242d 9bbd
000003e0: feea 3fbd c6ba 50be 85fd 7cbd 6015 34be
000003f0: 6cec c2be ae9c 63be 5ced 1c3c 91e6 0d3d
-0.2232806 -0.18283756 0.002734348 -0.034256894 -0.053403437 -0.16064277 -0.1534402 -0.32953054
-0.1574404 -0.06178206 -0.003543107 0.06769981 -0.13774613 -0.22700669 -0.1848362 0.13184202
-0.045594145 0.051383603 -0.04223691 0.08672799 0.048786864 0.03895066 0.12703517 -0.039556596
0.08712851 0.23726627 0.017074531 -0.118438065 -0.0008168317 -0.015343871 -0.026433265 0.0015885348
-0.051503982 -0.06563666 -0.03500242 0.13953564 -0.00071720185 0.053812318 -0.024003088 0.04887628
0.11711119 0.04241928 -0.16222852 0.07138818 0.059302397 -0.11413488 0.009955813 0.117753625
0.04760784 -0.26321992 -0.2385974 -0.20471281 -0.11784718 -0.038150646 0.035873592 0.08492734
0.042584024 0.059825018 0.0015698342 -0.14813057 -0.0058314367 0.10238734 0.09979251 -0.056519266
-0.17423962 0.13066562 0.19293803 0.06148721 -0.045182373 0.03663567 -0.03132383 0.12510194
0.035642523 0.09122489 0.069842085 -0.08980509 -0.0543707 -0.03556131 -0.06712152 0.0020265407
-0.00433803 0.10811404 0.05359273 0.11116682 -0.17063226 -0.06799571 0.018019233 0.13233541
0.05494868 -0.03494499 -0.02564909 -0.03764839 0.04131247 -0.06475465 0.06712519 -0.028988114
-0.14922778 -0.10516821 -0.10036445 -0.13345714 0.084466726 -0.055489007 -0.1286663 -0.09213131
0.113236755 0.18640676 -0.029171024 0.13680664 0.16556121 0.0902192 0.02728961 -0.025930138
0.2651382 0.06257995 -0.12027525 -0.2161358 -0.2824581 -0.18088193 0.004042269 0.12950246
0.062038396 -0.10349486 0.07461968 0.09858804 0.0035963976 -0.023823861 -0.23305428 -0.08749714
0.06906666 0.14238669 -0.43647817 -0.3409309 -0.06445137 -0.10830098 -0.28511116 -0.19803676
-0.4092105 -0.31380188 -0.30082035 -0.017632294 -0.022746312 0.087052174 0.23851341 0.30394423
0.3029788 0.10920863 0.08203458 0.17849766 0.17097555 0.11079337 0.15960276 0.035461493
0.017201476 -0.013648307 -0.041426986 0.00071776996 -0.06777698 0.015723245 -0.050041802 -0.095585674
-0.3748632 -0.44693556 -0.20162983 -0.37689546 -0.21618682 -0.21308735 -0.1729858 -0.103535876
0.068042524 -0.055649213 -0.030376313 0.16712497 0.20056936 0.12625383 0.009143359 0.107671596
-0.14247596 -0.07858208 0.045343507 0.14732908 -0.13346678 -0.16311161 -0.22265956 0.06972571
-0.0098037915 -0.11568438 -0.33144537 -0.33256787 -0.29954493 -0.102144964 0.09931682 0.028490104
-0.0941095 -0.023120584 0.006264924 0.060734294 -0.08569795 0.0121680675 -0.09804804 -0.05468693
0.11533123 0.04943895 -0.35582867 -0.19084433 -0.111131765 0.15228 -0.38381487 -0.25438774
-0.084575586 -0.15867111 -0.37020424 -0.2798068 -0.061904628 -0.009035137 -0.08259089 -0.19814941
-0.12890269 0.0038230747 0.20331831 0.36623648 0.073439166 0.15733461 0.15516573 0.21860532
0.16045283 0.055072706 -0.22515993 0.10217638 0.156147 -0.010831279 -0.28359786 0.22761944
0.282325 -0.0027186219 -0.022644311 0.20162499 0.31121695 0.09250946 -0.21272235 -0.28204855
0.26380822 0.047950827 -0.126053 -0.06207373 -0.087106496 -0.15944707 -0.28359896 -0.07576969
-0.046854965 -0.20383748 -0.061765213 -0.17586279 -0.38071 -0.22227737 0.009578075 0.034643713

conv2.bias f4 [16]
00000000: 36ed f0bd 0ffa b4bd 1c58 793d d2b7 01be
00000010: c44b 0fbd 9c15 d43d d128 593e d0f0 c53d
00000020: 9536 4a3e 0390 cdbd 52c0 bc3d c922 15be
00000030: 380b d43d 3eab 3e3c 51a0 4e3e 9fc8 97bc
-0.117639944 -0.088367574 0.060875043 -0.12667778 -0.034984365 0.10355684 0.21206976 0.09665072
0.19747384 -0.10037234 0.0921637 -0.1456405 0.10353702 0.011637507 0.20178343 -0.01852828

fc1.weight f4 [120, 400]
00000000: 7e21 7ebc b450 7abd ce76 0bbc 862f 9cbd
00000010: ee16 613c 0574 373d 3d6f 3e3c abf5 5ebd
00000020: d0b1 6f3c 9abf ff3d 840b ad3d e18f b23c
00000030: 3ead 1dbd 2812 8ebd 6f95 c9bc 5dd5 a4bd
00000040: 081a 3ebd 9813 88bd b1ab 20be 3bc7 11be
00000050: b323 1ebc b288 a2bc c31a e2bc 1202 05be
00000060: ca4e e7bc 9020 5bbd 0b83 5bbd 1e0f 8e3d
00000070: afe0 e23c 9e5f 6f3d d384 8abe 6ddd f0bd
00000080: c1fa 213d d222 7d3d 1839 9dbd 2f6e 52be
00000090: f1a5 20bd 00c7 0c3b c5c6 ae3d 06e1 27be
000000a0: e209 b43d fe24 883d 14b1 7bbd db58 903d
000000b0: 5204 423d f2bc 313e 5198 24bc 74bd 76bd
000000c0: 0713 1bbd 3385 b0bd 24aa 99bd 035f 9f3d
000000d0: 7617 c63d 0ecf a9bc 82f3 e13c 48bc f73d
000000e0: c94f 733d 05d5 9cbc 2ad9 443d af8e 033c
000000f0: 5cac 3e3e ddc3 22be a21f a6bc cb9e a4bd
00000100: 7107 973c 8ebd 67be 188f 25bd 087d d2bc
00000110: dce3 6bbe 2804 9abd ff37 6e3b 2755 b03c
00000120: ccb0 a23c 1bb2 a0bd 4e74 14be 4dfe 48be
00000130: 5391 08be ed1c 38bd 3893 fbbb ab4f 6c3c
00000140: 8432 0ebe e865 5f3d 8844 47bd 0bb5 b73d
00000150: db35 a33c eb27 b93d 228d 8a3e a0a6 bc3d
00000160: ef38 d9bc a019 4ebd 287b 98bb 0ca4 6fbc
00000170: 49c1 16be 72cd 11be e09c f8bd 2ad7 c23d
00000180: 351a f2bc 977c a3bd 4efa dbbc 3911 2a3c
00000190: 10cb 32bd a8d7 e93b 70f7 393d ebf2 be3d
000001a0: a424 2f3d 62e7 0f3d 127b e53d 8184 3b3d
000001b0: e2a2 1e3e 11b3 793e 5ecf 3c3d c8f4 393e
000001c0: 6774 813d c489 4cbe 47a2 a6bd d77f a03d
000001d0: a9a4 79bd 4917 2bbd e043 17be 56d7 863c
000001e0: f822 273d 3d8e a73d ce7d 573d e3c1 16bd
000001f0: 4664 693d df58 acbd 151d f23d 3464 453d
00000200: d971 cb3d e28e 043d 76ec e23d 61c5 633e
00000210: 37d0 723d 44f5 7a3d 3aff e43d 6236 1f3c
00000220: dbf2 4e3d 0b2e d1bd e2b9 bb3b f3fc 05be
00000230: e82d 98bd 4722 16bd afa9 5cbd 5b4c bfba
00000240: 0b8b 0fbe 9489 8fbc b1c7 c9bd c790 b0ba
00000250: 74f7 d3bd f8fc 32be cc43 dbbb f449 54bd
00000260: aecd f23c 2603 953c 9032 bb3d 9e60 a93c
00000270: 2219 1fbe 1373 81bc e4d3 a2bb e816 1b3e
00000280: 9301 febd d919 99bd d63e fe3d 49da 983b
00000290: d8c7 56bd d0a4 7cbd 66b1 a03d 29f9 0c3e
000002a0: a4bb acbc 7e90 893d 1a1c d9bb 964d c23d
000002b0: 395c 243e 40e2 ef3d 5811 b1bc a429 053e
000002c0: d9fe 213c bc86 2abd aa1e f0bd f466 b3bd
000002d0: 4626 0e3e 4ee7 923b 4485 e13c e1e8 7c3c
000002e0: f123 7b3d 2770 fdbc 3007 403e 1334 6e3d
000002f0: 1e97 9abd ec59 2dbd a970 62be 673a a9bc
00000300: 2c73 a83d 87ca c23c 27d5 9bbc 03af 21be
00000310: a3f2 b6bd b901 a0bd 4697 a93c 10d0 5dbd
00000320: f7ac 7c3d 6cd0 643d 0fa3 51bd d26f 893c
00000330: 0a00 5d3d 237d d83d eb58 003e 4722 b33d
00000340: 6e3a 07bd 4dcf ac3d 37a2 513d 00a3 c23d
00000350: 681d 113e 0f29 e33d 7149 393e 4458 35be
00000360: 0917 8cbd 97ba 153d b6cb cbbc c891 0bbe
00000370: 9c5a 32bd e1bd 0d3d a17a b0bd 4d7f 05bd
00000380: 5977 e83d 93e3 a7bc eeb1 85bd 574d a8bd
00000390: 1460 9abd 9594 c03d 57bf 1dbe 8225 04bd
000003a0: 5be9 14bd 9e4e 1abc 5950 a9b9 bd66 763d
000003b0: cef0 1a3c bdae dabc a993 473c 5c93 b33d
000003c0: f441 923d f8b5 d03d 5e70 c33d 3b34 1a3d
000003d0: 1a5b 923d 7beb 4bbd 566e 0dbe 2b23 ccbd
000003e0: a859 723d 54d8 0dbe 947b 033e b559 db3d
000003f0: 8143 4ebd a69b d4bb 49ea 3abd f204 203e
-0.015510915 -0.06111212 -0.008512212 -0.07626252 0.013738377 0.04478838 0.011623201 -0.054433506
0.014629796 0.12487717 0.08449462 0.021797122 -0.038495295 -0.06937057 -0.024607388 -0.08048508
-0.046411544 -0.06644362 -0.15690495 -0.14236157 -0.009652066 -0.019840572 -0.027600652 -0.12989071
-0.028235812 -0.05349785 -0.05359177 0.06936477 0.027695028 0.058440797 -0.27054462 -0.117609836
0.03954578 0.061800785 -0.076769054 -0.20549844 -0.039220754 0.0021480918 0.08534006 -0.16394433
0.087909475 0.06647681 -0.06144817 0.07048198 0.0473674 0.17357233 -0.010046081 -0.06023927
-0.037859943 -0.08619156 -0.07503155 0.07781794 0.096724436 -0.020728614 0.027581934 0.12096459
0.05940226 -0.019144544 0.048058666 0.008029624 0.18620437 -0.15895028 -0.020278756 -0.080381
0.018436166 -0.22630903 -0.040419668 -0.025694385 -0.2303614 -0.07520324 0.0036349294 0.021524979
0.019859694 -0.07846471 -0.14497492 -0.19628258 -0.13336687 -0.04494946 -0.007677462 0.014423291
-0.13886458 0.054540545 -0.04864934 0.08970078 0.019923141 0.09040817 0.270608 0.09211469
-0.026516406 -0.050317407 -0.0046533532 -0.014626514 -0.1472217 -0.14238527 -0.121392965 0.095136955
-0.029553512 -0.07982748 -0.026852753 0.010380083 -0.043650687 0.007136304 0.04540199 0.09323677
0.042759553 0.035132773 0.112051144 0.045780662 0.15491822 0.24384715 0.0460962 0.18159783
0.0632103 -0.19974428 -0.08136421 0.078368835 -0.060948048 -0.041770253 -0.14771986 0.016460102
0.040804833 0.08181427 0.05261021 -0.036806 0.056980394 -0.08415388 0.11821953 0.048191264
0.09933824 0.032362826 0.110802576 0.22243263 0.0592806 0.06126906 0.11181493 0.009717556
0.050524574 -0.1021386 0.005728946 -0.13084774 -0.07430631 -0.036653783 -0.05387276 -0.0014594899
-0.14017884 -0.017521657 -0.09852541 -0.0013470881 -0.10349932 -0.17479312 -0.0066914316 -0.05182834
0.029639091 0.018189978 0.091405034 0.020675953 -0.15536931 -0.015801942 -0.004969107 0.15145457
-0.12402644 -0.07475633 0.12414329 0.0046646935 -0.05243668 -0.061680615 0.07846336 0.13766922
-0.021085568 0.06717013 -0.0066256644 0.094874546 0.16050805 0.11713076 -0.021614715 0.13004166
0.009887421 -0.0416324 -0.11724599 -0.08759871 0.13881788 0.00448314 0.027529366 0.015436382
0.061313573 -0.030937267 0.18752742 0.05815513 -0.075483546 -0.042322084 -0.22113289 -0.020657731
0.08225092 0.023778213 -0.019022537 -0.15789418 -0.08932998 -0.078128286 0.020702016 -0.054153502
0.06168839 0.05586283 -0.051180895 0.016776953 0.053955115 0.10570743 0.1253392 0.08746772
-0.033014707 0.08437977 0.05118009 0.09503746 0.14171374 0.11091816 0.18094422 -0.17709452
-0.06840331 0.0365549 -0.02487741 -0.1362983 -0.043543443 0.03460491 -0.086171396 -0.032592107
0.11350889 -0.020494258 -0.06528078 -0.082178764 -0.07537857 0.0940334 -0.15405022 -0.032262333
-0.036355358 -0.009418158 -0.00032294056 0.060156573 0.009456826 -0.02669465 0.012181201 0.08768341
0.07141486 0.10190958 0.09542917 0.037647467 0.071462825 -0.04978512 -0.13811621 -0.09967645
0.059167534 -0.13852054 0.1284011 0.1071047 -0.050357345 -0.0064882813 -0.045633588 0.15626886

fc1.bias f4 [120]
00000000: 6f64 c13d 58d9 863d b162 7e3d e9d6 713d
00000010: 8708 8abc a3e9 313d 01c2 863d 31d0 f73b
00000020: 737c a63d 9cde 6c3c 1978 f5bc 4814 1bbd
00000030: ef2a 12ba ffd8 703b bf30 123d a983 2c3d
00000040: 1ad1 e0bb e953 90bd 46cf 90bd f3e8 12bc
00000050: 6bc5 9c3d cad3 d93d 61bd e33c 41a4 fb3c
00000060: 8472 223c 1975 fa3c 577f 4ebd aeac a2bd
00000070: 7405 023d d47f f53d 2e43 10bd d7d9 c8bc
00000080: 6d50 8c3d 39e9 20bd b841 9b3c 8483 b03d
00000090: d3af 713d ade3 2fbd 6bea b13b bd3e 8dbd
000000a0: 796c 853d fe48 bcbb c588 96bd 4aed db3d
000000b0: 4d00 0d3a 14a3 113d a89f 05bc 7735 323c
000000c0: 5f3f 8e3c eaee 2ebd 700b 0f3d b76e a83d
000000d0: 42a2 d33d 116b bf3d 2c7b 4e3d a288 c83d
000000e0: eec8 1c3d 4040 a0bd 32cf bb3d 8567 69bd
000000f0: 2bae 393d 3f06 b33c 3b07 803d 40e4 f5bc
00000100: 6645 ab3d 5a11 503c feb1 f5bc af00 e93c
00000110: 9236 043e 8db4 b83d 137c 8fbc 3fce 6dbc
00000120: 0228 a73d 6155 6d3c a46c 253c 2b46 c3bc
00000130: 30ce 03bd 8893 d63d ce8a c43d b8cc 613d
00000140: 995a f0bd f600 0f3d 30d9 13bd 4c2f 16bd
00000150: bfc8 073b d9e1 54bb 0b37 4bbd 203f b23d
00000160: eeab b9bc 9724 373d dd76 013c c942 8ebd
00000170: 1d1f a43c 5a7f ebbc 21d7 f23c 8f5a bd3b
00000180: 9e92 b03c dbd3 2a3d 1ff8 273d 12d7 263a
00000190: 2801 95bc 0afa 00bd 45b8 b6bb 4e2e f73b
000001a0: 6e54 2abd ff36 d43d 8c01 143e d543 bebc
000001b0: a12b a2bc 4c5f aebb 8aba 12bd 1360 00bd
000001c0: cab6 97bd 815c d1bc cac3 c7bd e7e3 a53d
000001d0: b6ca a0bd d2d6 8e3d 3432 0d3e 6bef c93d
0.09442984 0.06584424 0.06210584 0.059042845 -0.01684977 0.043435704 0.06579972 0.00756266
0.081292056 0.014457371 -0.029964494 -0.03786114 -0.00055758556 0.0036750434 0.03569102 0.04211775
-0.0068608643 -0.070472546 -0.07070784 -0.008966672 0.07654842 0.10636099 0.027800264 0.03071797
0.009914998 0.030573415 -0.05041441 -0.07943092 0.03174348 0.11987272 -0.035220318 -0.024517937
0.068512775 -0.03928492 0.018952236 0.086188346 0.05900557 -0.042941738 0.005429556 -0.06896732
0.0651483 -0.005746006 -0.073503055 0.10738619 0.0005378768 0.035555914 -0.008155741 0.010877005
0.017364202 -0.042708315 0.034923017 0.08224242 0.103336826 0.09346593 0.050410435 0.09791686
0.03827756 -0.07824755 0.09170379 -0.05698349 0.045332115 0.021853564 0.06251379 -0.030016065
0.08362846 0.012699449 -0.0299921 0.028442709 0.12911442 0.09018812 -0.017515218 -0.014514505
0.08161928 0.014485688 0.010096703 -0.02383717 -0.032179058 0.10477358 0.095967874 0.055126876
-0.1173603 0.034913026 -0.036095798 -0.0366662 0.002071902 -0.0032483249 -0.04961304 0.087034464
-0.02266499 0.04471263 0.007901874 -0.06946332 0.020034367 -0.02874725 0.029643597 0.0057786177
0.021554288 0.041705947 0.04100811 0.00063644454 -0.018189028 -0.031488456 -0.005576166 0.0075433617
-0.041584425 0.10362052 0.14453715 -0.023225704 -0.019796195 -0.005321419 -0.03582243 -0.031341624
-0.07407911 -0.025556805 -0.09754141 0.081001095 -0.07851164 0.069745675 0.13788682 0.098601185

fc2.weight f4 [10, 120]
00000000: 7d48 3ebe 96dc fc3d f974 1ebd b13e da3d
00000010: b3c9 87be 6a8b ab3d 05bc f9bc 99e2 62bc
00000020: c03c e2bc ac4b 66be 3b82 94bc d545 a4bb
00000030: dc54 52bd cb2d d0bd 182d 05be 1b20 55be
00000040: 4359 bd3c eaf4 2dbe 2e42 283e f179 2cbe
00000050: 4584 433e 4ed3 c9bd 8a01 833d f62a 413d
00000060: 5b31 fcbd 6230 8b3d 150f 093e 7398 36bd
00000070: ae1d 5c3d 56bc 8f3d 6729 47bd 831a 1dbe
00000080: f991 803c 1bec ac3d 7cbb 74bb 1301 3bbd
00000090: 9745 273e 4e98 983d a61f 943c d281 95bd
000000a0: 90bf 173d 9a2b 85bd 1ecb 193e ed9f e4bc
000000b0: 4f81 97bc 66c7 403e 32b2 b4be 5af8 52bd
000000c0: 92c0 ef3d ccf8 303e 75f1 1cbd d23b 2abe
000000d0: 38ff 2fbe d87a c1bd f973 a5be cb23 15be
000000e0: 4ed1 e1bd 11f5 63be 4e06 0abe 48a3 b4bd
000000f0: 78b9 00be 340b 65bd 72ba 22be 6607 f0bd
00000100: f19b 73be 47d6 3d3c 43b2 153e 9971 05be
00000110: ae37 a53d d294 d13d 175d 50bc 6b92 d83c
00000120: 66ad b93d 8ff9 7ebe cc59 853d 2ad0 00be
00000130: 415e 8fbd ad75 d5bd de05 223e 547a a63d
00000140: ad1e 1fbe c9c4 8e3d 5986 10bd 4bd5 01bd
00000150: ea8f 3c3d 8a68 c3be ce66 6c3b 0722 0ebe
00000160: 1213 863d a711 343c 0aec da3d 5434 35be
00000170: c8e4 e43c e16b 973b 1053 b6bc 1a7f a83d
00000180: b0ec 8cbd b36f 0abd 3d27 acbd 1920 353e
00000190: ff59 edbd b330 883d 078b 8ebd e5bd 60ba
000001a0: 43dd 1b3c 43e7 3d3e f173 bf3c 818a c3bc
000001b0: 4027 923d aa7b fb3d a358 07be c356 56bd
000001c0: 08b6 8dbd 767a 013e 23af 1d3e e83b 8fbd
000001d0: 2d97 cfbc 8189 0b3e 3e4b d33d 1e3f 75bd
000001e0: 2d1a 123e 3f7a 29be 47d5 a0be 3fef a9bc
000001f0: bbf6 273e 7475 043e ba98 0abe 901f 94bc
00000200: 709d 41be 0357 b2bd a167 703d 0a80 b4bc
00000210: 7908 2c3d f287 603d ff26 67bd aea8 983d
00000220: e74b 99bd 9f54 053e 3541 643c 2b4f 213d
00000230: 1733 b23d 4b0f e43c 53d8 053d 0957 103e
00000240: 3acc 86be 0993 64be 5fa7 e93d 7e50 65bd
00000250: bf9b a9bc cf36 5a3e b73a 34bc 0caa 073e
00000260: 903e 87be ba6e bcbd e775 5c3d 7f71 be3d
00000270: 1582 31be 4007 c5bd 0f1b 0bbe 5439 7ebd
00000280: 25f0 4fbe 7f64 08bd 7def 5f3d ebc0 75be
00000290: b90e 11bd 6c1c b2bd ca32 f13d fc72 a5bd
000002a0: 08f0 8cbe c2bb 42be ecf5 91bd 37ad 753d
000002b0: db4b 38be 2021 2d3e 64e0 b33d 6adb 513d
000002c0: 2538 013e affe 783e 67b9 7a3c d5cd f83d
000002d0: 2378 fabd 7240 f03c 33f5 9d3d 0792 da3d
000002e0: 4039 c8bd 7a21 bc3c 0a08 ec3d 61b3 763d
000002f0: 2974 033e c330 b4be b195 20bd 5541 89be
00000300: 41af 58be 60a5 bdbd 660a 6ebd 52e4 2cbd
00000310: 5c7f 57bd b663 30be add6 c5bd e0f5 083e
00000320: cf47 7dbc 1a4a d63c 5b80 63bd 59be 72bd
00000330: e22c 19bd 1297 c13d 543a 283d 065d ddbd
00000340: 2c3b ee3d 3748 45be a2e7 99bc 2e65 cfbd
00000350: 7b0b 513e da74 33bd b51f 85be 2cba df3c
00000360: 3474 16bc 0d69 e1bd ede3 00bd 8763 543e
00000370: 70b3 553d b4ea 4cbe 6b7e d5bd 85c7 9abd
00000380: 317f 59bd cc08 16be 5e90 303d 2edc b7bc
00000390: 8fca d23d 8b99 783e 968b 31be bf2a 8dbc
000003a0: 1ca1 773d b634 febd 73fb 7c3d e9fb edbd
000003b0: ce83 eebc ae14 ddbd e800 9f3d 4050 25be
000003c0: 7d27 63be 4bda 173d c430 253e c453 9a3d
000003d0: de48 babd b224 583d 820b 053e 55c4 58bc
000003e0: 6791 0f3d bb78 b33c 4d68 783d 487a 6ebd
000003f0: 0cb5 97bd d40d 90bd dcf8 25be ef60 9dbd
-0.1858234 0.12346761 -0.038685773 0.10656489 -0.26521072 0.083762005 -0.030485163 -0.01384797
-0.027616858 -0.22489804 -0.018128505 -0.0050132074 -0.05135046 -0.10164984 -0.13005483 -0.20813029
0.023113852 -0.16987959 0.16431496 -0.16843392 0.19093426 -0.09854756 0.06396778 0.04716011
-0.12314101 0.06796338 0.1338466 -0.04457898 0.053739242 0.07018344 -0.04862347 -0.15342145
0.015694605 0.08443471 -0.0037343195 -0.04565532 0.1633514 0.07450925 0.018081497 -0.07300152
0.037047923 -0.06502457 0.1501889 -0.02790829 -0.018494276 0.18826064 -0.35292202 -0.051506378
0.11706652 0.17282408 -0.03831621 -0.16624382 -0.17187202 -0.09447259 -0.32315043 -0.14564435
-0.1102625 -0.22261454 -0.13478968 -0.08820206 -0.1257075 -0.055918887 -0.15891436 -0.11720161
-0.23789956 0.011586732 0.14618783 -0.13031615 0.08067261 0.10233463 -0.012717507 0.026437005
0.09066276 -0.24899887 0.06511268 -0.12579408 -0.070003994 -0.104228355 0.1582255 0.08128801
-0.15539046 0.069711275 -0.035284374 -0.031697553 0.046035685 -0.38165694 0.0036072019 -0.13880168
0.06546606 0.010990537 0.10689552 -0.17695743 0.027941123 0.0046210145 -0.022256404 0.08227368
-0.06881082 -0.03379793 -0.084059216 0.17688026 -0.11589431 0.06649914 -0.06960111 -0.00085732184
0.009513202 0.1854525 0.023370715 -0.023869755 0.071363926 0.122794464 -0.13217406 -0.052328836
-0.06919485 0.12644371 0.1539884 -0.06993848 -0.02534064 0.13626672 0.10317086 -0.059874646
0.14267798 -0.1655054 -0.31412718 -0.020743964 0.16402714 0.1293543 -0.13534823 -0.018081456
-0.18907714 -0.087080024 0.05869258 -0.02203371 0.042000268 0.054817148 -0.056433674 0.07454048
-0.0748518 0.13020562 0.013931562 0.03938214 0.08701151 0.027839324 0.032677006 0.14095701
-0.26327688 -0.22321714 0.11408877 -0.055984966 -0.020704148 0.2130997 -0.011000327 0.13248461
-0.2641492 -0.09200807 0.053823378 0.092989914 -0.17334779 -0.096205235 -0.13584541 -0.06206639
-0.20306452 -0.033298966 0.054671753 -0.23999374 -0.03541443 -0.08696827 0.11777265 -0.08078572
-0.2752688 -0.19016936 -0.07126984 0.059979644 -0.17997687 0.16907167 0.087830335 0.05123464
0.12619074 0.24315904 0.015302992 0.12148634 -0.122299455 0.029327605 0.07712784 0.10672384
-0.097765446 0.022965182 0.11524971 0.060229663 0.1283728 -0.35193452 -0.039205257 -0.26807657
-0.21160604 -0.092600584 -0.058115385 -0.04220993 -0.052611694 -0.17225537 -0.09660087 0.13375044
-0.015459015 0.026158381 -0.05554233 -0.05926356 -0.03739632 0.094526425 0.04107125 -0.108087584
0.1163238 -0.19265829 -0.018787209 -0.1012672 0.20414536 -0.04381261 -0.26000753 0.027310453
-0.009182978 -0.11006365 -0.031467367 0.20741092 0.052173078 -0.20011407 -0.10424503 -0.075575866
-0.053099815 -0.14651793 0.04310643 -0.022443857 0.10292541 0.24277322 -0.17338404 -0.017232297
0.06045638 -0.124123976 0.06176324 -0.11620314 -0.029115584 -0.1079496 0.07763845 -0.16143894
-0.22183032 0.037073415 0.16131884 0.07535508 -0.090959296 0.05276937 0.12992671 -0.013230403
0.035050776 0.021908155 0.060646344 -0.058222085 -0.07407579 -0.070338875 -0.16208214 -0.07684504

fc2.bias f4 [10]
00000000: 8a4d 46bd 863d c9bd bef8 cabd eeee 873d
00000010: 71cb ba3b d100 343d a3e9 59bd 8777 853b
00000020: 76c9 073e 4b5d d83d
-0.04841379 -0.09826188 -0.09910725 0.06637369 0.0057005216 0.04394609 -0.05320133 0.0040730867
0.13260445 0.10564669
