Boosted LeNet4/model2.pth (torch, 206533 bytes, 8 tensors)

conv1.weight f4 [4, 1, 5, 5]
0.34290236 0.24193682 0.23933621 0.069040634 -0.12119056 0.44140756 0.288611 0.0030699742
-0.34357277 -0.1407262 0.32857737 -0.0020544757 -0.2881258 -0.41912907 -0.13158107 0.32056624
-0.053025536 -0.2824123 -0.3271859 0.1933326 0.333218 -0.2429249 -0.32836956 -0.042947326
0.033797555 -0.33831757 -0.19490224 -0.03461227 0.0640948 0.09857002 -0.3635492 0.047074363
0.32810363 0.37514502 0.11431955 -0.23076181 0.27795306 0.36299744 0.20154092 0.1638815
0.011799971 -0.076729365 0.24114184 0.11503694 -0.08050082 0.10913656 -0.03999996 -0.12857911
-0.005828729 -0.024478344 0.1487957 -0.37573534 -0.3742104 -0.46289465 -0.37516516 -0.12243275
-0.09328859 -0.021076836 -0.083017364 0.009857072 0.30012602 0.35131097 0.42906204 0.3489931
0.37293288 0.21517414 0.2205666 0.24054438 0.25407755 0.1173089 -0.108509764 -0.054517403
-0.23419169 -0.21484073 -0.20018837 0.12295086 -0.002529452 0.097577445 -0.15704587 -0.45311692
0.00081777875 0.3993527 0.18410234 0.16733623 -0.49662274 0.11641393 0.33123237 0.21457747
0.4174417 -0.056129996 -0.0012538285 0.09932842 0.10104116 0.38779917 -0.11202678 -0.5281575
-0.05739788 -0.14398846 0.08947808 0.08205044
00000000: e690 af3e 49be 773e 8d14 753e 2d65 8d3d
00000010: c232 f8bd 2c00 e23e d2c4 933e 9f31 493b
00000020: c5e8 afbe 871a 10be 4b3b a83e 62a4 06bb
00000030: 3a85 93be 1698 d6be 30bd 06be 4221 a43e
00000040: 4e31 59bd 5898 90be e984 a7be fbf8 453e
00000050: 8d9b aa3e 4ec1 78be 0e20 a8be 89e9 2fbd
00000060: 4e6f 0a3d f637 adbe 7494 47be 98c5 0dbd
00000070: 2244 833d 14df c93d 1f23 babe 0cd1 403d
00000080: 33fd a73e 0213 c03e 5e20 ea3d d34c 6cbe
00000090: dd4f 8e3e cdda b93e be60 4e3e 8dd0 273e
000000a0: aa54 413c 4924 9dbd e3ed 763e 7d98 eb3d
000000b0: 9ddd a4bd fd82 df3d 00d7 23bd 3eaa 03be
000000c0: ecfe bebb cf86 c8bc e65d 183e 6260 c0be
000000d0: 8198 bfbe 8700 edbe a615 c0be 06be fabd
000000e0: 170e bfbd 54a9 acbc 0205 aabd 8e7f 213c
000000f0: 1eaa 993e 08df b33e 05ae db3e 39af b23e
00000100: 0ff1 be3e 9c56 5c3e 36dc 613e 4451 763e
00000110: 7416 823e a63f f03d 5e3a debd a44d 5fbd
00000120: f2cf 6fbe 35ff 5bbe 2efe 4cbe a9cd fb3d
00000130: 2ac5 25bb afd6 c73d a2d0 20be f1fe e7be
00000140: 3460 563a f577 cc3e 5385 3c3e 305a 2b3e
00000150: 5645 febe 6d6a ee3d 4a97 a93e 32ba 5b3e
00000160: ebba d53e 91e8 65bd 8157 a4ba b36c cb3d
00000170: abee ce3d 9d8d c63e 4c6e e5bd 5435 07bf
00000180: 0a1a 6bbd b671 13be 4940 b73d 100a a83d

conv1.bias f4 [4]
0.072869636 0.23137079 0.10635576 0.1263735
00000000: ad3c 953d 77ec 6c3e 0cd1 d93d 0e68 013e

conv2.weight f4 [16, 4, 5, 5]
-0.091502815 0.016384972 0.1897081 0.07413462 0.02507046 -0.15208814 -0.16365573 0.12166069
0.16513425 -0.029376406 0.028407326 -0.3557242 0.0709791 0.21560298 0.06478217 0.18552819
-0.4476479 0.0536484 0.1648506 -0.08122653 0.050802603 -0.4014656 -0.031889193 0.049790207
-0.15282016 -0.091852576 0.08247299 0.08961819 0.12770328 0.024782512 -0.07340503 0.018256765
0.08896135 0.09510956 -0.056586664 -0.12804992 0.059204575 0.15264648 -0.096055664 -0.22151382
-0.3320752 -0.060039934 0.2028473 -0.116325766 -0.25948155 -0.28391144 0.011454572 0.14700145
-0.039836418 -0.35239825 -0.2339876 -0.26251784 -0.14551915 -0.012569062 0.049100455 -0.13138321
-0.23749174 0.02845887 0.091190964 0.045406185 -0.1170968 -0.13456981 0.032401808 0.017516904
0.13163687 -0.34943467 -0.5750256 -0.09644991 0.21507458 0.09630654 -0.14680403 -0.3783943
-0.14606524 0.15912935 0.102193594 -0.0039513228 0.04506969 -0.046748567 -0.04152274 0.01854467
0.07897815 0.11504662 -0.00083431404 -0.042405967 0.048745446 -0.13931741 0.22838382 0.24449821
0.13560177 -0.06208421 -0.32355866 0.08667129 0.1912081 0.111360766 -0.16389759 -0.2452649
-0.05730803 0.23364763 0.08518005 -0.06383981 -0.08187478 0.13734308 0.09451331 0.14836064
0.076117516 0.0391214 0.17070755 0.08265893 0.23093331 0.17079897 0.16813748 0.1951651
0.13311188 0.14570071 0.16514261 0.085602306 0.16072392 0.07018009 -0.015938867 -0.0785473
0.11913228 0.10490469 0.22040308 -0.02019845 -0.345442 -0.10112677 -0.011309061 0.033360664
0.113766246 0.17157207 -0.24368119 -0.14266026 0.15688033 0.15454921 0.011455747 -0.27212667
-0.13745268 0.013470216 -0.017039973 -0.085943125 0.04007472 0.02785139 0.044952456 -0.1776884
-0.11576628 0.22993867 0.13725837 -0.2330154 -0.36631408 -0.25405294 -0.3610228 -0.16050714
-0.03226544 0.09286033 0.1726895 -0.2671715 -0.27517134 -0.11112028 0.13815325 0.024853509
-0.12305479 -0.16425334 -0.1460283 -0.030065836 -0.018855518 -0.0035426803 0.024984447 -0.21645966
-0.34824193 -0.34627005 0.14763889 0.04823919 0.10113687 -0.044938058 -0.16131191 -0.15373093
-0.01840682 -0.065793484 -0.04557634 -0.019624766 -0.21427675 -0.34365103 -0.04090061 0.048461333
-0.031852107 -0.097243525 -0.2977068 -0.29070547 -0.15290827 -0.09070329 0.14985107 -0.15039319
-0.20284206 -0.18532738 -0.26591548 0.24839212 0.2496639 -0.12822975 -0.15454996 -0.2565338
0.060235664 0.2548539 0.16189097 0.006772817 -0.047902793 0.21642615 0.19629616 0.24163944
0.038955253 -0.09178331 0.05245085 0.03908834 0.12489117 0.14456731 0.011712255 -0.25240052
-0.023095135 0.046372406 -0.06533604 -0.09482718 -0.28196162 0.030240947 0.07826353 -0.03121332
0.06857535 -0.074899755 -0.052842475 0.010714651 0.11127883 0.14967388 0.13838671 0.06019246
-0.10602729 -0.009483756 0.15933001 0.06446524 0.064505585 -0.018278113 -0.04987812 0.07126568
0.014365852 0.085857116 0.0052864277 -0.15278141 -0.14509545 0.049465228 0.14877309 0.090631336
0.056298565 -0.1708635 -0.08366584 -0.186542 -0.20874746 -0.21025172 0.03198576 -0.31569135
00000000: d465 bbbd c739 863c d742 423e e4d3 973d
00000010: 9160 cd3c febc 1bbe 5e95 27be 3d29 f93d
00000020: f418 293e caa6 f0bc 7bb6 e83c 7b21 b6be
00000030: 7e5d 913d 07c7 5c3e 84ac 843d 1afb 3d3e
00000040: 1b32 e5be 6dbe 5b3d 98ce 283e 185a a6bd
00000050: 6416 503d e68c cdbe 3e9e 02bd d1f0 4b3d
00000060: e37c 1cbe 341d bcbd 99e7 a83d be89 b73d
00000070: a6c4 023e b204 cb3c 6055 96bd 368f 953c
00000080: 5e31 b63d cdc8 c23d 6bc7 67bd 851f 03be
00000090: 7f80 723d 5c4f 1c3e d5b8 c4bd 85d4 62be
000000a0: c305 aabe 6fec 75bd 34b7 4f3e 343c eebd
000000b0: c4da 84be d75c 91be f5ab 3b3c 8c87 163e
000000c0: 832b 23bd 8b6d b4be 729a 6fbe bd68 86be
000000d0: f902 15be 78ee 4dbc 8f1d 493d 5289 06be
000000e0: 0931 73be 9322 e93c 54c2 ba3d d6fb 393d
000000f0: 72d0 efbd abcc 09be c2b7 043d 9c7f 8f3c
00000100: d1cb 063e 1ae9 b2be e134 13bf 8887 c5bd
00000110: 833c 5c3e 5d3c c53d cc53 16be e6bc c1be
00000120: 2092 15be cef2 223e e04a d13d 197a 81bb
00000130: ff9a 383d 6d7b 3fbd c013 2abd feea 973c
00000140: 4cbf a13d 909d eb3d deb5 5aba e1b1 2dbd
00000150: 4ea9 473d 39a9 0ebe 73dd 693e bd5d 7a3e
00000160: 31db 0a3e 034c 7ebd 7ba9 a5be b880 b13d
00000170: 0ecc 433e 1d11 e43d c5d4 27be b926 7bbe
00000180: d3bb 6abd 5341 6f3e e172 ae3d 72be 82bd
00000190: f7ad a7bd aaa3 0c3e 3290 c13d daeb 173e
000001a0: 80e3 9b3d c33d 203d f6cd 2e3e 1649 a93d
000001b0: c879 6c3e ede5 2e3e 3b2c 2c3e 5cd9 473e
000001c0: 7b4e 083e 9132 153e 251b 293e 4350 af3d
000001d0: d094 243e 94ba 8f3d 3a92 82bc 68dd a0bd
000001e0: a0fb f33d 45d8 d63d 58b1 613e 3877 a5bc
000001f0: c6dd b0be 8d1b cfbd a449 39bc 31a5 083d
00000200: 47fe e83d 97b0 2f3e 9087 79be 8815 12be
00000210: 3da5 203e 2642 1e3e e3b0 3b3c 3054 8bbe
00000220: 65c0 0cbe 2eb2 5c3c 6a97 8bbc f302 b0bd
00000230: 6425 243d 9928 e43c 1120 383d f3f3 35be
00000240: df16 edbd 0b75 6b3e 758d 0c3e 979b 6ebe
00000250: 858d bbbe 3a13 82be fbd7 b8be fc5b 24be
00000260: c428 04bd 8f2d be3d 84d5 303e b4ca 88be
00000270: 42e3 8cbe 0893 e3bd 0c78 0d3e 9699 cb3c
00000280: 2604 fcbd 0732 28be 7188 15be a14c f6bc
00000290: e376 9abc 502c 68bb 2fac cc3c 9aa7 5dbe
000002a0: c44c b2be 4f4a b1be a62e 173e 7596 453d
000002b0: d920 cf3d f810 38bd f32e 25be a46b 1dbe
000002c0: e6c9 96bc bcbe 86bd 42ae 3abd 1ec4 a0bc
000002d0: 5d6b 5bbe 07f3 afbe 6687 27bd 647f 463d
000002e0: 5b77 02bd 9d27 c7bd 076d 98be 59d7 94be
000002f0: fc93 1cbe a6c2 b9bd 8f72 193e ac00 1abe
00000300: d4b5 4fbe 76c6 3dbe 1326 88be 815a 7e3e
00000310: e5a7 7f3e a94e 03be 5842 1ebe 6658 83be
00000320: acb9 763d 367c 823e bfc6 253e 82ee dd3b
00000330: b835 44bd d19e 5d3e dc01 493e 5470 773e
00000340: 8b8f 1f3d e3f8 bbbd b4d6 563d 181b 203d
00000350: f1c6 ff3d 7409 143e c2e4 3f3c a43a 81be
00000360: 0232 bdbc fef0 3d3d e7ce 85bd c134 c2bd
00000370: 465d 90be ddbb f73c a148 a03d 14b3 ffbc
00000380: 3c71 8c3d 0b65 99bd 5a71 58bd 818c 2f3c
00000390: 28e6 e33d 1c44 193e 3fb5 0d3e 5e8c 763d
000003a0: d624 d9bd c161 1bbc 6827 233e 5a06 843d
000003b0: 811b 843d fbbb 95bc 004d 4cbd bef3 913d
000003c0: c05e 6b3c dbd5 af3d c539 ad3b bb72 1cbe
000003d0: e793 14be 0d9c 4a3d f957 183e ec9c b93d
000003e0: 5399 663d d7f6 2ebe ff58 abbd de04 3fbe
000003f0: e5c1 55be 3a4c 57be 8003 033d 4ca2 a1be

conv2.bias f4 [16]
-0.056572836 0.034825783 -0.07573167 0.18996142 0.07704673 0.1439476 0.094114594 0.10332248
-0.009177788 -0.044370506 0.09057263 0.018056426 0.04363077 -0.017559968 -0.1362443 0.055654876
00000000: ebb8 67bd 7ba5 0e3d 3519 9bbd 3f85 423e
00000010: adca 9d3d 0067 133e 27bf c03d bd9a d33d
00000020: 6f5e 16bc d9bd 35bd 257e b93d 12eb 933c
00000030: 2eb6 323d ecd9 8fbc a083 0bbe 5ef6 633d

fc1.weight f4 [120, 400]
-0.05741262 -0.1240817 0.030461375 0.12748264 0.0056099985 -0.03903132 0.015577802 0.0991595
0.24483885 0.08839461 -0.10434384 0.0097545395 0.011846448 0.05985391 -0.020586485 -0.063564345
0.0022378473 0.025593735 0.006498457 -0.11534967 -0.054716375 0.009523201 0.0108194575 -0.06482878
-0.110879034 0.16950457 -0.049133923 -0.111131735 -0.03392276 -0.10258238 -0.087920636 -0.031741783
0.058056723 0.025427762 -0.032911252 -0.07373827 0.026112486 0.16580231 0.14964293 1.6088947e-05
0.0084224595 0.08078662 0.012865652 0.14764626 0.109212354 -0.08392628 -0.09040876 -0.0010470058
0.10848689 0.008366488 -0.16380215 -0.11872169 0.0708874 0.0636107 0.0383969 -0.0027718048
-0.03980908 -0.063488506 -0.008565306 0.06312608 0.10250218 -0.09243708 0.09326779 0.050868668
0.050379366 0.047214326 -0.025634388 0.18272649 0.007202456 0.030406278 -0.04772557 0.067461655
0.037764106 -0.01962834 0.017058028 -0.019620355 0.07734624 0.08969506 -0.06316523 -0.04398159
-0.023993406 0.14143766 0.11850662 -0.0599333 0.058736388 -0.11783969 -0.11392606 0.006964853
0.06057771 -0.113724634 -0.12898949 0.0044938917 -0.041141972 -0.08752624 0.026425587 -0.047708366
-0.039104447 -0.001324662 0.05518367 0.03523199 -0.17557625 -0.09780674 0.029710075 0.06958393
0.12004436 -0.094777405 -0.02046804 -0.06684762 0.04732312 0.06576273 -0.0070159365 -0.05007989
-0.077776715 -0.10435619 -0.08920102 0.013762275 -0.055369917 -0.071023166 -0.15518127 -0.089384966
-0.038738012 0.051131714 0.012414968 -0.054768283 -0.048556026 -0.08776581 0.093343675 0.028158832
-0.019852357 -0.07410605 -0.04965734 0.015434988 0.19475462 0.020199807 0.15678719 -0.0063032736
0.11553489 -0.0013915778 -0.12854779 -0.056174725 -0.119724005 -0.11399406 -0.1382572 -0.18356809
-0.028124657 0.062229265 -0.005906612 0.019072542 -0.040819988 -0.043188788 -0.027008647 0.045777336
0.07036597 0.04392402 0.05763398 -0.11058481 -0.046809066 -0.007423576 -0.049266856 0.0687469
0.03322383 0.029964367 -0.0630426 -0.12893876 0.03306206 0.18925942 0.108348146 0.0069489535
-0.022926055 -0.083282225 0.017835693 0.12782943 0.038460746 0.022504104 -0.0074031143 -0.006386619
0.17076483 0.13725889 -0.020987501 -0.028119845 -0.080947496 0.10119367 0.050837167 0.08426435
0.061509952 -0.04507672 0.080780305 0.030600607 -0.023572216 -0.048720308 -0.07387692 -0.07723936
-0.1974635 -0.22856396 -0.046442255 -0.07430555 0.031134635 0.037163954 -0.008745792 -0.0042401613
-0.050322562 -0.028700128 0.04372469 0.12622303 -0.03819901 -0.12431367 -0.07110252 0.06599881
-0.012876932 0.016624073 -0.049246915 -0.025493024 -0.06028257 -0.030781267 -0.018366305 0.11389958
0.03462432 0.05616425 0.029261148 -0.076172784 0.14760596 0.020447655 0.061517112 0.08230275
0.027424352 0.011767353 0.08525461 0.0065533994 0.08080084 0.11885281 -0.050663576 -0.029934892
-0.02046514 0.014053357 -0.09643778 -0.12818177 -0.057199627 0.02403192 -0.12914598 -0.043290164
-0.062278207 -0.09434196 0.04977053 0.059123058 0.07356599 0.04725427 0.00647737 0.081263594
0.0873985 0.0127417045 -0.06897585 -0.06965564 0.011972022 0.07841613 0.12726589 -0.17313887
00000000: 7f29 6bbd 8c1e febd 228a f93c cf8a 023e
00000010: 14d4 b73b 4edf 1fbd 0a3a 7f3c 2314 cb3d
00000020: 09b7 7a3e 3c08 b53d 39b2 d5bd 81d1 1f3c
00000030: 9b17 423c 6029 753d fda4 a8bc 062e 82bd
00000040: d9a8 123b f4a9 d13c 02f1 d43b 733c ecbd
00000050: 471e 60bd 3307 1c3c 1844 313c f4c4 84bd
00000060: 8c14 e3bd 9b92 2d3e a740 49bd 0999 e3bd
00000070: 98f2 0abd b616 d2bd bc0f b4bd ac03 02bd
00000080: e3cc 6d3d e24d d03c f3cd 06bd 1704 97bd
00000090: dae9 d53c 15c8 293e ff3b 193e c0f6 8637
000000a0: 5bfe 093c 7573 a53d 75ca 523c 9530 173e
000000b0: baaa df3d 8be1 abbd 3a28 b9bd af3b 89ba
000000c0: 602e de3d 9813 093c c0bb 27be 5b24 f3bd
000000d0: 6a2d 913d 5446 823d 1146 1d3d 2ba7 35bb
000000e0: d90e 23bd 4306 82bd 7f55 0cbc 3f48 813d
000000f0: aaec d13d a74f bdbd 2f03 bf3d aa5b 503d
00000100: 985a 4e3d cf63 413d 35ff d1bc a71c 3b3e
00000110: 9402 ec3b 9616 f93c e37b 43bd 5629 8a3d
00000120: 89ae 1a3d 9dcb a0bc 47bd 8b3c deba a0bc
00000130: b567 9e3d 0bb2 b73d c65c 81bd 0a26 34bd
00000140: d28d c4bc 09d5 103e 99b3 f23d 9f7c 75bd
00000150: 9195 703d ef55 f1bd 1152 e9bd 6c39 e43b
00000160: 5520 783d 76e8 e8bd d215 04be 7f41 933b
00000170: 7c84 28bd f540 b3bd 797a d83c d969 43bd
00000180: fc2b 20bd 48a0 adba 4608 623d 6b4f 103d
00000190: 43ca 33be e64e c8bd 8b62 f33c 0582 8e3d
000001a0: d1d9 f53d a81a c2bd 97ac a7bc 68e7 88bd
000001b0: e3d5 413d 9cae 863d f1e5 e5bb 9220 4dbd
000001c0: 6649 9fbd b3b8 d5bd 06af b6bd 2a7b 613c
000001d0: 91cb 62bd 9874 91bd d7e7 1ebe 770f b7bd
000001e0: c0ab 1ebd 7d6f 513d 2668 4b3c b554 60bd
000001f0: afe2 46bd 90be b3bd f82a bf3d 5aad e63c
00000200: 69a1 a2bc eac4 97bd 7f65 4bbd 08e3 7c3c
00000210: c16d 473e 117a a53c d28c 203e b18b cebb
00000220: 8e9d ec3d 9a65 b6ba 08a2 03be 7817 66bd
00000230: dc31 f5bd b875 e9bd 4c93 0dbe 46f9 3bbe
00000240: ae65 e6bc 1de4 7e3d 418c c1bb 053e 9c3c
00000250: dc32 27bd bae6 30bd 3d41 ddbc 0481 3b3d
00000260: 091c 903d ace9 333d 9c11 6c3d 4a7a e2bd
00000270: ddba 3fbd 7841 f3bb 0bcc 49bd 2dcb 8c3d
00000280: b615 083d d577 f53c 7b1c 81bd 8608 04be
00000290: 156c 073d 39cd 413e a2e5 dd3d 0cb4 e33b
000002a0: 6ccf bbbc df8f aabd 291c 923c b8e5 023e
000002b0: 0489 1d3d 875a b83c d395 f2bb d846 d1bb
000002c0: fadc 2e3e 988d 0c3e fbed abbc 975b e6bc
000002d0: cdc7 a5bd a03e cf3d a23a 503d ca92 ac3d
000002e0: dcf1 7b3d 5ea2 38bd 2570 a53d 20ae fa3c
000002f0: 851a c1bc f28e 47bd c84c 97bd ab2f 9ebd
00000300: df33 4abe ac0c 6abe 3c3a 3ebd 822d 98bd
00000310: 100e ff3c 3b39 183d 834a 0fbc 0df1 8abb
00000320: 081f 4ebd 881c ebbc a918 333d 9c40 013e
00000330: 9176 1cbd 2a98 febd 339e 91bd 622a 873d
00000340: c4f9 52bc 352f 883c 22b7 49bd bfd6 d0bc
00000350: dbea 76bd ff28 fcbc ef74 96bc 2f44 e93d
00000360: 3bd2 0d3d 7c0c 663d 13b5 ef3c 7a00 9cbd
00000370: 0426 173e d781 a73c 5ef9 7b3d 588e a83d
00000380: 09a9 e03c dbcb 403c f899 ae3d e6bd d63b
00000390: e97a a53d 1a69 f33d 9c84 4fbd 053a f5bc
000003a0: 82a6 a7bc 0d40 663c 2c81 c5bd 1542 03be
000003b0: 284a 6abd 97de c43c d83e 04be 0751 31bd
000003c0: 6f17 7fbd 5c36 c1bd 2fdc 4b3d 052b 723d
000003d0: c4a9 963d b28d 413d 1e40 d43b 876d a63d
000003e0: fcfd b23d 95c2 503c 3643 8dbd 9ea7 8ebd
000003f0: 4d26 443c a398 a03d fd51 023e 514b 31be

fc1.bias f4 [120]
-0.03150723 -0.04594581 -0.07794933 0.13669017 0.044804182 -0.04427826 0.10805665 0.035612203
-0.03845583 0.06351619 -0.019412365 0.07150352 0.005267214 0.04099154 0.012081911 0.096688576
-0.032040372 -0.00024533985 0.031323332 0.12546586 0.06292744 0.026975693 0.027019098 -0.010568753
0.017801827 -0.03641355 0.06947522 0.09263522 0.016719814 0.01837913 -0.03510087 0.008450125
0.044331014 0.043441486 -0.07355634 -0.0898018 -0.012248185 -0.07360942 -0.004704857 -0.025178207
0.05375105 -0.079905584 -0.010506638 0.10718103 0.1158557 0.0019895867 0.077008694 -0.010275965
0.05368726 -0.016452417 0.09412781 0.00689757 -0.059486635 -0.04932678 0.042452622 0.06480547
-0.06699789 -0.04271492 0.019689916 -0.06291508 -0.082939744 -0.03507773 -0.092571124 0.13677567
0.089053534 0.03807124 0.13278592 -0.048920058 -0.05957942 0.1137452 -0.0056851557 0.0019215242
0.14865427 -0.06367907 -0.055341672 -0.055829808 0.049139086 -0.043010376 0.09571971 -0.03808948
0.05503947 -0.018854072 0.0024027224 0.014556069 0.04798065 -0.014790615 -0.013192473 0.003713778
0.01831551 -0.053304683 -0.06174959 0.074314676 -0.044259083 0.0024793763 0.06381439 0.054321926
-0.07286774 0.0046133636 0.08759287 0.10720907 -0.098388515 0.030375803 -0.021630866 -0.014470113
0.112068065 -0.08220042 -0.023560738 -0.05362597 0.048109572 0.066126175 -0.031691127 0.04268151
-0.042337317 0.05625996 -0.017764872 -0.021734891 -0.023641312 0.0820675 0.13004127 -0.04254708
00000000: ba0d 01bd ac31 3cbd e6a3 9fbd 82f8 0b3e
00000010: 9784 373d 1f5d 35bd ce4c dd3d 1ade 113d
00000020: dc83 1dbd c714 823d ae06 9fbc 7070 923d
00000030: 9898 ac3b bfe6 273d 35f3 453c a904 c63d
00000040: c43c 03bd f5a0 80b9 e54c 003d 1f7a 003e
00000050: 1ae0 803d 21fc dc3c 2857 dd3c 9028 2dbc
00000060: 23d5 913c 6026 15bd 0649 8e3d 89b7 bd3d
00000070: fef7 883c d48f 963c eec5 0fbd 6572 0a3c
00000080: 7094 353d b3ef 313d b5a4 96bd 02ea b7bd
00000090: 9dac 48bc 89c0 96bd 332b 9abb 8742 cebc
000000a0: 102a 5c3d 8aa5 a3bd 0924 2cbc ba81 db3d
000000b0: c145 ed3d ba63 023b bcb6 9d3d 855c 28bc
000000c0: 2ce7 5b3d 38c7 86bc 15c6 c03d 0305 e23b
000000d0: 42a8 73bd e10a 4abd cde2 2d3d bbb8 843d
000000e0: 3136 89bd d7f5 2ebd bf4c a13c 9fd9 80bd
000000f0: 50dc a9bd aaad 0fbd ee95 bdbd ec0e 0c3e
00000100: b361 b63d 97f0 1b3d 08f9 073e 6660 48bd
00000110: 8d09 74bd 3ef3 e83d 8b4a babb a7db fb3a
00000120: d338 183e 2c6a 82bd f3ad 62bd ccad 64bd
00000130: 1146 493d a62b 30bd b208 c43d b703 1cbd
00000140: 1171 613d db73 9abc fe76 1d3b 947c 6e3c
00000150: 5c87 443d 5654 72bc 3e25 58bc db62 733b
00000160: 690a 963c 0356 5abd 23ed 7cbd 4b32 983d
00000170: 0349 35bd 087d 223b 1eb1 823d ab80 5e3d
00000180: af3b 95bd b32b 973b e463 b33d 6e90 db3d
00000190: eb7f c9bd add6 f83c 3733 b1bc 0e14 6dbc
000001a0: f183 e53d b258 a8bd 7302 c1bc e8a6 5bbd
000001b0: 8b0e 453d 296d 873d 8ece 01bd cfd2 2e3d
000001c0: e569 2dbd d870 663d a387 91bc 5f0d b2bc
000001d0: 6dab c1bc 0113 a83d 8a29 053e d945 2ebd

fc2.weight f4 [10, 120]
0.110973455 -0.012887329 -0.1797896 0.1948031 0.019959357 0.06356991 -0.01017485 -0.056712247
-0.06509552 -0.1330879 -0.36851114 0.06990503 0.22568132 -0.22650468 0.14010255 -0.07448078
0.048043054 -0.18452278 0.10745455 -0.18401745 0.13800111 0.05156534 0.001212577 0.13461354
-0.03581445 -0.1348034 -0.12549874 -0.123075075 -0.19629423 0.049204774 -0.042306352 0.09156465
0.11186938 -0.08002349 -0.017632477 -0.06282158 -0.323477 0.083634734 -0.0991458 0.019625692
-0.09382461 0.21183267 0.1147988 -0.04030051 -0.10921612 0.036700938 0.1518646 -0.076243624
-0.009387762 0.18619381 0.050382275 0.2025149 -0.16228984 -0.12516114 0.039479528 0.16651975
0.08106344 0.10958152 -0.13657592 -0.07021738 -0.1272394 -0.005286967 -0.19277479 -0.06591398
-0.08564155 0.050938595 0.10454469 -0.1666512 0.05999285 0.049146257 -0.06812709 0.07026961
0.0910398 -0.023900684 0.05538358 -0.08017681 -0.26531294 0.07175611 0.09278288 -0.104651935
-0.22719698 -0.19194838 0.10416693 -0.03567248 0.106321394 0.004741689 -0.051426005 -0.23077229
-0.01724765 0.049307786 0.056728456 -0.12675893 0.004027038 -0.03027353 0.04844305 -0.038171254
-0.08802712 -0.023739507 0.028759168 -0.064273685 -0.07714452 -0.19136813 0.03628223 0.08259137
0.09203242 0.060343627 0.11719946 0.074554734 -0.06536588 0.12119239 -0.0681518 -0.19897097
0.089450814 0.17221744 -0.015911113 -0.023523062 -0.17406668 -0.15912405 0.13905077 -0.46963835
0.016104938 -0.056238234 -0.253035 0.09752443 -0.11511996 -0.23131044 -0.046799462 -0.04635145
-0.08868892 -0.08545892 0.12384849 0.016317766 0.16515388 -0.27696925 0.17091413 -0.028703663
0.04463704 0.09100243 0.10266977 -0.059809696 0.04207582 0.08382748 -0.2069822 -0.07158216
0.073297106 -0.13449727 0.002981458 -0.1148376 -0.19943577 -0.04808888 -0.04632326 -0.31704655
-0.22819583 0.24435508 -0.07486441 0.07434294 0.13013089 0.14692584 0.08880468 -0.040108033
-0.022008877 0.093222216 -0.0883062 -0.10311765 0.1049014 0.067371964 -0.1406107 -0.05706948
-0.11935473 -0.08866992 -0.124753766 0.23756282 0.17483613 0.17636879 -0.15973085 0.114226125
-0.22942312 0.17435224 0.03332682 0.06994144 0.1350643 0.016462537 0.13773173 0.035422347
-0.18424799 -0.031758796 -0.2743083 0.021738186 -0.009897354 -0.02650277 -0.04256021 -0.030604346
-0.07187372 0.010692394 -0.06878575 0.12551522 0.02398549 -0.06314531 0.10318171 -0.044146948
0.10424144 0.11042178 -0.05440224 -0.079623185 -0.14230369 -0.10768449 -0.07644028 -0.12686864
-0.003742219 -0.120772615 -0.0272193 -0.18416563 -0.00024094249 -0.02298363 0.03750519 0.09359553
-0.037451234 -0.021289093 -0.19260296 -0.0031661512 -0.008055514 -0.01522779 0.0030105994 -0.13761227
0.07522085 -0.127585 0.21997188 0.23333952 0.06215975 -0.071748756 0.06725482 0.043735348
-0.15191273 -0.22757794 0.008474262 -0.015923377 0.19786641 -0.1264794 -0.14530942 0.09044287
0.07060718 0.003386256 -0.19604051 -0.030137 -0.07554193 0.07721964 -0.07658876 0.025590893
0.016847225 0.120323665 -0.17035292 0.048121974 0.14330016 0.015515253 0.14047068 -0.021841452
00000000: 0d46 e33d 6025 53bc c41a 38be 777a 473e
00000010: ce81 a33c f130 823d 6ab4 26bc 1a4b 68bd
00000020: cd50 85bd 3248 08be 7ead bcbe 5e2a 8f3d
00000030: 0119 673e d8f0 67be 0b77 0f3e 6189 98bd
00000040: cbc8 443d 8af3 3cbe 2211 dc3d 126f 3cbe
00000050: 2a50 0d3e 2e36 533d 55ef 9e3a 22d8 093e
00000060: 2cb2 12bd e709 0abe be82 00be c90e fcbd
00000070: 5b01 49be f28a 493d 6d49 2dbd 3f86 bb3d
00000080: c61b e53d 5be3 a3bd fc71 90bc 9aa8 80bd
00000090: c79e a5be b048 ab3d f40c cbbd 0fc6 a03c
000000a0: 1e27 c0bd aaea 583e a21b eb3d 2612 25bd
000000b0: b3ac dfbd b953 163d 6582 1b3e 9e25 9cbd
000000c0: 21cf 19bc 97a9 3e3e a55d 4e3d 1160 4f3e
000000d0: 4f2f 26be 3e2a 00be 49b5 213d 2784 2a3e
000000e0: 9704 a63d 476c e03d 8fda 0bbe 21ce 8fbd
000000f0: 0c4b 02be 4b3e adbb c166 45be e9fd 86bd
00000100: d664 afbd fda4 503d 871b d63d 9da6 2abe
00000110: 10bb 753d 964d 493d 3786 8bbd 83e9 8f3d
00000120: 1373 ba3d 5ecb c3bc e5d9 623d bd33 a4bd
00000130: 19d7 87be def4 923d f304 be3d c153 d6bd
00000140: 53a6 68be 1e8e 44be 7955 d53d 4e1d 12bd
00000150: 08bf d93d 2c60 9b3b 13a4 52bd 924f 6cbe
00000160: f24a 8dbc f6f6 493d 195c 683d 18cd 01be
00000170: 3ef5 833b 3200 f8bc 386c 463d 7659 1cbd
00000180: 9047 b4bd 5b79 c2bc 5998 eb3c eca1 83bd
00000190: f2fd 9dbd 02f6 43be ad9c 143d aa25 a93d
000001a0: 7e7b bc3d e12a 773d 4506 f03d 27b0 983d
000001b0: 8cde 85bd b733 f83d 2c93 8bbd 0cbf 4bbe
000001c0: fd31 b73d c559 303e 0658 82bc 70b3 c0bc
000001d0: 893e 32be 6af1 22be 5363 0e3e 7074 f0be
000001e0: 81ee 833c 105a 66bd ce8d 81be e3ba c73d
000001f0: 03c4 ebbd a5dc 6cbe cbb0 3fbd 05db 3dbd
00000200: 89a2 b5bd 1605 afbd 47a4 fd3d d6ac 853c
00000210: 191e 293e eace 8dbe 1d04 2f3e f223 ebbc
00000220: 54d5 363d 7b5f ba3d 8744 d23d 03fb 74bd
00000230: b257 2c3d bead ab3d 24f3 53be ab99 92bd
00000240: cb1c 963d a7b9 09be 9164 433b fa2f ebbd
00000250: e438 4cbe d8f8 44bd 75bd 3dbd ed53 a2be
00000260: 2bac 69be 3838 7a3e 8352 99bd 1c41 983d
00000270: 0841 053e ba73 163e 3adf b53d 5248 24bd
00000280: f64b b4bc 4aeb be3d e2d9 b4bd 592f d3bd
00000290: 8cd6 d63d 50fa 893d 40fc 0fbe b0c1 69bd
000002a0: 4170 f4bd 9398 b5bd e77e ffbd ab43 733e
000002b0: 3e08 333e 059a 343e 7c90 23be 63ef e93d
000002c0: e5ed 6abe 6589 323e b481 083d 753d 8f3d
000002d0: 4c4e 0a3e 71dc 863c 8c09 0d3e 0617 113d
000002e0: 81ab 3cbe 8315 02bd 2372 8cbe 4814 b23c
000002f0: 8328 22bc 561c d9bc 9d53 2ebd f7b5 fabc
00000300: 8732 93bd 272f 2f3c 8bdf 8cbd 1087 003e
00000310: 387d c43c 5452 81bd ef50 d33d 6ed3 34bd
00000320: 897c d53d d024 e23d e2d4 5ebd 7b11 a3bd
00000330: 0fb8 11be b089 dcbd b98c 9cbd dae9 01be
00000340: 0440 75bb a257 f7bd 02fb debc ea95 3cbe
00000350: 82a5 7cb9 2a48 bcbc 0b9f 193d 03af bf3d
00000360: 7766 19bd 7766 aebc b639 45be 347f 4fbb
00000370: 46fb 03bc fb7d 79bc 7a4d 453b 3bea 0cbe
00000380: 640d 9a3d a4a5 02be 4f40 613e 8ef0 6e3e
00000390: 399b 7e3d 03f1 92bd e5bc 893d d623 333d
000003a0: 038f 1bbe 310a 69be a2d7 0a3c be71 82bc
000003b0: 7e9d 4a3e d183 01be fecb 14be 1d3a b93d
000003c0: 7f9a 903d f3eb 5d3b d8be 48be dfe1 f6bc
000003d0: bab5 9abd 5525 9e3d 91da 9cbd fea3 d13c
000003e0: 3103 8a3c 416c f63d ff70 2ebe 8c1b 453d
000003f0: 47bd 123e b033 7e3c 8cd7 0f3e d8ec b2bc

fc2.bias f4 [10]
-0.014955274 -0.09574146 -0.071872815 0.013460801 -0.040296145 0.0462891 -0.069012046 -0.07645602
0.13717307 0.11944262
00000000: f706 75bc 1914 c4bd 0e32 93bd b18a 5c3c
00000010: 920d 25bd a499 3d3d 3056 8dbd f994 9cbd
00000020: 1977 0c3e 559e f43d
