Boosted LeNet4/model0.pth (torch, 206533 bytes, 8 tensors)

conv1.weight f4 [4, 1, 5, 5]
00000000: ed81 1fbe a9be 95be d814 02bf e03a 14bf
00000010: e547 e1be 1c78 9e3e 39b1 283e 19a3 74be
00000020: c102 d8be 4c77 b6be 4366 7a3e a69b c33e
00000030: bd55 333e 310b da3d 45d8 333e a41d 183e
00000040: d61e c63e 1d02 f33e ae91 a13e bc73 b53e
00000050: 9961 7bbd ca67 323e 75c0 9f3c 078c c53d
00000060: 0490 1d3e 2ada c5bd f2ea 5e3e d379 673d
00000070: 68fe a4be 82f2 f2bd f7ad 653e 629d c33e
00000080: 6751 18bc f97c a2be 9484 a2be b36e 963e
00000090: a613 c83d 093a 96bd 607a d4be f6c5 7cbe
000000a0: bb38 873e a991 c83e fdfb c7bc 034d 0abf
000000b0: 2b11 00be 412e 733e 3dbf 403e f3fe 833e
000000c0: ecd1 89be acc9 9c3c fe9f 63be 71e0 bcbd
000000d0: ce24 a8bd 33c7 913d 7380 3e3e be68 b7be
000000e0: 27a6 79be c73d a93c 3c23 9c3e 3ff0 e13c
000000f0: b0f6 27be ecc4 ce3c 7c9b 4f3d 2b8b d63e
00000100: 8365 963e c18e 53be 5748 893d bb80 753e
00000110: 3202 bb3e 2072 c23e ebf6 093e f253 533e
00000120: eb4e 05be cd89 e8bc fcc5 463d f88a 03be
00000130: e817 b93d 55f2 4dbe ab18 45bd fc35 093e
00000140: b2e3 8e3e 2b3d 373e eda3 82ba d67e 8f3e
00000150: 76e9 b53d 6a3b 93bb 53f3 d53e 745a 333e
00000160: 8b38 153e 5846 bebd 5311 373e 1927 b23e
00000170: 8032 003e fc87 08be 84b2 8cbe 7a19 ffbd
00000180: cef3 f13d 0cf5 a9bd 069c d1bd d364 963b
-0.15576907 -0.29247025 -0.50813055 -0.57902336 -0.44000164 0.3095101 0.16473855 -0.23890342
-0.421896 -0.3563789 0.24453072 0.38204688 0.17513175 0.10646666 0.17562969 0.14855057
0.386954 0.4746255 0.31556457 0.3543986 -0.061372373 0.17422405 0.01950095 0.09645849
0.15386969 -0.09660752 0.21769312 0.056512665 -0.32225347 -0.11862661 0.22429644 0.3820601
-0.009296752 -0.31735972 -0.31741774 0.29381332 0.09769373 -0.07335288 -0.41499615 -0.24684891
0.2641047 0.3917363 -0.02441215 -0.5402376 -0.12506549 0.23748113 0.18822952 0.25780448
-0.2691797 0.019139133 -0.22229001 -0.09222496 -0.08210145 0.07118072 0.18603687 -0.358221
-0.24379788 0.02065934 0.30495632 0.027580379 -0.16402698 0.025240384 0.05068539 0.41903052
0.29374322 -0.20659925 0.06703251 0.23974888 0.36525112 0.37977695 0.13473098 0.20637491
-0.13018386 -0.028386021 0.048528656 -0.12845981 0.09037763 -0.20111974 -0.04811923 0.133995
0.27908093 0.17894427 -0.0009967067 0.28026456 0.0888242 -0.0044931667 0.41787204 0.17514974
0.1457235 -0.09290761 0.17877702 0.34795454 0.12519264 -0.13333124 -0.27479947 -0.12456031
0.1181408 -0.08298692 -0.10234837 0.004589656

conv1.bias f4 [4]
00000000: 3e9b 813e 5bdc e83d 1210 8dbd 3f14 b13e
0.25313753 0.113701545 -0.06887831 0.3458576

conv2.weight f4 [16, 4, 5, 5]
00000000: 263f 9b3e e21f e63d fd3c 8cbd 5a01 67be
00000010: 17a2 19be e4f9 8f3e de12 b63e 9b1d 833e
00000020: ff73 97bd bed3 e7bd 0d00 2dbe 8a2d 903c
00000030: 81a7 e43d d877 ef3d 4c30 ee3d c286 35bd
00000040: 30ff 6bbe 1256 6bbe 2f39 94bc 0205 473e
00000050: ce73 5fbd a43d a5be 5fc0 c2be afe4 54be
00000060: f80c f0bc adb2 90bd 0c3e ab3d a120 73bd
00000070: 7cbb 233d e343 263d cf91 90be 8796 4f3d
00000080: 7bba 0abc 014e 22bd 98eb 913d eb97 3dbe
00000090: 72e9 debd d634 19bc 023d a6bc e2f4 243e
000000a0: 0584 623d eb0d ff3c 3026 083d eafa 283d
000000b0: 23f3 a43d 82b2 72bd e2db 8ebd 4e8c 253c
000000c0: 3e7c 02be fe75 21bd fb00 51bd 5ede 24be
000000d0: ffb0 e8bd f8d7 09be 473b bbbd 74c5 f2bd
000000e0: c539 05be 2c32 3bbe c594 6f3c 7f30 9b3d
000000f0: 63ba 8abb 653f 8abd cdde 0d3d 4534 e5bc
00000100: e982 f03d 321b b13d b29d 83bc ffdc 953d
00000110: 6bf0 a73d 12f6 b9ba 7bb6 b43d 24b4 3b3d
00000120: 88c6 b8bc 34b3 a3bc 64ba 1ebe 5375 ddbd
00000130: 34b6 28be d673 87be f53a 85bd 7e03 05bd
00000140: 796a 3dbc 42f0 ffbb 0054 043d 672c b6bd
00000150: 44d4 e7bc b9f2 02be 83f6 683c e325 503d
00000160: ead8 3dbc 8287 873c 8700 b33d 6b16 5d3d
00000170: 4c17 d3bd d313 b03d 2522 e53d 9c79 aa3d
00000180: 0d47 263d 801b ee3c 7a2d fabd b53f 203d
00000190: ad08 c6bd b63b d8bd a588 d4bd 4b73 143e
000001a0: 78a5 6f3e f888 d7bd 0b28 0abe 415f 40bd
000001b0: 09db f5bd 7dc7 1a3e 0c08 933b 786b dabb
000001c0: 2408 30bc f89a b93c eb10 adbd 8dfb b03e
000001d0: a79c 853e cba4 1d3e fb08 00be 80c0 5a3d
000001e0: 46d6 51be 53d5 7fbe 575e bebc ea12 ce3b
000001f0: b219 413d 6670 133e b16f bd3d 7f5c 4ebd
00000200: 4da1 49bd 1328 573b de91 31bd bb03 853d
00000210: 5ba7 fabb 30eb 0dbe d34d c83d 1173 f33d
00000220: 9bc5 e23d 9cea 0cbe 28bd 0e3d 37be bcbc
00000230: 9e25 21be 17c7 d0bd 8293 563d cad2 883d
00000240: f5ef c2bd 4cf3 7dbd 3c77 bfbd 0b74 a93c
00000250: 8b49 00be 3cd8 5bbe 12dc 61bc 1677 8b3d
00000260: d8c3 afbd 112b 4ebe 77d4 36be f542 94bd
00000270: a15e b6bc d9f6 f7bd 3bb9 55bc 8d15 933d
00000280: 51e6 b1bc 7420 363d 68e3 d23d 29ea 2f3e
00000290: c375 e73d 43c0 b5bc 823f f43d d55e 1e3c
000002a0: e5f1 693d 4d14 b7bd 66e5 b3bd 43ac 8b3d
000002b0: f0c9 18bd 2d67 80be 2e09 c9be b7d4 f0bd
000002c0: 9ea3 e33a 0cbd b1bd feb0 0a3b d2ab 34be
000002d0: 4839 74bc 877a e7bd 9952 35bc a092 a6bc
000002e0: f99e 9cbd d394 813d 52aa cabc b6c7 e93c
000002f0: da84 2f3d f313 9d3d 4612 8e3d b954 af3d
00000300: a2c7 fa3d 4292 ab3d f834 c13d 52a6 bbbd
00000310: 094c 10be f9f7 6f3d 7a18 b5bd 5e18 92bd
00000320: bcb0 53bd d37c 4bbe cd6f 8bbe ef33 8cbe
00000330: 597e 32bc f2af 53bd 6d1d 0e3c 257f b63d
00000340: 690f 43bd 449d 60be e389 58be 454d 893d
00000350: 0b57 133e ce1f a63e c885 063e 913e fcbd
00000360: ceb7 0cbe 37f7 183d 4e42 803e 8288 753e
00000370: e29c b4bd 726e f5bd d4f5 b2be ed61 23be
00000380: 1256 a0bb a364 2d3e 8999 5b3e 21e0 10bd
00000390: a772 393d e504 2f3e 3af8 413e 0379 783e
000003a0: b5ad 153e a851 703d d204 d03d 6c07 82bd
000003b0: 7ef1 fdbd 015b 1abe 55a2 32bd 8d3b f93d
000003c0: fe2e 7dbe 9c41 9fbe 0a51 6bbe cb28 c5bd
000003d0: 8d8f 143e 9fd3 9bbd f7c8 23bd f593 0e3d
000003e0: fc7c 5c3c 46be aa3d 457e 753d e5ce 3cbd
000003f0: 10f4 87bd 903b cf3b 836a 7c3d e607 0a3e
0.30321616 0.1123655 -0.0684757 -0.2255911 -0.15003239 0.2812034 0.3556127 0.25608525
-0.073951714 -0.113196835 -0.1689455 0.01759984 0.11164761 0.1169278 0.11630306 -0.04431797
-0.23046565 -0.22982052 -0.018093674 0.19435504 -0.0545538 -0.3227359 -0.38037392 -0.20790361
-0.029303059 -0.0706533 0.08361444 -0.05935729 0.03997372 0.040592086 -0.28236243 0.050680663
-0.008467312 -0.03962517 0.07125014 -0.18514983 -0.1088437 -0.009350976 -0.020292763 0.1610904
0.055301685 0.031134566 0.033239543 0.041254915 0.08054187 -0.05925227 -0.06975533 0.010104252
-0.12742707 -0.039419167 -0.051026326 -0.16100451 -0.11361884 -0.13461292 -0.09142166 -0.118540674
-0.13010319 -0.18280858 0.014622872 0.07577609 -0.004233645 -0.06750373 0.034636308 -0.027979026
0.11743719 0.08647765 -0.016066406 0.07317542 0.08200153 -0.0014187715 0.08823868 0.045826092
-0.022555605 -0.019982912 -0.1550079 -0.108133934 -0.16475755 -0.26455563 -0.06505386 -0.032474034
-0.01156103 -0.0078106234 0.03230667 -0.08895188 -0.028299458 -0.12787904 0.014218929 0.05081738
-0.011587361 0.016544107 0.08740335 0.053976458 -0.10307178 0.08597531 0.11188153 0.083239764
0.040595103 0.029065847 -0.12215705 0.039123256 -0.096696235 -0.10558264 -0.103776254 0.14497106
0.23402965 -0.105241716 -0.13491838 -0.04696584 -0.12004668 0.15115161 0.0044870432 -0.0066656433
-0.010744128 0.022656903 -0.084504925 0.34566918 0.2609608 0.15394895 -0.12503426 0.05340624
-0.20491895 -0.2498372 -0.023238344 0.006288876 0.047143646 0.14398345 0.09249819 -0.05038118
-0.049226094 0.0032830283 -0.043352 0.06494852 -0.007649345 -0.13859248 0.09780469 0.118871816
0.110728465 -0.13761371 0.034848362 -0.02303992 -0.15737006 -0.101942234 0.05238677 0.0668083
-0.095184244 -0.061999604 -0.09348914 0.020685216 -0.12528054 -0.21469206 -0.013785379 0.06809823
-0.08582276 -0.20133616 -0.17854486 -0.072393335 -0.02226192 -0.12107629 -0.013044651 0.07181845
-0.021716269 0.044464543 0.102972806 0.17179169 0.11301758 -0.022186404 0.11926176 0.009666164
0.057115454 -0.08939419 -0.08783989 0.06819966 -0.037301958 -0.25078717 -0.39264816 -0.11759322
0.0017367487 -0.08678636 0.0021162624 -0.17643669 -0.014906235 -0.11302667 -0.011067056 -0.020333588
-0.07647509 0.06327214 -0.024739418 0.028537612 0.042851306 0.07669821 0.06937079 0.085610814
0.12245108 0.08377506 0.09433931 -0.091625825 -0.14091505 0.058586095 -0.08842559 -0.07133554
-0.05168222 -0.19871835 -0.27233735 -0.27383372 -0.010894381 -0.051681466 0.008674008 0.0891097
-0.04762212 -0.21934992 -0.2114635 0.06704191 0.14388673 0.3244614 0.13136971 -0.12316621
-0.13741991 0.037345137 0.25050586 0.23977855 -0.088189855 -0.119839564 -0.34953177 -0.15955324
-0.004893073 0.16932921 0.21445288 -0.035369996 0.045275357 0.17091711 0.18942347 0.24264912
0.14617045 0.058671623 0.101571694 -0.06349072 -0.123995766 -0.15073778 -0.043611843 0.121695615
-0.24724957 -0.31104743 -0.22980133 -0.09626921 0.14507885 -0.07608723 -0.039986577 0.03480907
0.013457533 0.08337073 0.059934873 -0.046095748 -0.06638348 0.006324239 0.061625015 0.13479576

conv2.bias f4 [16]
00000000: 6b25 853d 562f 503d 1ebf 18bc d052 1d3e
00000010: 9961 abbc fac8 67bd 83ac 90bd aa93 bebd
00000020: c289 1d3e f0f9 91bd 6256 643b 9ca9 82b9
00000030: 7a1e 063d 6b82 9bbd 8d35 0f3e d260 773e
0.065012775 0.050826393 -0.00932291 0.15363622 -0.020920562 -0.05658815 -0.07064154 -0.093055084
0.15384582 -0.0712775 0.0034841527 -0.000249219 0.03274391 -0.07593235 0.13985272 0.24158028

fc1.weight f4 [120, 400]
00000000: 7a63 bfbd f7d6 c1bc 9cab 793d f8da cb3d
00000010: 86d8 a8bb f161 a9bd 303b a0bd 84ce 873c
00000020: 8a47 0e3e 591b 043e 0478 ebbb 8128 28bd
00000030: 98ac 2dbe dc25 87bd f2bd cbbd 758e e23c
00000040: 8de2 efbc 5f69 68be 4c69 52be 1db7 9abd
00000050: e761 003d a509 76bc 1cc2 aebd 85d1 b6bd
00000060: bba5 b5bd 1b52 47bd fa37 9cbd 6a2f 5d3d
00000070: ca87 833d ed38 9b3d 7f9b 84bd 91a0 013c
00000080: 6346 6abd c36a a9bd cb94 e1bd f8a8 cdbd
00000090: 0699 b1bc ece3 363d c918 34bd d83b e8bd
000000a0: 3de8 cbbc 2c7c edbd bcf5 9abd 6315 0fbe
000000b0: 330c 80bd 48be 87bb 213d 03bc 164c b8bc
000000c0: a1a3 0fbe a9cb cbbd 66ce 43be 3f63 50bd
000000d0: 888d fb3d 288a 353d 6ce2 b7bc 886a f3bc
000000e0: fd89 a4bd 125b 253d d536 a03d aadd b23d
000000f0: 94d8 9c3d bc76 53be 10cf ffbd c88b c8bd
00000100: d963 84bd dc76 0c3e de77 1dbe 29f2 c3bc
00000110: 32aa 743c b6e5 67bc 1b7a 353e c5c2 0abd
00000120: 442d 91bd 3cee 96bb 41c6 263c 0496 11be
00000130: 6a44 743c 3273 183e 4805 f9bb 93c5 88be
00000140: bfd5 8dbd f12f d2bd f7d6 f33b 2c75 2dbb
00000150: 3c76 54bd f577 4cbd 2bac d0bd 248a d4bd
00000160: 55f9 6bbe ea7d 15be f9e9 063b 4cea 013d
00000170: c390 8dbd 72e1 4fbe 2792 3ebe 482d d7bc
00000180: 14ba f5bd 0dbb 8fbd d0a6 f9bd a278 91bd
00000190: 79c6 12bd ba8b a03d ce1b 0dbc c98e 97bc
000001a0: 6d31 65bc a6b5 dbbd 2812 ccb8 e92a ae3b
000001b0: a00a 2ebd aacd 0abe f03d 5d3d a329 a4bb
000001c0: 6929 3cbe 6d73 50be 3ca7 39be 2d3f ce3c
000001d0: e412 5cbb 61f2 71bd e6b1 32be 2686 03bf
000001e0: 54b9 0e3d e8d3 fd3d 369d 0f3e a57f 0a3d
000001f0: d130 5cbe c6fb 6b3d 906e ccbd fc7e b7bc
00000200: 659a a3bd 9b72 51bd 8c18 c1bb e6fd 8239
00000210: a6f3 3b3c 337f 053d eda8 0bbe e43a dd3c
00000220: 9382 e43d da94 b33d 949e e8bc e332 353e
00000230: 8f1f cc3c 0aed 27b9 22dd 7fbc 8280 393d
00000240: dad7 273e d361 4fbd 6a52 283b db3b 383d
00000250: 14bf 873d 0e90 103e 5e3a 85be 08d8 aebe
00000260: 14f7 efbc 19d3 313c 28ba c0bc 4e5a e2bd
00000270: dd10 b7be 1152 773d c7f9 5f3d c402 cebd
00000280: 0695 013d 8038 4fbe 92e4 0d3c dab9 673d
00000290: 0ce2 863c 918b 963c f8d7 613c 3c8c d23c
000002a0: 84ad 2d3c 3456 1ebd 98c2 edbd 92b1 e5bd
000002b0: 5b9b 323d 398a 27bb 5458 5bbd 61f8 0cbe
000002c0: 80b4 f0bc 03a5 203d 2309 673d a841 92bd
000002d0: 0ecf 9dbd d2d6 2dbc 96c9 1e3d c39c a83d
000002e0: 81f9 0f3d 4877 10be 4447 dcbd bdad 5c3d
000002f0: ca98 603e ddfa b63d bf63 babd db2b eabd
00000300: c4a9 833c 725a 03bd d5a5 dfbd e211 b4bd
00000310: f2f4 febc e29c a1bb 2b0f f0bb b8ce 05be
00000320: c9d1 97bd d3b1 fabc f7a7 b43d 574a 313e
00000330: eee4 31bc 7281 6f3c 3925 92bd 842f 533d
00000340: c377 d33d d677 9ebd f36a e3bd a9c5 d8bb
00000350: 7b49 8a3d 1710 683c bb60 5f3d 39a8 afbc
00000360: 0f68 83bd 3a80 d4bc bdb2 17bd 0380 613c
00000370: d17f 013e f95a fe3c 602a 36bd 85fa acbd
00000380: 6411 91bd 1765 cb3a 3a80 05be 53f4 a1be
00000390: 314b aa3c 038f 993d 66d3 973d 97fb 13bd
000003a0: 49e1 5dbe 082a ea3c 6df6 d83c a752 a43e
000003b0: 9bac 323e 4dd3 81bd cb9e ed3d f6ae 7c3d
000003c0: 23c3 9e3e 4dc7 893d be84 d6bb 18ed c23d
000003d0: 458b 2c3b 5b89 c2bd 1f17 6abd 5186 a93d
000003e0: e455 a73d 3712 abbc 831e 27be d848 acbe
000003f0: c9ca cdbb ceb8 a6bc d4e7 f5bd 707c 09bc
-0.093451455 -0.023662074 0.060954675 0.09953874 -0.0051527647 -0.08270634 -0.07823789 0.016577967
0.13894477 0.12901057 -0.007185938 -0.041054253 -0.1696037 -0.06599018 -0.099483386 0.02765582
-0.029282833 -0.22696446 -0.2054798 -0.07554457 0.031343367 -0.015016948 -0.08533117 -0.089266814
-0.08869501 -0.048662286 -0.07627864 0.054000296 0.06422384 0.07579217 -0.06474971 0.007911817
-0.057196032 -0.08272316 -0.11014708 -0.10041994 -0.021679413 0.044650957 -0.04396895 -0.11339539
-0.024891013 -0.115959495 -0.07566401 -0.13973002 -0.06252327 -0.0041425563 -0.00801018 -0.022497218
-0.14027263 -0.099509545 -0.19121704 -0.0508759 0.12282854 0.04432121 -0.022446834 -0.029713884
-0.08034132 0.040370055 0.078229584 0.08733685 0.076584965 -0.20650762 -0.12490666 -0.09792286
-0.06464357 0.13717216 -0.15377757 -0.023919182 0.014933156 -0.014153888 0.17722361 -0.033877153
-0.07088712 -0.0046060365 0.010179103 -0.14217383 0.014908889 0.14887694 -0.0075995065 -0.26713237
-0.069255345 -0.1026305 0.0074413973 -0.0026467545 -0.05187057 -0.049919087 -0.101890884 -0.10377911
-0.23044331 -0.14598814 0.0020586236 0.031717584 -0.06912377 -0.20300844 -0.1861044 -0.026266709
-0.11998382 -0.07018099 -0.1219002 -0.07103087 -0.03583381 0.07839151 -0.008612586 -0.018500702
-0.013988835 -0.10728006 -9.73086e-05 0.005315174 -0.0424906 -0.13555017 0.054014146 -0.0050098463
-0.18375172 -0.20356531 -0.18130201 0.025176609 -0.0033580596 -0.05906904 -0.17450675 -0.5137657
0.03484471 0.123939335 0.14024815 0.033813138 -0.21502997 0.057613157 -0.099820256 -0.022399418
-0.07988433 -0.051134687 -0.005892819 0.000249847 0.0114716645 0.03259201 -0.13638659 0.02700562
0.111577176 0.087686256 -0.028395928 0.17695193 0.024917392 -0.00016014665 -0.015616687 0.04528857
0.16390935 -0.0506304 0.0025683888 0.044978958 0.06628242 0.14117453 -0.26021093 -0.34149194
-0.02929262 0.010853552 -0.023526266 -0.110523805 -0.35755053 0.060381 0.054681566 -0.10059121
0.03163626 -0.20236397 0.008660452 0.056573726 0.01646521 0.018377097 0.013784401 0.025701635
0.010600451 -0.03865643 -0.116093814 -0.112155095 0.04360519 -0.0025564565 -0.053551033 -0.13766624
-0.029382944 0.039219867 0.056405198 -0.07141429 -0.07705508 -0.010610299 0.038766466 0.08233025
0.035150055 -0.14108002 -0.1075578 0.053876627 0.21933284 0.08934567 -0.09101056 -0.11434146
0.016072161 -0.032068677 -0.10920302 -0.087924734 -0.031122658 -0.004932032 -0.007326027 -0.13067138
-0.0741306 -0.030602371 0.08821099 0.17313515 -0.010857804 0.0146182645 -0.07136006 0.051558986
0.10325577 -0.07737701 -0.11104383 -0.00661536 0.067522965 0.014163992 0.05453561 -0.02144252
-0.06416332 -0.02594005 -0.037035692 0.0137634305 0.12646414 0.031049239 -0.044474006 -0.0844622
-0.07083395 0.0015517798 -0.13037196 -0.31631717 0.020787807 0.074979804 0.07413368 -0.036128607
-0.2166797 0.028584495 0.026484692 0.3209431 0.17448656 -0.063391306 0.11602553 0.061690293
0.31008253 0.06727467 -0.006546586 0.09517878 0.0026328128 -0.09498855 -0.057150956 0.08277572
0.08170679 -0.020882709 -0.16320233 -0.33649325 -0.0062802774 -0.020351794 -0.12007108 -0.008391485

fc1.bias f4 [120]
00000000: 6ef8 3abd 8197 9f3c 19cb c33c b262 89bc
00000010: 6474 22bd c0ee 90bd a362 113c 5cac 7cbc
00000020: d1ec a93d 44a3 86bc bb82 c83d 6f81 33bd
00000030: ce03 84bd 8854 f8bc b020 9a3c ddf4 303c
00000040: ea20 163d 7148 653c 21fc ce3c 5a20 eabc
00000050: 9499 a1bd 6e3e e1ba 38e4 f13d 347e 693c
00000060: 1560 8bbb fd97 05bc ad21 35bc 564a 2c3e
00000070: 7963 40bb 4dc4 18bd de71 bcbc 5682 b339
00000080: 2e72 d1ba c970 c13d c1b6 2abd f945 28bd
00000090: 7729 fd3d f084 95bd 0034 be3d ee68 d63c
000000a0: 7652 8bbc b461 7d3d 039a 563a 1027 8a3c
000000b0: b3fe 07bd 85af 803d 45f7 55bd 4f27 f3bb
000000c0: d088 0d3d 18bc ffbb ad23 8cbd 4ef3 033e
000000d0: 919b c23d b09b c83c 7736 d1bc d57b 9cbd
000000e0: f994 8fbd bc18 dc3d 3bd9 973c ec2e 1d3c
000000f0: 094a 283c 0489 b6bd 6dc2 643b 62b0 abbc
00000100: 70eb 873d 0158 853d 72cf 2d3d 2aaa 8bbd
00000110: 04cc 2b3d 7896 153c 8413 cebd 75e0 f23d
00000120: 3fa8 4d3d e09d 0bbd 4e62 44bc 929c 70bd
00000130: fd46 02bb 41f5 a13c becb 72bd bab1 293d
00000140: d5c3 b23d 7d79 fe3b 48ee 853d 96fa 8abd
00000150: e730 aabc 2e1b c33d 0d04 be3d 64b9 26bd
00000160: 18b4 3d3d bbaf 84bc 679d a03d c132 8e3d
00000170: 9fe4 a2bc 27e5 b53d 044e 4ebd 5e56 91bc
00000180: 35a3 42bc 55f6 3dbd 5914 f93c cf7d 83bc
00000190: 2411 8ebd 1c70 7ebd 4a1e 2cbd 04f6 2f3d
000001a0: dbea a4bd ffce 753d 800a 303d 795b d83d
000001b0: 38e2 fd3d 0b20 ad3b 860b 5c3d 28f8 a63d
000001c0: c9e0 723d fc40 64bc 2d05 95bc f4f1 0dbe
000001d0: f486 cb3c aea2 21ba d99e 0abd 50e9 52bd
-0.045647077 0.019481422 0.023900555 -0.016770694 -0.03966178 -0.07076788 0.0088736145 -0.015421953
0.08297122 -0.016435273 0.0979056 -0.04382461 -0.06446038 -0.030313745 0.018814415 0.010800567
0.036652483 0.013994322 0.025266709 -0.02857988 -0.07890621 -0.0017184743 0.118111074 0.014251281
-0.004253397 -0.008153913 -0.011055392 0.16825232 -0.0029356165 -0.037296582 -0.023003515 0.00034238648
-0.0015979463 0.0944534 -0.041678194 -0.041082356 0.123614244 -0.073007464 0.09287262 0.026173081
-0.017007094 0.061860755 0.00081864017 0.01686433 -0.033201884 0.06283478 -0.052237768 -0.0074204574
0.034554303 -0.007804405 -0.06842742 0.12885782 0.09502328 0.0244883 -0.025538666 -0.076408066
-0.07010836 0.10746905 0.0185362 0.009593707 0.010271558 -0.089128524 0.0034905926 -0.02095813
0.06636703 0.06510926 0.042434163 -0.068195656 0.04194261 0.009130113 -0.10062316 0.11859218
0.05020928 -0.03408611 -0.011986328 -0.058743067 -0.0019878738 0.019770266 -0.059276335 0.04142926
0.08728758 0.0077659474 0.06539589 -0.06786077 -0.020775272 0.095266685 0.092781164 -0.040704146
0.04631433 -0.016197076 0.07842522 0.06943274 -0.019884406 0.08881598 -0.05036737 -0.017741378
-0.011879732 -0.0463775 0.03040521 -0.016051201 -0.06936863 -0.062118635 -0.042021073 0.04295923
-0.080526076 0.06001186 0.042978764 0.10564322 0.123966634 0.005283361 0.053721927 0.08152801
0.059296403 -0.013931509 -0.018190945 -0.13861829 0.024844624 -0.0006165904 -0.033842895 -0.051492035

fc2.weight f4 [10, 120]
00000000: fad0 ce3d cbc7 3b3c eb85 1bbc b7a7 333e
00000010: 8cd2 35bd 3251 83bc 5395 e23c 253f dbbd
00000020: c645 a13d b066 8cbe 921e 03be 527e 7a3d
00000030: 8579 0abd 975e 1fbd fcb6 c9bd 566c 393d
00000040: 40c6 6dbd 0feb 253d fed3 77bd 23d0 22bc
00000050: a34a 87bd 9c07 583c db3b 033e 5545 4fbe
00000060: fe33 233e 4171 3f3d 5950 91bd 6ac4 31be
00000070: b11b 9abd 784f 713d 6939 06be dfd8 2d3e
00000080: eb42 7cbe 10a1 80be fd5c c2bd bbac 473e
00000090: c625 02be 2c41 aa3c 7ec5 b7be c616 033e
000000a0: 412b 183d 246a e5bc ecf6 1fbe cc08 0e3e
000000b0: 85fd f5bd ec4e 813c 2999 94bc 3d70 b53d
000000c0: 7655 e33d af8c 8bbd a14b 7bbd 3a8e 103e
000000d0: 9b55 b7be ad5c 92bd 6367 993d 4a6e 133e
000000e0: 88f9 acbd 88a8 2c3d bc46 09be f398 28bb
000000f0: cd6e 253d 79ce 69bd 355e 053e 3dcd a0bc
00000100: 2f43 0ebe c1ab 44be 8195 0a3d 39a8 7ebd
00000110: ac80 1abe 7aac 003d 7fbe 18be 401f 06bd
00000120: bdd3 92be 4da6 4d3d 7d3e cdbd b737 bcbd
00000130: 9a07 2f3d 507d 98be 01ad 9a3d 2c73 9ebd
00000140: 9dea 62bd f141 673c c4f1 dfbd b0ce 243e
00000150: 18e1 8cbd 8f76 923d 3ce9 6fbc bde7 23be
00000160: 2c01 5dbc 9c5d b63c f195 acbe 0f94 a93d
00000170: 9c1d 2b3d 9a0a a63d a66d 1a3e b022 43bd
00000180: 4175 21be 9f7b 9bbd b164 813c 88d1 85bd
00000190: a5bb 8e3c c5e2 a8bd 8f59 2f3d d34a 38bd
000001a0: 1ad2 dcbb 71e2 0bbd cf99 84bd 4939 583d
000001b0: 446e 193d b3eb 36be c933 1fbe 3973 2ebe
000001c0: 59ae 95bc 81a5 04be 4b1c 4fbb 65ce 8f3d
000001d0: b9c9 18bd 5174 25bc 01db 9cbd cdbb b4bd
000001e0: cf5a e43d 756d 9cbe ec41 8c3d e1e5 003d
000001f0: 054c 5c3d 9e46 86bc 34b6 e2bd 5a55 ed3d
00000200: bda8 34be 0b15 853c 2de9 d5bc 990f 84bd
00000210: b716 b2bc 3ce2 f23c e7f4 04bd 9302 9b3c
00000220: 06f1 583d 9b4a b4bd 3aa9 1cbe 454f 0c3d
00000230: e90b e0bc 98db 383d 87fa bcbd f687 85bc
00000240: c8bf 0bbd 23ef 8e3d 8f7c adbb a610 33be
00000250: 1800 94bd f45c 513d 10c1 5c3e a845 8a3d
00000260: 73b6 203e 2731 c33d 5e40 053e 749e 27be
00000270: 9348 8dbd 199c 033d de26 723c d2a4 09be
00000280: fc61 6c3d c952 a33d cdfc afbd c269 dbbc
00000290: 89df d2bd 76a1 a3be faa3 6d3d 2b5b a0bc
000002a0: 5c58 61be bc35 8e3d 5dd4 823a d0dc 58bc
000002b0: 61ae f1bc ef50 9abc dc04 16be 96c8 d53d
000002c0: 24c8 fbbc 7a7f c9bd c348 cd3d 5ac9 483d
000002d0: afa4 11be ec03 fe3d 887e 4d3d 6016 813e
000002e0: 7df9 47be c248 103d 294f 41be 56a3 a43c
000002f0: d549 503d a349 c83d 3142 263e b3b2 133b
00000300: a177 f93d 80e7 a9bc 5ce9 16be 3d05 9a3e
00000310: 6616 8cbd ec81 5e3d fe57 173e 9065 68bd
00000320: 959c 55bd ff42 d13d 899b 55bc c3ba a63d
00000330: 2c0e 343c 1d7a 8bbe 2f3e b4bd 9c9e db3d
00000340: fa47 83bd e6e1 f1bc b076 ce3c 24ec 18be
00000350: 0ef2 4f3c 869d 49be 3e7b ab3d c454 643c
00000360: 39b8 183e 0867 393c 6940 a0be 6410 b53d
00000370: c416 84bd 0de9 383d 9bdc 26bd 45c8 4cbd
00000380: ec7e e23c 001a 2dbc 2851 c83c bfbb edbd
00000390: 9dae 06be 31d5 94be ef0f e5bd be74 dfbc
000003a0: 3781 d9bd c45a c23d 498e f3bd b109 423e
000003b0: 48ab 923d 9902 a23d 8fe0 d03d 124a 55bd
000003c0: 7fb7 0ebe d5c2 97be 190c df3c 03a7 4c3e
000003d0: 8394 65bd 1f80 66bc 073b 4bbe a149 b83d
000003e0: 494b 2b3d 1fb2 da3c 73f8 dc3d 6577 aabc
000003f0: a455 a2ba e683 943d 8118 8cbd 599a 843d
0.10098453 0.011461209 -0.009492378 0.17544447 -0.044390246 -0.016029928 0.027659094 -0.10705403
0.07874636 -0.27422094 -0.1280463 0.061155625 -0.033807296 -0.038908567 -0.098493546 0.045269333
-0.058050394 0.040507372 -0.060504906 -0.009937319 -0.06606033 0.013185408 0.12815802 -0.20241292
0.15937802 0.046738867 -0.07095403 -0.17360082 -0.07524813 0.058913678 -0.13107838 0.16977261
-0.24634902 -0.2512288 -0.09490392 0.19499485 -0.12709722 0.02078303 -0.35892862 0.12801656
0.037150625 -0.028004713 -0.15621537 0.13870543 -0.12011246 0.015784703 -0.018139439 0.088592984
0.11100285 -0.06813943 -0.061351422 0.14116755 -0.358075 -0.07146583 0.074904226 0.1439754
-0.08446032 0.04215291 -0.1340589 -0.002572593 0.04038887 -0.057081673 0.13024218 -0.019629115
-0.13892816 -0.19206144 0.033833984 -0.06217215 -0.15088147 0.031414486 -0.14916418 -0.032744646
-0.28677168 0.050207425 -0.10021684 -0.09190314 0.04273186 -0.29783106 0.07552529 -0.07736811
-0.055399526 0.014114843 -0.10934785 0.1609447 -0.06878871 0.071515195 -0.01464301 -0.1600637
-0.013489049 0.022261433 -0.33708146 0.08280193 0.041776285 0.08107491 0.1508089 -0.047640502
-0.15767385 -0.07591938 0.015795084 -0.065341055 0.01742346 -0.08246378 0.04281002 -0.044993233
-0.0067389132 -0.0341515 -0.06474649 0.052789006 0.037458673 -0.1786335 -0.15547098 -0.17036141
-0.018271612 -0.1295376 -0.0031602557 0.070217885 -0.037301753 -0.010098533 -0.07658959 -0.08824883
0.11150133 -0.3055226 0.06848511 0.03146923 0.053783435 -0.016391095 -0.11069909 0.11588545
-0.17642494 0.016245386 -0.026112163 -0.064482875 -0.021739347 0.029648893 -0.03246012 0.018922126
0.052964233 -0.08803292 -0.1529893 0.034255285 -0.02734943 0.045131296 -0.09227472 -0.016300183
-0.034118444 0.069792055 -0.0052943896 -0.1748682 -0.072265804 0.051114038 0.21558022 0.06751567
0.15694599 0.095308594 0.13012835 -0.16369039 -0.06898608 0.03213129 0.0147797745 -0.1344178
0.057710633 0.079747744 -0.0859314 -0.026783828 -0.10296542 -0.31959122 0.05801771 -0.019574722
-0.22006363 0.06943843 0.0009981502 -0.01323624 -0.029502096 -0.01883742 -0.14650291 0.10438649
-0.030735083 -0.09838767 0.10023644 0.04902015 -0.14222978 0.12403092 0.050169498 0.25212383
-0.19528766 0.035225637 -0.18877853 0.020097416 0.05085166 0.0977967 0.16236188 0.0022536933
0.121810205 -0.02074027 -0.14737457 0.30082121 -0.0684021 0.054323122 0.1477966 -0.056737483
-0.05215128 0.102178566 -0.013037571 0.08141091 0.010989707 -0.27241603 -0.08800923 0.10723612
-0.06410213 -0.029526662 0.025203079 -0.1493383 0.012691988 -0.19688997 0.08373116 0.013936225
0.14914025 0.0113160685 -0.3129914 0.08841017 -0.06449655 0.04514413 -0.04073773 -0.04999568
0.027648412 -0.010565281 0.02445276 -0.11608075 -0.13152547 -0.29068902 -0.1118468 -0.027277347
-0.10620349 0.094899684 -0.11892373 0.1894901 0.071615756 0.07910652 0.10199081 -0.052072592
-0.13937186 -0.29640833 0.027227448 0.19985585 -0.056049835 -0.014068632 -0.19846736 0.089984186
0.041819844 0.026696263 0.107895754 -0.020808885 -0.0012385142 0.0725172 -0.06840611 0.06474752

fc2.bias f4 [10]
00000000: dabb d2bd ec78 35be abad 97bc 78a3 31bc
00000010: 1134 a0bd 8972 be3c b4fc 70bd a419 df3a
00000020: a566 043e 0c75 cb3d
-0.10289736 -0.1772191 -0.018515429 -0.010842197 -0.07822431 0.023247974 -0.058834746 0.0017021191
0.12929781 0.09934434
