One-Hidden-Layer FCMNN/model.pth (torch, 494675 bytes, 4 tensors)

fc1.weight f4 [300, 400]
0	0x3c6f77f2	0.014616
1	0x3b815d7a	0.003947911
2	0x3d28b9cf	0.041192826
3	0x3d1d3b3b	0.038386565
4	0x3cdd3867	0.027004434
5	0x3d3df608	0.04637721
6	0x3ca18f6f	0.019721715
7	0x3c23409d	0.0099641355
8	0x3be9d983	0.007136525
9	0x3b81bf9c	0.003959609
10	0xbc0722b9	-0.008248025
11	0xbd20658b	-0.03915934
12	0xbc3974d7	-0.011319361
13	0x3d51dadb	0.051234107
14	0xbbe5c8dd	-0.00701247
15	0xbc82c3de	-0.015962537
16	0xbd398950	-0.045296967
17	0xbc4b19ea	-0.012396315
18	0x3d452117	0.04812726
19	0x3c976887	0.01848246
20	0x3cea9889	0.028637188
21	0xbb4a0df2	-0.0030831066
22	0x3cbeff22	0.023315016
23	0x3d1b7b19	0.037959192
24	0x3cd275cd	0.025690937
25	0xbcc45a55	-0.023968855
26	0xbd2b4af9	-0.041819546
27	0x3d1fa9c4	0.03898026
28	0x3c6ce8b2	0.014459776
29	0x3d4272ab	0.047472637
30	0x3bc0ff81	0.0058898334
31	0x3d88bdce	0.06676827
32	0xbc997c10	-0.018735915
33	0xbd2148ae	-0.039375953
34	0xbca7950a	-0.02045681
35	0xbd883a09	-0.06651694
36	0xbcd6866f	-0.02618715
37	0x3d0fa7cd	0.035072137
38	0xbcd26947	-0.025684966
39	0xbc4174ac	-0.011807602
40	0x3c8fe534	0.017565347
41	0xbd26a2e6	-0.040682696
42	0xbd351652	-0.04421074
43	0xbce511c6	-0.027962577
44	0x3d15acbb	0.03654168
45	0xbce970a5	-0.028496096
46	0x3d9560d6	0.072938606
47	0x3d04e23f	0.032442328
48	0x3ccb2f53	0.02480284
49	0xbccba55c	-0.024859123
50	0xbe0207ea	-0.12698331
51	0xba54ddc1	-0.0008120202
52	0x3dad0670	0.084484935
53	0x3ca853b5	0.020547727
54	0xbcaa33e7	-0.020776702
55	0xbd75d08e	-0.060013346
56	0xbe0f0d2a	-0.13969865
57	0xbd8b5265	-0.06802825
58	0x3c5dd8b3	0.013540435
59	0x3d2c19c0	0.042016745
60	0x3bc8b397	0.0061249244
61	0x3c46adfa	0.01212644
62	0x3c9324c6	0.01796187
63	0x3cc7fda4	0.024412937
64	0xbbf176ec	-0.007368913
65	0x3c9d5d93	0.019209659
66	0x3d4d2c05	0.05009081
67	0xbc9638f4	-0.018337704
68	0xbc230c86	-0.009951716
69	0xbd33278a	-0.04373888
70	0xbdc3b79e	-0.095565066
71	0xbd3642fa	-0.044497468
72	0x3d0e31c9	0.034715448
73	0x3e19be51	0.15014006
74	0x3dc310d0	0.09524691
75	0x3c623c97	0.013808391
76	0xbdab11ce	-0.08353005
77	0xbda48cdc	-0.08034679
78	0xbd4f6a34	-0.050638393
79	0x3c76f8d6	0.015073976
80	0x3ca59b12	0.020215545
81	0xbb2283d2	-0.002479781
82	0x3cda1f5b	0.02662628
83	0x3dbf6f23	0.093473695
84	0x3ddb4f48	0.10708481
85	0x3e0bb534	0.13643342
86	0x3e3d7afc	0.18503946
87	0x3dc5fc50	0.096672654
88	0x3e328127	0.1743208
89	0x3e363222	0.17792562
90	0x3bb96ce1	0.0056587313
91	0xbd20386a	-0.0391163
92	0xbc417934	-0.011808682
93	0xbc1b0570	-0.009461746
94	0x3d47cef8	0.048781365
95	0x3da3405c	0.0797126
96	0xbc7cece6	-0.01543734
97	0xbdae3845	-0.08506826
98	0xbd79fe2f	-0.061033424
99	0xbbd78560	-0.006577179
100	0xbd0bb9c6	-0.034112714
101	0xbc09e1f7	-0.008415691
102	0x3d0c3618	0.034231275
103	0x3dd6f3c4	0.10495713
104	0x3e18b962	0.14914468
105	0x3e3eb65b	0.1862425
106	0x3e1699c4	0.14707094
107	0x3e8ace3d	0.27110472
108	0x3ebe9037	0.37219402
109	0x3e71fb66	0.23631057
110	0x3e027f7d	0.12743945
111	0xbd9d2ce0	-0.07674575
112	0xbd92902a	-0.07156403
113	0x3cc20bfa	0.023687351
114	0x3dfd9a84	0.12382987
115	0x3db33254	0.08749834
116	0xbd83a4f3	-0.06427946
117	0xbe1d3f7c	-0.15356249
118	0xbdb1faa7	-0.08690386
119	0x3d24a9ff	0.040201183
120	0xbd3007a5	-0.04297604
121	0xbd066d61	-0.032819156
122	0xbba1dae0	-0.004939422
123	0xbcd67688	-0.026179567
124	0x3cf57b5f	0.029966054
125	0x3d02c66d	0.031927515
126	0x3c5eda47	0.013601846
127	0x3d6d0d7e	0.057874195
128	0x3d7f39c2	0.06231094
129	0xbc6b1bb7	-0.014349869
130	0x3db95063	0.09048536
131	0xbc8a4828	-0.01688011
132	0xbd685d9e	-0.056729905
133	0x3d76af2c	0.06022565
134	0x3da07093	0.07833972
135	0x3d81fd54	0.06347147
136	0x3e07c604	0.1325913
137	0xbd41358a	-0.0471702
138	0xbd147f64	-0.0362543
139	0xbca6b7fe	-0.020351406
140	0x3ce941cb	0.028473755
141	0xbd357eb3	-0.044310283
142	0xbcc7310c	-0.02431538
143	0xbe872b48	-0.26400208
144	0xbea01f56	-0.31273907
145	0xbea60169	-0.3242295
146	0xbef31a6d	-0.474811
147	0xbf1bcc7e	-0.60858905
148	0xbedc9737	-0.43084118
149	0xbe8a3186	-0.26990908
150	0xbe448c34	-0.19194108
151	0xbd4ee32e	-0.050509624
152	0x3b119099	0.002221143
153	0x3d8dcb20	0.06923509
154	0xb9dd19a8	-0.0004217152
155	0x3c63e3d0	0.013909295
156	0x3d8a3fe1	0.06750465
157	0xbc37cff4	-0.0112190135
158	0x3d54fc03	0.05199815
159	0xbd0e7766	-0.034781836
160	0x3d48e499	0.049046133
161	0xbc8cd50d	-0.017191434
162	0xbe0bfae9	-0.13669933
163	0xbedfa23b	-0.4367846
164	0xbf2c6029	-0.6733423
165	0xbf4461b3	-0.7671158
166	0xbf1b4343	-0.6064951
167	0xbebab944	-0.3646947
168	0xbe00aa19	-0.12564887
169	0x3d586da8	0.05283895
170	0x3d1ef03c	0.038803324
171	0x3dcda753	0.1004168
172	0xbcb57c5c	-0.022154026
173	0xbc6390d7	-0.013889513
174	0xbd1801aa	-0.037110962
175	0xbdbbe49f	-0.091744654
176	0xbd7dbb78	-0.061946362
177	0x3cff3f77	0.031158192
178	0x3d9718e4	0.073777944
179	0x3c30dd99	0.0107950205
180	0x3d49a7a1	0.04923213
181	0x3adbe691	0.0016777088
182	0xbd71c97b	-0.059030037
183	0xbe8575bc	-0.26066387
184	0xbecd9297	-0.40150902
185	0xbe617ef5	-0.22021087
186	0xbd8cf799	-0.06883163
187	0x3e1af895	0.15133889
188	0x3e881fdb	0.26586804
189	0x3e3dd92b	0.18539874
190	0x3d81298c	0.063067526
191	0xbd19c0e4	-0.03753747
192	0xbddb7667	-0.10715943
193	0xbba6e1b6	-0.005092825
194	0x3c5fce04	0.013659958
195	0x3d4dab92	0.05021245
196	0xbd624d10	-0.055249274
197	0x3de9de3e	0.114193425
198	0x3d03889f	0.032112714
199	0x3ce617f5	0.028087595
200	0x3cb9e02b	0.0226899
201	0x3c180380	0.009278178
202	0xbc440c42	-0.011965813
203	0x3d96a9f6	0.07356636
204	0x3e543098	0.20721662
205	0x3e7a7abc	0.24460882
206	0x3e8ceda4	0.27525055
207	0x3e7835fc	0.24239343
208	0x3ddb03c5	0.10694078
209	0x3d27392a	0.040826
210	0x3ce04a38	0.02737914
211	0x3c2c5cec	0.010520201
212	0xbcca9906	-0.02473117
213	0x3c398754	0.011323769
214	0xbb1189bd	-0.0022207343
215	0x3d8d8212	0.069095746
216	0x3d3f7bc2	0.046748884
217	0x3de37fb9	0.111083455
218	0x3d998b4e	0.074972734
219	0x3cb0f579	0.021601425
220	0xbc12b7d2	-0.008954959
221	0xbca5e6b0	-0.020251602
222	0x3da99ad4	0.08281484
223	0x3eb8270f	0.359673
224	0x3eada1a6	0.3391239
225	0x3e591b91	0.21201922
226	0x3e28a8c9	0.16470636
227	0x3d2ca4a3	0.042149197
228	0xbcf379ec	-0.029721223
229	0xbd5f7f67	-0.05456486
230	0x3bf104e0	0.0073553175
231	0x3cee3805	0.029079447
232	0x3d0452b1	0.032305423
233	0x3dd1b38b	0.10239323
234	0x3d243ca1	0.040096883
235	0x3d122dd5	0.03568824
236	0x3d020b1d	0.03174888
237	0x3df05420	0.117347956
238	0xbc131808	-0.008977897
239	0x3cb6b896	0.022304814
240	0xbc80096c	-0.015629493
241	0x3c815c1d	0.015790993
242	0x3e42ed88	0.19035923
243	0x3e36de8f	0.17858337
244	0xbbc9e222	-0.0061609903
245	0xbce5646c	-0.028001986
246	0xbd4c4d18	-0.04987821
247	0xbdbe0147	-0.092775874
248	0xbd66549b	-0.05623303
249	0xbcd5d395	-0.026101867
250	0x3d0475fe	0.03233909
251	0x3d9be152	0.07611336
252	0x3d880544	0.06641629
253	0x3cdc77ed	0.026912654
254	0x3ccff8c8	0.025387183
255	0x3dca2fd2	0.09872402

fc1.bias f4 [300]
0	0x3cc55ef0	0.024093121
1	0xbd1160bd	-0.035492647
2	0xbd809411	-0.062782414
3	0x3d598d6e	0.053113393
4	0xbd3f85b7	-0.04675838
5	0x3cec4d86	0.02884556
6	0xbd15f3be	-0.036609404
7	0xbd26cfe8	-0.04072562
8	0x3ba18d6e	0.00493019
9	0x3ca13128	0.01967676
10	0xbda2ced3	-0.07949605
11	0x3a3d6d56	0.000722607
12	0xbc4d3010	-0.012523666
13	0xbc905567	-0.017618848
14	0x3bb070a0	0.0053845197
15	0xbca27f22	-0.019836012
16	0x3ba58c62	0.0050521353
17	0xbd22970f	-0.039694842
18	0x3d665d0d	0.056241084
19	0x3c700f26	0.014652049
20	0xbd0b579e	-0.034019105
21	0xbd1b0a90	-0.03785187
22	0x3d84bff4	0.06481925
23	0xbd57dc48	-0.05270031
24	0xbcd14353	-0.025544798
25	0xbd62e332	-0.05539245
26	0xbca50711	-0.020144971
27	0xbcac1498	-0.021005914
28	0xbc082909	-0.008310565
29	0xbda085c0	-0.07838011
30	0xbd6ddd37	-0.058072295
31	0x3ce5556f	0.02799484
32	0xbd0c3fe3	-0.034240615
33	0x3b375168	0.0027972106
34	0xbcaa8ebd	-0.020820016
35	0x3b57deda	0.0032939226
36	0xbc0060e3	-0.0078356
37	0xbd2b5bef	-0.04183572
38	0xbd14863d	-0.036260832
39	0xbc877af2	-0.016538117
40	0xbd691c10	-0.056911528
41	0xbcf1fba5	-0.029538939
42	0x3be4a3c1	0.006977529
43	0xbd82c173	-0.06384554
44	0x3c38b572	0.011273729
45	0xb98438c7	-0.00025219304
46	0xbc237cd3	-0.009978491
47	0xbd297076	-0.041367017
48	0x3cb72dd2	0.022360716
49	0xbd8ace07	-0.06777578
50	0xbc937780	-0.018001318
51	0xbca70356	-0.020387333
52	0xbbf4f604	-0.0074756164
53	0xbd9f61ac	-0.07782301
54	0xbd39390d	-0.045220423
55	0xbc8771e5	-0.016533801
56	0x3ccf0514	0.025270976
57	0xbd0b692d	-0.03403585
58	0xbcfb7189	-0.030693786
59	0x3b9ff964	0.0048820246
60	0x3c7a64bb	0.015282805
61	0xbd40eb03	-0.047099125
62	0x3c238ffc	0.009983059
63	0xbd5e5bde	-0.05428683
64	0xbccc5991	-0.024945052
65	0xbbc9d6b6	-0.0061596287
66	0x3ca082ec	0.019593678
67	0xbb8e2f4a	-0.0043391334
68	0x3cdda0d6	0.027054232
69	0x3be9b1c6	0.007131788
70	0x3c0358d1	0.008016781
71	0x3cb19a10	0.021679908
72	0xbd8b9806	-0.068161055
73	0xbd17f631	-0.03710002
74	0xbc5805cb	-0.013184975
75	0xbd5b9479	-0.05360839
76	0xbc9f05df	-0.01941198
77	0xbcb69055	-0.02228562
78	0xbd0a5ec2	-0.033781774
79	0x3bc699e1	0.0060608243
80	0x3b14038e	0.0022585127
81	0xbd93a545	-0.07209257
82	0x3c308e7d	0.010776159
83	0xbcf79415	-0.030221978
84	0x3cf4fd64	0.029905982
85	0xbd520058	-0.05126986
86	0x3c9a153e	0.018808957
87	0x3cb9e5bf	0.02269256
88	0x3d236452	0.039890595
89	0xbd7afb2c	-0.061274692
90	0xbbf916e4	-0.0076016057
91	0x3d3afd64	0.04565181
92	0xbd04c0b8	-0.032410353
93	0xbcb8945c	-0.02253168
94	0xbd2a65ba	-0.04160092
95	0xbc7d52d0	-0.015461639
96	0xbd402ea0	-0.046919465
97	0xbd7e6169	-0.062104616
98	0xbd391bfa	-0.045192696
99	0xbd8b57bf	-0.068038456
100	0x3c26d83d	0.010183391
101	0x3caec02f	0.021331875
102	0xbd768d6f	-0.060193475
103	0x3ce1c3d9	0.027559208
104	0xbd3f0de2	-0.0466441
105	0x3c7dc4d3	0.015488821
106	0xbb9bbe22	-0.00475289
107	0xbd66ba61	-0.05633009
108	0xbd0adfc6	-0.033904813
109	0x3bc9e98f	0.0061618756
110	0xbc16e443	-0.009209695
111	0xbc32352c	-0.010876935
112	0x3d5b0ddc	0.053480014
113	0xbd702819	-0.05863199
114	0x3d80037d	0.06250665
115	0x3d23c15e	0.03997933
116	0xbcb397ac	-0.021922909
117	0xbb0f8056	-0.0021896563
118	0xbd13a2bf	-0.03604388
119	0x3c1b0bdb	0.009463276
120	0x3c4c8f27	0.012485302
121	0x3d3c8328	0.046023518
122	0xbd3eb6ce	-0.046561055
123	0x3c49f32a	0.012326041
124	0x3ca10610	0.019656211
125	0xbd5f0ad8	-0.0544537
126	0x3bc2844b	0.0059361807
127	0x3d3e2b5e	0.046428077
128	0xbc30b75a	-0.010785902
129	0x3c3a16a9	0.011357942
130	0x3d087ccd	0.033322144
131	0xbc8600ce	-0.016357806
132	0x3c5f2a7d	0.01362097
133	0xbcfb0531	-0.030642124
134	0x3d0d39d8	0.034478992
135	0xbb678769	-0.0035328513
136	0xbcabeffb	-0.020988455
137	0xbb2e266f	-0.0026573201
138	0x3b4658b9	0.0030265285
139	0xbd6b67e7	-0.057472136
140	0x3d114023	0.035461556
141	0xbc889c99	-0.016676234
142	0x3c1e614a	0.00966675
143	0x3d4a2313	0.049349856
144	0xbd1576ea	-0.03649036
145	0xbc656ee8	-0.014003493
146	0x3d2259a6	0.039636277
147	0x3c8bc6c0	0.017062545
148	0xbc73592c	-0.014852803
149	0xbce425b5	-0.027850011
150	0xbd2c6d6d	-0.042096544
151	0x3c2e151d	0.010625151
152	0x3c2673f9	0.010159486
153	0xbbf109de	-0.0073559126
154	0xbd1f8f12	-0.0389548
155	0x3d0ba553	0.034093212
156	0xbd5a3f06	-0.05328276
157	0x3d15ab2d	0.0365402
158	0x3c692536	0.014230063
159	0x3ab93d0d	0.0014132574
160	0xbd287b19	-0.04113302
161	0xbd1ca75a	-0.038245536
162	0xbdca5c19	-0.098808475
163	0xbbb6c430	-0.0055775866
164	0xbd5c2f56	-0.05375608
165	0xbcb6971d	-0.022288853
166	0x3c91f120	0.017815173
167	0xbc5c3aa8	-0.013441719
168	0x3d019f98	0.03164634
169	0x3bd4fcf0	0.006499879
170	0x3cf8443b	0.030305972
171	0xbd72b067	-0.05925026
172	0x3c912ab2	0.017720554
173	0xbc02a58c	-0.00797404
174	0xbc4c816a	-0.012482027
175	0x3cc6f3f9	0.024286257
176	0x3d0e7d3c	0.0347874
177	0x3c96bfae	0.018401947
178	0xbbee557d	-0.0072733746
179	0x3d4cbb73	0.049983453
180	0x3cf5b934	0.029995538
181	0xbd7c7cec	-0.061642572
182	0x3a4a3b43	0.0007714519
183	0xbd351760	-0.044211745
184	0x3ca5b53e	0.020228025
185	0xbd2478f8	-0.040154427
186	0xbc00332a	-0.007824698
187	0x3ac1ea62	0.0014794583
188	0xbd4138ed	-0.04717343
189	0xbd067c48	-0.032833368
190	0xbbe75ceb	-0.007060637
191	0x3d0b97c7	0.034080293
192	0xbcd716e3	-0.02625603
193	0x3cb084a6	0.021547627
194	0xbd02e34f	-0.03195506
195	0x3cd3a56d	0.025835717
196	0x3cc83e12	0.02444366
197	0x3dc13bd1	0.09435237
198	0xbcc5d2cb	-0.024148365
199	0xbd4ce3b6	-0.05002185
200	0x3cdf868a	0.027285833
201	0x3d5da029	0.05410782
202	0xbd91697b	-0.07100197
203	0x3b9304f5	0.004486675
204	0xbd779273	-0.0604424
205	0xbcb4093c	-0.02197706
206	0x3bc58aa2	0.006028489
207	0xbd11585b	-0.035484653
208	0xbd2958c0	-0.041344404
209	0xbcb09746	-0.021556508
210	0xbd42d0e8	-0.04756251
211	0x3d997a36	0.07494013
212	0xbd1495e3	-0.036275756
213	0xbccd6570	-0.025072783
214	0xbd208aab	-0.039194744
215	0xbda2c5d7	-0.07947891
216	0xbc29de1a	-0.010367895
217	0x3cbde901	0.023182394
218	0xbc4c0691	-0.012452737
219	0x3d4e7f50	0.050414383
220	0x3d92efd1	0.071746476
221	0xbc282853	-0.01026352
222	0xbcbdce17	-0.02316956
223	0x3bf672b8	0.0075209998
224	0xbd468a20	-0.04847157
225	0x3d479d52	0.048734017
226	0x3c016441	0.007897438
227	0x3cb8ef03	0.022574907
228	0x3c865482	0.016397718
229	0xbd91929c	-0.07108042
230	0xbce649da	-0.028111387
231	0xbc96c1f5	-0.018403033
232	0x3be41867	0.006960917
233	0xbc11bfca	-0.008895824
234	0x3c837b9b	0.01605015
235	0x3c362c4e	0.0111189615
236	0xbae2b57f	-0.0017296522
237	0x3cff17be	0.03113925
238	0xbc609d98	-0.013709448
239	0x3d7cf42a	0.06175629
240	0xbc883a9d	-0.016629511
241	0xbc68b556	-0.01420339
242	0x3b8c9494	0.004290173
243	0x3d47c16a	0.04876844
244	0x3c084f64	0.008319709
245	0xbc40b40b	-0.011761676
246	0xbc8a97ad	-0.016918028
247	0x3c788dbe	0.015170513
248	0x3d18f85c	0.03734623
249	0xbce0f967	-0.027462674
250	0xbc8cfabb	-0.017209401
251	0xbcf74217	-0.030182881
252	0xbc9d45bf	-0.019198297
253	0xbc725e1e	-0.014792947
254	0x3d859063	0.0652168
255	0xbdaf4871	-0.08558739

fc2.weight f4 [10, 300]
0	0xbe4d600a	-0.20056167
1	0x3d8e1e77	0.069394045
2	0x3e42259a	0.18959656
3	0x3d99aeab	0.075040184
4	0x3cf05186	0.029335748
5	0x3e10c792	0.1413863
6	0xbda717fc	-0.081588715
7	0x3deee936	0.11665575
8	0xbe340307	-0.1757928
9	0x3dade2c5	0.084905185
10	0xbdd36244	-0.10321477
11	0xbe9f4dcf	-0.3111405
12	0x3e07ac3f	0.132493
13	0xbbe52dc3	-0.0069939806
14	0x3d0e7d2d	0.034787346
15	0xbddafcb1	-0.10692728
16	0xbec5c57c	-0.3862723
17	0xbf08c249	-0.53421456
18	0x3d6243a8	0.055240303
19	0x3d4ff376	0.05076929
20	0x3d00c8ab	0.031441372
21	0xbca66a28	-0.020314291
22	0xbc9535af	-0.018214075
23	0x3e39dc07	0.1815034
24	0xbe37a50f	-0.17934059
25	0xbdc2485b	-0.09486457
26	0xbe4fc125	-0.20288523
27	0xbb88dc26	-0.0041766344
28	0x3e32c333	0.17457275
29	0xbe868270	-0.2627139
30	0xbd007303	-0.031359684
31	0xbe2ab4d8	-0.16670549
32	0x3da5140a	0.08060463
33	0x3dd53169	0.10409815
34	0xbe98e018	-0.2985847
35	0xbe86985a	-0.2628811
36	0xbe908805	-0.28228775
37	0xbdd6fb8a	-0.10497196
38	0xbe30e805	-0.17276008
39	0xbe02d0c0	-0.12774944
40	0x3d99d146	0.07510619
41	0xbda46c89	-0.08028514
42	0xbe4c0b55	-0.19926198
43	0xbd63c57a	-0.05560825
44	0xbe55c276	-0.20874962
45	0xbc9cdda8	-0.019148663
46	0x3d2af1ee	0.04173463
47	0xbba57544	-0.0050493795
48	0x3de8df29	0.113706894
49	0xbdce4b2e	-0.10072933
50	0x3d8be829	0.068313904
51	0x3de155b8	0.11002678
52	0xbcea9f93	-0.028640544
53	0xbd9fb4a0	-0.07798123
54	0x3dc49e3f	0.096004955
55	0xbe1a5d10	-0.15074563
56	0xbe82ce24	-0.25547898
57	0x3c390070	0.011291608
58	0x3d85a990	0.06526482
59	0xbb88995b	-0.004168672
60	0x3e0e4e56	0.1389707
61	0xbe1af4ba	-0.15132418
62	0x3ceef919	0.029171513
63	0xbe003054	-0.12518436
64	0x3e34caaa	0.17655435
65	0xbeed4ca4	-0.46347535
66	0xbe1bc1eb	-0.15210693
67	0xbe12e4a1	-0.14345028
68	0xbceb9259	-0.028756307
69	0xbe9606bf	-0.29302022
70	0x3ca537fb	0.020168295
71	0x3cdb39f6	0.026761036
72	0x3d4498e9	0.04799739
73	0xbdfc831e	-0.12329696
74	0xbe91db64	-0.28487694
75	0xbe855156	-0.26038617
76	0xbe8266a7	-0.25468943
77	0xbe1fc226	-0.15601406
78	0xbece6345	-0.40310112
79	0xbc4a5d79	-0.012351387
80	0xbe40526d	-0.18781443
81	0xbe70580c	-0.23471087
82	0xbd76c327	-0.060244706
83	0xbe907beb	-0.28219542
84	0x3c059a8c	0.008154523
85	0x3d9c7389	0.07639224
86	0xbe19981a	-0.14999428
87	0xbc7d33cc	-0.015454244
88	0xbedc14f6	-0.42984742
89	0x3df60dc3	0.120143436
90	0xbc624858	-0.013811193
91	0xbd409d36	-0.047024928
92	0xbe938a51	-0.28816465
93	0x3d725685	0.059164543
94	0x3d95bba6	0.07311182
95	0xbe300c76	-0.17192253
96	0xbd9dfde0	-0.077144384
97	0x3dcf9e8b	0.101376615
98	0xbdc9e640	-0.0985837
99	0xbdfc38a2	-0.12315489
100	0x3d3fb2a3	0.04680122
101	0xbde93a06	-0.1138802
102	0xbc2800f8	-0.010254137
103	0xbdd84542	-0.10560085
104	0x3de82cef	0.113366954
105	0x3d89c3c4	0.067267925
106	0xbde93872	-0.11387719
107	0xbb09ccf4	-0.0021026703
108	0x3d58735c	0.05284439
109	0x3c86cdcf	0.016455559
110	0x3ce3b4dd	0.027796203
111	0xbdd1abcc	-0.10237846
112	0xbda1565d	-0.078778006
113	0x3c749d3d	0.014930067
114	0x3d70352a	0.05864445
115	0x3db1aa97	0.086751156
116	0xbb652960	-0.0034967288
117	0x3bcbb8ab	0.0062170825
118	0x3d585c11	0.052822176
119	0x3d07a705	0.033118267
120	0x3d358e8a	0.04432539
121	0x3daa60a7	0.08319216
122	0x3d1fd180	0.039018154
123	0xbed36405	-0.41287246
124	0xbe174580	-0.14772606
125	0xbe94acca	-0.29038078
126	0xbd385f48	-0.045012742
127	0xbdce3c6b	-0.100701176
128	0x3d9a081c	0.07521078
129	0xbd1dd9b6	-0.038537703
130	0xbe5b22f0	-0.21400046
131	0xbbcd02f9	-0.006256458
132	0x3dc0586a	0.09391864
133	0x3e1ec2a7	0.15503941
134	0x3dddce59	0.10830373
135	0xbe14f592	-0.14546803
136	0xbe566802	-0.20938113
137	0xbaf5e824	-0.00187612
138	0x3e47a915	0.19498093
139	0x3e1a95b6	0.15096173
140	0xbe9947bd	-0.29937544
141	0x3e1b180d	0.15145893
142	0xbeb30e3b	-0.34971794
143	0xbe8ba2bc	-0.27272594
144	0x3cc26dfe	0.023734089
145	0xbcee5b1a	-0.029096175
146	0xbd8e6ce8	-0.06954366
147	0x3c2ae7dc	0.010431256
148	0xbe9484a5	-0.2900745
149	0xbcd90439	-0.026491271
150	0x3ddeb4e9	0.108743496
151	0xbe1d7ce8	-0.15379679
152	0x3dc03df2	0.09386815
153	0x3da0c406	0.078498885
154	0xbedeb41e	-0.43496794
155	0xbeaa791f	-0.33295533
156	0xbe2b830d	-0.1674921
157	0x3d010ea9	0.03150812
158	0x3cecf7cf	0.028926758
159	0xbe961d95	-0.29319444
160	0x3db638e7	0.08897572
161	0x3d64e7b0	0.055885017
162	0x3dabbd81	0.083857544
163	0x3d944980	0.072405815
164	0x3dce21f4	0.1006507
165	0x3d0d70c5	0.034531374
166	0x3b2f0b0f	0.0026709472
167	0x3d837bd6	0.06420104
168	0x3d916403	0.07099154
169	0x3dc9ee6d	0.09859929
170	0x3cf6062d	0.030032242
171	0x3e03ea62	0.12882379
172	0xbcff423f	-0.031159518
173	0xbe1bfc2b	-0.15232913
174	0xbcc5c0e3	-0.024139827
175	0xbe8b4fac	-0.27209222
176	0x3e2a106b	0.16607825
177	0xbecae886	-0.39630526
178	0x3dcef138	0.101046026
179	0xbe66af1e	-0.2252774
180	0xbde97c25	-0.11400632
181	0x3e027266	0.12738952
182	0x3da5ec58	0.081017196
183	0xbd40514b	-0.046952527
184	0xbd620015	-0.05517586
185	0x3c41c763	0.011827323
186	0x3da48c8c	0.0803462
187	0xbd05c52c	-0.03265874
188	0xbe092a0a	-0.13394943
189	0x3da9c141	0.082888134
190	0x3e152d14	0.14567977
191	0xbe8794d1	-0.26480725
192	0xbe8da738	-0.2766664
193	0xbe6ed9d5	-0.23325284
194	0x3d4a7a02	0.049432762
195	0x3d23dc68	0.040005118
196	0xbe1914fa	-0.14949408
197	0x3d0dd8e3	0.034630667
198	0x3daacaff	0.083395
199	0x3d786a97	0.060648527
200	0x3d78ec92	0.060772486
201	0xbce35b10	-0.027753383
202	0x3d718b32	0.058970638
203	0xbdfc19b8	-0.12309593
204	0x3df4f96d	0.11961637
205	0xbded6f0a	-0.11593445
206	0x3e1fd94a	0.15610233
207	0xbe3d9f98	-0.18517911
208	0xbdcd512e	-0.100252494
209	0x3e175dd9	0.14781894
210	0x3dc7d6d6	0.097577736
211	0xbd03ad9f	-0.032148
212	0xbe348100	-0.17627335
213	0xbe000d92	-0.12505177
214	0x3d9100d0	0.07080233
215	0x3dbde871	0.0927285
216	0xbd2c0c4a	-0.042003907
217	0x3de263ec	0.11054215
218	0x3d76d646	0.06026294
219	0x3e0d2f6e	0.13787624
220	0xbe203ebe	-0.15648934
221	0x3db03eaa	0.08605702
222	0x3e26107d	0.16217227
223	0xbe64d1bc	-0.22345632
224	0x3de841b6	0.11340658
225	0xbe88ef2e	-0.2674498
226	0xbd89ddbe	-0.06731747
227	0xbe1acb76	-0.15116677
228	0xbe89e5db	-0.26933178
229	0xbe85f32f	-0.26162097
230	0x3dca4bc2	0.09877731
231	0x3d249064	0.040176764
232	0xbbe5cea5	-0.0070131593
233	0xbdbb12b5	-0.091344275
234	0xbddbf856	-0.10740726
235	0xbd0f2b20	-0.034953237
236	0x3d314d6e	0.043286733
237	0xbe9935a9	-0.29923752
238	0x3d9cc5c1	0.07654906
239	0xbe0f9906	-0.14023218
240	0xbed10a06	-0.4082796
241	0xbe5f80e3	-0.2182651
242	0xbda5db08	-0.080984175
243	0x3e0e10d6	0.1387361
244	0x3d7a87df	0.061164733
245	0xbc4fa882	-0.012674453
246	0x3ca687ae	0.020328369
247	0x3e2a4398	0.16627347
248	0xbd1482f6	-0.036257707
249	0xbe188f3d	-0.14898391
250	0xbdb85f14	-0.0900251
251	0x3d8d2536	0.06891863
252	0x3e817ee0	0.2529211
253	0xbd898bc5	-0.06716112
254	0xbdefbed6	-0.11706321
255	0xbde9cdcb	-0.11416205

fc2.bias f4 [10]
0	0xbdbc370c	-0.09190187
1	0xbe1777c5	-0.14791782
2	0xb78a9af4	-1.6523038e-05
3	0xb85ad198	-5.217045e-05
4	0xbc83c90b	-0.016087076
5	0xbd82ee54	-0.06393114
6	0xbc181179	-0.00928151
7	0xbdedbb5e	-0.11608003
8	0x3e35f932	0.17770842
9	0x3c8e2e5e	0.017356094
