Alphabet Recognition/One-Hidden-Layer FCMNN/model.pth (torch, 515155 bytes, 4 tensors)

fc1.weight f4 [300, 400]
000000 80 67 b5 3d 2c 8c aa 3d ba 59 a8 3d ab 0e 62 3d
       0.08857632 0.08327517 0.08220239 0.05518977
000010 2b 93 02 3e 38 d2 45 3e 4a 37 2d 3e 56 55 c5 3d
       0.12751453 0.19318473 0.16915622 0.09635417
000020 77 99 44 3d 56 be 0c 3d 7f 13 c7 3d 25 85 ed 3c
       0.047997918 0.034361206 0.097205155 0.028994152
000030 e3 2c 8f 3d 6b cd a1 3d b2 d9 9c 3d 39 54 ed 3d
       0.06990983 0.079005085 0.076587096 0.1158833
000040 bc 3a 0f 3d fe 2b 7e 3d 66 ab ad 3d 34 11 93 3d
       0.034968123 0.062053673 0.08479957 0.071810156
000050 db ce 01 3e 02 45 77 3d fd c3 36 3d 4d e0 f6 bc
       0.12676565 0.060368545 0.044620503 -0.030136252
000060 dc 9a 6d bd be de 52 3d b8 3d 08 3e d2 7f 3d 3e
       -0.058009014 0.051481955 0.13304794 0.18505791
000070 19 87 32 3d 04 af 3e bd ab b2 05 bd fd bb fa 3c
       0.04358587 -0.046553627 -0.032641094 0.030607218
000080 7d f0 79 3d 23 42 37 3e 11 22 bd 3d 39 0f 00 3d
       0.061020363 0.17896323 0.09235013 0.031264517
000090 00 35 48 bd b6 a6 a2 3c 12 4f 37 3d bb 95 39 3d
       -0.04887867 0.019854885 0.04475314 0.04530881
0000a0 e4 36 ab 3d 77 a2 37 3d 64 ea ee 3b 78 9f 2f bc
       0.08360079 0.044832673 0.007291125 -0.010719173
0000b0 60 0d d9 bd 31 80 b4 bc 67 3f 28 bd b8 ed b3 3d
       -0.10598254 -0.022033783 -0.04107609 0.08785576
0000c0 e3 68 0a 3c 30 de 82 be 85 83 09 3d 75 c9 37 3e
       0.0084478585 -0.2556014 0.033572692 0.17947944
0000d0 1a a3 d9 3d 21 6d 0a 3e 52 8e f0 bd 55 a6 8c be
       0.10626812 0.13518192 -0.117458954 -0.2747065
0000e0 c0 41 8e be 07 97 31 be 43 ca 9e 3d 73 df f6 3d
       -0.27784538 -0.17342769 0.07753422 0.12054338
0000f0 eb 34 6e 3d 1f 2c 9b 3d 55 a9 7e 3d fc 30 ff 3d
       0.058155935 0.07576775 0.062173206 0.12460515
000100 e5 e9 a1 bc 3d 41 9d bc 91 3a 45 bd ac c2 cd 3d
       -0.01976485 -0.019196147 -0.048151556 0.10046896
000110 d9 0d 12 3e 75 9d 32 3d 01 d4 0a 3e e0 49 f5 3c
       0.14263095 0.043607194 0.13557436 0.029942453
000120 44 85 d9 bc bc cc dd bd 31 77 b3 be 84 07 c9 be
       -0.026552804 -0.108300656 -0.35051873 -0.39263546
000130 70 79 cf be a3 ea 87 be 8a e1 ee bb 1e 82 c5 3d
       -0.40522337 -0.265462 -0.00729007 0.096439585
000140 d7 3b 93 3d 5b d4 28 3e 96 16 32 3e 3f 92 eb 3d
       0.07189148 0.16487257 0.17391428 0.115025036
000150 7e f0 98 3d 41 f3 e2 3d 59 33 95 3d 70 ca eb 3d
       0.07467745 0.11081553 0.072851844 0.11513221
000160 d8 52 e9 3d e9 20 64 3d ee 1a 12 bd 49 9e c3 be
       0.11392754 0.055695448 -0.035670213 -0.382067
000170 01 83 b6 be 53 75 8f be c8 d8 90 be 03 78 9e be
       -0.35646823 -0.280192 -0.2829039 -0.30950937
000180 1d 09 c4 be a2 c3 ae be 14 5a b8 bd 03 1b a7 3d
       -0.38288203 -0.3413363 -0.09001556 0.08159449
000190 16 ca a8 3c bf 19 17 3d 3e 3c 3f 3e b7 e6 0a 3e
       0.020604175 0.036889788 0.18675324 0.13564573
0001a0 f7 c1 92 3d 57 6f 5e 3d be a0 0e 3d be 59 fe 3d
       0.07165902 0.0543054 0.034821264 0.12419461
0001b0 a8 01 74 3e ce 25 9e 3d 6e 3e 9c be bd c9 13 bf
       0.23828757 0.077220544 -0.3051638 -0.57729703
0001c0 57 ef 02 bf 92 f2 c3 be 68 c5 d6 be 64 b7 ca be
       -0.51146454 -0.38271004 -0.41947484 -0.3959304
0001d0 b7 15 b8 be 50 42 bf be 1e 2c 15 be 4f 41 dc 3c
       -0.35954067 -0.3735528 -0.1456761 0.02688661
0001e0 a1 35 99 3d 41 0c 20 3d 62 b9 d0 3c c0 72 20 bc
       0.07480932 0.039074186 0.025479022 -0.0097929835
0001f0 84 43 0c 3d 88 77 6c bc 24 1f d4 bc 70 00 03 3e
       0.034244075 -0.014432795 -0.025893755 0.12793136
000200 c4 f3 23 3e d5 17 1b 3e 1f fe 80 be 82 64 9c be
       0.16010958 0.1514581 -0.2519388 -0.3054543
000210 37 8c c4 be 60 1d 03 bf a1 b7 19 bf 51 d6 ee be
       -0.38388225 -0.512167 -0.6004582 -0.46647885
000220 42 1f 62 be f8 d4 9c be e1 37 86 be 22 c5 0f 3d
       -0.22082236 -0.30631232 -0.26214507 0.03510011
000230 b6 b5 64 3d 41 e8 e5 3d 87 d6 06 3d de 6d a2 3d
       0.055837356 0.112259395 0.032919433 0.07931112
000240 bc 33 40 3d fd 11 cc bc 59 44 bc bc 45 2c d5 3d
       0.046924338 -0.024910921 -0.02298181 0.10408834
000250 5c cd 28 3e c5 37 1a 3e ee e9 31 3d 88 cb 64 bb
       0.16484588 0.15060337 0.043435983 -0.0034911353
000260 36 6f d1 bd e7 6b 42 be 55 9f a7 be 88 11 ac be
       -0.1022629 -0.18986474 -0.32738748 -0.33607125
000270 a7 92 99 be 1e 6d 92 be 6f 3a 7b be 8e 81 36 3d
       -0.299947 -0.28598875 -0.2453401 0.044557147
000280 c1 bf 2d 3d e3 a6 2d 3d a3 65 f0 bd 83 ba 8e 3c
       0.0424192 0.042395484 -0.11738136 0.01742292
000290 c8 3e 6b 3d 73 7d 82 bd 97 a2 be 3c e5 cd 5e 3e
       0.05743292 -0.06371584 0.023270888 0.2175823
0002a0 54 32 00 3e 50 4d bf 3d 18 ea 35 3d b9 9b 38 bd
       0.12519199 0.09340918 0.044412702 -0.045070384
0002b0 9b df 0a 3d 9a 66 a1 3d ef c4 1b bd 70 8b 1d be
       0.033904653 0.07880898 -0.038029607 -0.15385222
0002c0 32 65 32 be d6 93 86 bc e2 21 7b bd 75 9c e1 3d
       -0.17421415 -0.016427916 -0.06131161 0.1101617
0002d0 41 1b a5 3d 4f 96 0c be 49 8b 64 3b dc 5b 66 3d
       0.08061839 -0.13729213 0.003487306 0.056239948
0002e0 0a 3e 29 3b 4f 21 4d b9 0b db c9 3d 62 28 ce 3d
       0.0025824332 -0.00019562732 0.09856232 0.10066296
0002f0 1f 67 ee bc 9e 22 1c 3d 99 a3 0d 3d 3f f6 67 bd
       -0.029101906 0.03811895 0.034579847 -0.056631323
000300 05 44 0f 3e 17 5f 22 3e 53 b4 4c bd 16 55 09 bd
       0.13990791 0.15856586 -0.049976658 -0.03352841
000310 09 af 8a 3c dd 99 0d 3e 28 4a 0c 3e 3d a5 c7 3d
       0.016929166 0.13828225 0.13700163 0.097483136
000320 77 34 a7 3d d9 6c 5e be 94 88 0c be 38 63 e6 bd
       0.08164304 -0.2172121 -0.13723975 -0.11249393
000330 62 dd a5 bd 5f ba 8b bb 37 12 cf bb 35 64 66 3d
       -0.08098866 -0.0042641605 -0.00631931 0.05624791
000340 c8 4d ff 3c ee e8 8a 3d 24 78 db 3d cd 71 69 3d
       0.031165019 0.06782709 0.107162744 0.056993295
000350 fe 8c d9 3c b3 78 e9 3c 19 bb 14 be 9a e9 00 be
       0.026556488 0.028499937 -0.14524497 -0.12589112
000360 44 63 e6 bc fa 57 74 3e 87 d8 89 3e a9 de 2e 3d
       -0.028123505 0.23861685 0.2692301 0.042692814
000370 8a 09 07 3e c9 99 b1 bd ec ff fd bd 2c e1 d7 bd
       0.13187233 -0.0867191 -0.12402329 -0.10540995
000380 12 b8 fc 3c 61 8d 9d bc 0e ab 5b 3d 6b 9d 3a bd
       0.03084949 -0.019232454 0.053629927 -0.04556028
000390 51 76 93 3d 87 e8 0d bc 0c 50 c1 bc b0 bc e9 3a
       0.072003014 -0.008661396 -0.02359774 0.0017832723
0003a0 55 d4 90 bb 8b cf 3f bc a1 f1 cb bc 2e 93 d8 bd
       -0.004419843 -0.011707197 -0.024895491 -0.10574947
0003b0 74 f0 95 3d 7b ec 82 3e 15 be f6 3d 8b 60 a7 3d
       0.073212534 0.25571045 0.12047974 0.08172711
0003c0 95 8e 58 3d bc 26 71 bd 68 aa c6 bd d8 25 17 3d
       0.05287035 -0.05887483 -0.09700471 0.036901325
0003d0 2e a5 03 3e ea 70 48 3d 2d 52 82 3d bd c4 d5 3c
       0.1285598 0.04893581 0.0636333 0.026094789
0003e0 93 60 ee 3d 49 24 71 3d bd 78 0e bd b4 16 84 bc
       0.11639514 0.058872495 -0.034783114 -0.016124107
0003f0 c5 e0 66 3c 6b 0e fb bb f5 f8 c0 bb 8f 8a 4e 3b
       0.014091675 -0.007661631 -0.005889053 0.0031515693

fc1.bias f4 [300]
000000 67 85 43 bd e8 af 34 bd 97 0d a8 bd 4f 9e 2f bd
       -0.047734644 -0.04411307 -0.08205717 -0.042875584
000010 ba d1 3a 3c a0 03 de bd c3 15 8f ba ca d4 af bc
       0.011402542 -0.10840535 -0.001091652 -0.02146377
000020 ad f7 f8 bd 56 04 10 bd 9d cd ea bd e1 03 a8 ba
       -0.121566154 -0.035160385 -0.11464999 -0.0012818539
000030 cb 5e 89 bb 69 29 18 3d 56 62 6e bd 00 72 cd bd
       -0.0041922084 0.037148867 -0.05819925 -0.100315094
000040 22 5c 23 be c7 48 9f bd 91 b9 f9 bd 95 a7 16 bc
       -0.15953115 -0.07777553 -0.12193597 -0.009195228
000050 84 e4 50 bd 75 46 c6 bc 04 6e 63 bd a9 08 ec bd
       -0.05099918 -0.024203518 -0.05552484 -0.11525089
000060 97 65 61 3c 9a 92 5d bd d8 8c 09 bd d1 79 bf bd
       0.013757131 -0.05409489 -0.033581585 -0.093494065
000070 cf ca c1 3c 89 fe b2 bc f2 90 87 bc 9e 80 ac 3c
       0.023656277 -0.021849887 -0.016548607 0.021057423
000080 ef 28 53 be 64 3b f8 bc 52 6e 54 bd 43 9c 51 bd
       -0.20621084 -0.030301757 -0.051863022 -0.051174413
000090 0e 4f 1d be ba 88 61 be d7 54 c2 bc cf f5 05 bd
       -0.15362188 -0.22024813 -0.023722095 -0.032705124
0000a0 56 d2 1c be cd 7c 43 bd 50 61 0b 3d ad e9 87 bc
       -0.15314612 -0.04772644 0.03402835 -0.016590917
0000b0 09 0f ae bd 6e f2 a1 bd 55 58 39 bd ab 3c ba bc
       -0.084989615 -0.07907568 -0.045250256 -0.022734007
0000c0 d3 9a 7a bd b8 de 6c bc a9 5f 26 be 8a 89 22 bc
       -0.061182808 -0.014457397 -0.16247429 -0.009920487
0000d0 da e9 02 3d 36 7a bf bc 1c dd f8 bd 11 c3 8f bd
       0.0319613 -0.023373704 -0.12151548 -0.07019628
0000e0 2f 32 30 bb 6a 77 30 be fd b7 c8 3c 17 ef 00 bd
       -0.002688538 -0.17233053 0.024501795 -0.031478014
0000f0 6e 9d 6b bd 6d a7 8d bc 32 ed 33 bd f2 48 d2 bd
       -0.057523184 -0.017291749 -0.04392738 -0.102678195
000100 99 a4 30 be cf c4 05 bd 31 89 aa bd 3c 9b 18 bc
       -0.17250289 -0.032658394 -0.083269484 -0.0093143545
000110 d5 fb 48 bd c8 3f 72 bc f2 7f 94 3c 45 2e c4 bd
       -0.04906829 -0.014785714 0.018127415 -0.09579138
000120 f1 7a 08 bd d3 af 90 bd 8f d8 f3 bc 85 37 cd bd
       -0.03332037 -0.07064786 -0.02976635 -0.10020355
000130 48 65 07 bd ee 87 e4 bd 55 9e 48 bd b6 4c 4a bd
       -0.033055574 -0.11158739 -0.048979122 -0.049389564
000140 91 e2 4d bd 1e 6e 30 3c 6b 0f 30 bd 6b 26 ac bc
       -0.0502649 0.0107684415 -0.042983454 -0.021014413
000150 fd 62 98 bd e8 62 b1 bd fa b6 c9 bc 1b 87 04 be
       -0.074407555 -0.08661443 -0.024623383 -0.12942164
000160 65 3b 96 bd 1a 20 5e bd e5 b2 81 bd ef fd 9a bc
       -0.07335547 -0.054229833 -0.063329495 -0.018919913
000170 4b e3 00 be 4e 18 0d bd b7 b5 df bc 99 14 f1 bc
       -0.12586705 -0.034447007 -0.027308328 -0.029428767
000180 70 c0 a1 bd 03 4d ba 3d 7e 83 13 be 5e 99 9b bc
       -0.07898033 0.0909672 -0.14405629 -0.01899403
000190 f0 b1 06 bc 31 d7 51 be 97 f7 e6 bc 25 67 a8 bd
       -0.008221135 -0.20492245 -0.028194232 -0.08222798
0001a0 81 77 50 3c ef e9 aa bd d1 9a 3c bc 6a 96 f8 bd
       0.012723804 -0.083454005 -0.0115115205 -0.12138064
0001b0 87 21 d6 3c 63 bf be bd 9c 78 f6 bd fc 3a 74 bd
       0.026139034 -0.09313848 -0.12034723 -0.059626564
0001c0 62 15 ad bc 1e bc 58 bd f7 82 06 3d 9e ce ed bd
       -0.02112836 -0.052913778 0.03283974 -0.11611675
0001d0 8b e6 99 bd 4c d6 f0 bc dc cd 80 bd df 8f 67 bd
       -0.07514676 -0.02939906 -0.062892646 -0.05653369
0001e0 ab 3d 94 bd 6c 73 60 3c 78 d2 f2 bd f6 65 fa bd
       -0.07238325 0.013699394 -0.1185655 -0.12226479
0001f0 dc 43 37 bd fa f6 21 bd 4c 6c bf bd d8 15 e0 bd
       -0.04474245 -0.039542176 -0.09346828 -0.10941666
000200 92 73 04 bd 90 3f f8 3b d3 51 08 bd 87 86 e6 3c
       -0.03233678 0.0075759366 -0.03328116 0.02814032
000210 d7 b0 8f bd db 7e a9 3c 39 10 22 bd 24 f3 6f bd
       -0.070161514 0.020690372 -0.039566252 -0.058581486
000220 93 5b b5 bd b9 6e 5f bc 87 e4 81 bd 1f ca a4 3d
       -0.08855357 -0.013637238 -0.06342416 0.08046364
000230 af 76 9d bc a9 fa 4c 3c ca 70 b3 bb 20 7e 00 be
       -0.019221632 0.012510934 -0.005476092 -0.12548113
000240 cd 25 d8 bc 96 85 ae 3c 49 c3 c9 bd 53 fe 00 be
       -0.026385212 0.021303933 -0.09851701 -0.12597017
000250 fa 53 e8 bc 1c 48 d5 bc 07 ab 08 bb f5 e4 0c bc
       -0.028360356 -0.026035361 -0.0020853893 -0.0085995095
000260 aa ea 0b bd 1e 4e ee bd 6b 5b c4 bd 67 ca 41 bd
       -0.03415934 -0.116359934 -0.09587749 -0.047312167
000270 62 f0 e9 bd 5e 3c 88 bd 4f 1d 09 bc 74 9b 68 bd
       -0.114228025 -0.06652139 -0.008368804 -0.056788877
000280 41 a0 95 bd 8a e9 a2 3c 8e 15 af bd 8b 50 75 bd
       -0.07305957 0.01988675 -0.08549033 -0.059891265
000290 95 21 66 3c 5e c9 c0 bd 87 89 da bd 7e a5 5b bd
       0.0140460925 -0.09413408 -0.106707625 -0.053624623
0002a0 68 b0 6c bc 40 80 39 bd ef 5f 65 3c 6b 4f 6f bd
       -0.014446355 -0.045288324 0.013999923 -0.05842535
0002b0 69 22 bf 3d 4d d3 ea bd f7 46 d0 bd 81 06 75 bd
       0.09332735 -0.11466084 -0.101697855 -0.059820656
0002c0 39 73 ca 3c 08 86 18 be f8 6d a4 bd 99 24 cc bc
       0.024713146 -0.14894879 -0.080287874 -0.024919795
0002d0 69 e7 9f bd 3c 1f 07 bc a4 15 7e 3c 88 96 32 bd
       -0.0780781 -0.008247193 0.015508089 -0.04360059
0002e0 1b 0f c5 bc eb 19 12 3c cf 40 8c bd d7 e8 57 3e
       -0.024055054 0.008917312 -0.06848299 0.21084915
0002f0 a3 1b 1b bd bf dc 03 bd 66 a7 15 bc c2 82 e3 bd
       -0.037868153 -0.03219294 -0.009134149 -0.111089244
000300 d9 f9 b2 bd 8a 08 01 be a8 6b f0 bc 9c 81 c3 bd
       -0.08739061 -0.12600914 -0.02934821 -0.095462054
000310 b5 28 25 bc 38 c5 13 bd af f9 41 bd ea 00 61 3c
       -0.010080506 -0.036076754 -0.047357257 0.013733128
000320 b0 68 43 be b2 a8 fa bc 06 e8 0a be e6 28 80 bd
       -0.19082904 -0.030598018 -0.13565072 -0.06257801
000330 c4 a5 2d 3d 47 16 15 be 25 a5 14 3d 16 b9 35 39
       0.042394415 -0.1455928 0.036290307 0.00017330455
000340 88 7e a9 3d 0f 39 0e 3d 77 19 12 bd f6 fe 47 3d
       0.08276087 0.034722384 -0.035668816 0.048827134
000350 db 00 c2 bd 65 6d 89 3c d5 0a db bd 53 f5 11 be
       -0.094728194 0.016775796 -0.106954254 -0.1425374
000360 b8 d9 a2 3c 7f e3 05 bd 23 d0 9e bd 18 e6 0d be
       0.019879207 -0.03268766 -0.07754543 -0.13857305
000370 56 de b6 bd dc a3 8b bd 55 c6 98 bd 91 4d 1a 3d
       -0.08929126 -0.06818363 -0.07459704 0.03767163
000380 db 95 d3 bc f4 33 43 bc 3a 9e cd bd 6f 41 c0 bd
       -0.025828293 -0.011914242 -0.10039945 -0.093874805
000390 1d c6 fc 3c ff 2a 77 bd cc 75 21 3b b5 01 46 bd
       0.030856187 -0.06034374 0.0024636863 -0.04834147
0003a0 d8 a6 7e 3d 4c 28 64 bd 32 f7 d1 bd 0b 5e 27 3d
       0.062170833 -0.055702493 -0.10252227 0.04086117
0003b0 28 d2 21 3c 4d 54 bb bc af 85 8f 3c 58 47 86 3d
       0.009876765 -0.022867346 0.0175198 0.065565765
0003c0 a7 0e 34 bd 9d d4 d4 bb 25 d9 98 bd 4f 98 f6 bd
       -0.043959286 -0.006495072 -0.07463292 -0.12040769
0003d0 64 21 d1 bc b7 2d 90 bd c0 39 c7 bd 2d e0 b4 bd
       -0.025528617 -0.070399694 -0.09727812 -0.08831821
0003e0 78 ef 09 be 26 9f 78 3c d7 7f 49 bd d8 61 ff bb
       -0.13470256 0.015174663 -0.049194183 -0.0077936463
0003f0 d3 d5 e2 bb 82 8e 0c be fe ba 36 bd b0 da 75 bc
       -0.0069224625 -0.13726237 -0.044611923 -0.015005752

fc2.weight f4 [27, 300]
000000 99 24 fd bd 2a dd 4f 3c a7 3d 65 bc f2 83 d7 bd
       -0.12360496 0.012687007 -0.01399175 -0.105232134
000010 4c 6d cd be e8 17 cc bd 0d fc 09 be 43 18 28 bd
       -0.4012245 -0.09965497 -0.13475056 -0.041038763
000020 53 e8 61 3c 85 26 71 bd 35 ef d4 bd e6 c2 6a bd
       0.013788301 -0.058874626 -0.103971876 -0.057314776
000030 4b 1d 01 bd 20 ff fe bd 96 69 fa bd 5b ec 05 be
       -0.031522077 -0.12451005 -0.1222717 -0.13078444
000040 e7 75 80 bd a0 36 07 bd e9 10 12 be 1d 40 bc bd
       -0.06272488 -0.03301108 -0.14264263 -0.09191916
000050 a4 6a c5 bd ab 41 2c bd 25 54 01 3c b6 36 2d bd
       -0.09639481 -0.042054813 0.007893597 -0.042288505
000060 57 4f 12 be 2a 21 df bd 04 49 80 bd 43 74 42 bd
       -0.14288078 -0.108949974 -0.062639266 -0.047474157
000070 07 d0 34 bc 6b 85 c3 bc cb 88 e4 bd 00 b1 c8 bd
       -0.011035926 -0.02386733 -0.11158904 -0.09799385
000080 26 35 b8 bd a8 70 e6 bd c2 8c 2e bd 8e 25 13 bd
       -0.08994512 -0.11251956 -0.042614706 -0.035924487
000090 00 fe 07 be c6 0c e2 bd b6 60 51 be c7 f1 db bd
       -0.13280487 -0.110375926 -0.20447049 -0.10739475
0000a0 72 4c cd bc 6e f3 80 be ec 28 40 bd 68 19 df bd
       -0.025060866 -0.25185722 -0.046914026 -0.10893518
0000b0 56 19 1c be 0d f5 88 bd 5f 57 26 bc a5 03 a1 bc
       -0.1524404 -0.06687365 -0.010152667 -0.019655058
0000c0 2b e5 24 bd 7f 5d c2 bd d0 76 61 bd 0a 27 58 bd
       -0.040257614 -0.09490489 -0.05504495 -0.052771606
0000d0 90 b2 07 be 8f 97 02 be 39 e6 54 be b6 4f fa bd
       -0.1325171 -0.12753128 -0.20790948 -0.12222235
0000e0 65 ae 87 be 3d 51 7e bd c9 fc a4 bd 8c 74 c1 3c
       -0.2650024 -0.062089194 -0.080560274 0.023615144
0000f0 be 2c 7d be 8a 2f f4 bd 8f 47 3b bd 2d fa 0f be
       -0.24724099 -0.1192313 -0.04572254 -0.14060278
000100 97 b0 09 bc f3 bf e8 bd 6f dd a1 bc ec 41 2d bd
       -0.008403919 -0.113647364 -0.019758908 -0.042299196
000110 09 cb 51 bb f7 67 f0 bb a3 7e 4f be b1 26 d1 be
       -0.0032011888 -0.0073366123 -0.20263152 -0.40849832
000120 8c 1c d9 bc 9a a6 2c bc e2 f7 89 bd 7a 27 25 be
       -0.02650287 -0.010537768 -0.06736733 -0.1612834
000130 cd a5 fa bd 55 e3 6b be 22 0b 13 be 76 09 6a bd
       -0.12238655 -0.23035939 -0.14359716 -0.05713793
000140 1b c6 77 bd 63 27 03 be 00 c5 ff bd 6d 75 13 be
       -0.060491662 -0.12807994 -0.12488747 -0.14400263
000150 03 f9 10 be 4a 71 99 bd 33 97 82 bd 83 c7 21 bd
       -0.1415749 -0.07492311 -0.06376495 -0.03949691
000160 ac ad ba bc 44 82 91 bd 44 86 b9 bd 27 8e 3e bd
       -0.022787891 -0.07104924 -0.09058812 -0.046522286
000170 24 08 29 be 75 54 c1 bc 14 df 5a bd 51 d0 26 3c
       -0.16507012 -0.023599843 -0.0534354 0.010181502
000180 c0 51 a8 bd 31 d2 d4 bd 5d 73 9f bc 0c 9c a4 be
       -0.082187176 -0.10391653 -0.01946419 -0.32150304
000190 b4 9c c1 bd d8 17 2c be 24 33 de bd 54 ec 98 bd
       -0.09453717 -0.1680597 -0.10849598 -0.07466951
0001a0 c5 37 81 bd 55 45 78 bd cc d0 e4 bd cd d3 b0 bd
       -0.06309465 -0.060612995 -0.11172637 -0.08634148
0001b0 e0 18 b4 bc 3e af 9a bd 9b 5e 92 bd 4a ef 9f bc
       -0.021984518 -0.07552956 -0.07146951 -0.019523282
0001c0 84 71 e5 bc da 06 82 bd ef 6e 8c bd 44 bd 3f bd
       -0.02800823 -0.06348963 -0.068570964 -0.046811357
0001d0 1d 12 28 be 32 13 b4 be ec 02 28 bd 9a 54 32 bd
       -0.1641316 -0.35170895 -0.04101841 -0.043537714
0001e0 d6 d3 fb bc 29 d7 12 be e8 83 bd bc e0 ef 36 be
       -0.03074066 -0.1433989 -0.023134187 -0.17864943
0001f0 47 6d ed bd ba d5 22 bc 76 e4 1f be d1 0d 66 bd
       -0.115931086 -0.009938652 -0.15614495 -0.05616552
000200 23 32 e0 bd a5 5f dc bd 65 81 16 be 8a dc 6d be
       -0.10947063 -0.1076043 -0.14697798 -0.2322866
000210 22 1e c2 bc 81 b0 eb bd 55 8e ef bd aa 86 89 bd
       -0.02369601 -0.11508275 -0.116970696 -0.06715138
000220 89 b4 0e bd c5 37 b8 bd 08 06 2e be 3d e7 87 bd
       -0.03484014 -0.08995012 -0.16994488 -0.06635902
000230 5f f7 10 bc 70 f5 fe bd d5 76 12 be 2b 91 93 be
       -0.00884804 -0.12449157 -0.14303143 -0.28821692
000240 d8 1e 90 bd 7d fd be bd 46 2b dc bd 46 61 9e bd
       -0.07037133 -0.09325693 -0.10750441 -0.07733397
000250 bc 0a d6 bd 01 61 82 bd b3 23 83 bd 1d 77 8f bc
       -0.10451266 -0.06366158 -0.064032935 -0.017512852
000260 06 7a 6a bd 34 2e 14 be c4 41 84 be 89 95 04 be
       -0.057245277 -0.1447075 -0.25831425 -0.12947668
000270 6a 8e c5 bd c1 c6 7f bd a5 48 b6 bd 41 e8 86 bd
       -0.09646304 -0.062445406 -0.089005746 -0.06587268
000280 70 51 ae bd c4 24 28 be af 63 7d bd ee 89 65 bd
       -0.08511627 -0.16420275 -0.061862644 -0.056039743
000290 6c 87 d3 3a 6f ef d1 37 1c b5 d6 bc f5 0e 15 bd
       0.0016138381 2.5026236e-05 -0.026209407 -0.036391217
0002a0 51 e9 a3 bd 7b 7c d3 bd ec ab 42 bd fc 14 9b bd
       -0.08003486 -0.10326477 -0.04752724 -0.07572362
0002b0 97 45 db bd b6 20 0e be 81 da a4 bd c3 25 ce bc
       -0.107066326 -0.13879666 -0.08049489 -0.02516449
0002c0 73 61 0f be 5f 26 d3 bb 52 19 b2 bd 71 0c e9 bd
       -0.14002018 -0.006443783 -0.08696236 -0.11379326
0002d0 26 80 be bd 45 21 98 bd ce 0e c2 bd e0 aa 12 bd
       -0.09301786 -0.07428221 -0.0947548 -0.03580749
0002e0 64 71 01 be 20 fa ce bd 60 dc b8 bd 61 21 41 be
       -0.12640911 -0.10106301 -0.09026408 -0.1886039
0002f0 8a 58 ab bd 82 c2 36 be ae 5a 3b bd bd 30 4a bd
       -0.08366497 -0.17847636 -0.045740776 -0.049362887
000300 26 0c ef bc f9 9c 1e be 38 cb 96 bd 7e 6d eb 3b
       -0.029180598 -0.15489568 -0.0736298 0.0071846833
000310 48 49 a4 bd 84 24 c3 bd de c0 91 bc c3 e1 af bd
       -0.0802179 -0.09528449 -0.017792162 -0.085879825
000320 b1 a1 31 bd 4a 0d 6c bd 50 dc 80 bd 0b b2 21 bd
       -0.04336709 -0.05762986 -0.06292021 -0.039476436
000330 a6 79 64 bd a1 6a fa bd 81 19 a8 bd b8 36 ca bd
       -0.055780075 -0.12227369 -0.082079895 -0.09873718
000340 ee 68 46 be 5e 76 88 bd f9 b8 14 be 41 87 b4 bd
       -0.19375965 -0.06663202 -0.14523686 -0.0881486
000350 53 0c 73 be 64 6c 57 bd aa b4 e4 bd 03 f2 ab bd
       -0.2373517 -0.052593604 -0.111672714 -0.083957694
000360 58 ec b7 bd c7 c1 0f be e2 a0 e3 bd b1 9f 8f bd
       -0.08980626 -0.14038764 -0.1111467 -0.070128806
000370 79 f5 e3 bd 4a 90 2c bd 97 4c b1 bd 1d ab 83 bd
       -0.111308046 -0.042129792 -0.086571865 -0.06429122
000380 d0 2a 5a 3a 22 22 da bd 5d be 95 bd c9 e8 42 bd
       0.00083224196 -0.106510416 -0.073116995 -0.047585282
000390 72 a4 8d bd 05 28 1f be fe d4 f2 bc e4 9b 8c bd
       -0.06916131 -0.1554261 -0.029642578 -0.06865671
0003a0 a2 f7 a5 bd bf 8a 91 bd 35 8e 85 bd 67 6c ce bd
       -0.08103873 -0.07106542 -0.065212645 -0.1007927
0003b0 cd c5 c1 bd af d5 eb bd ad 19 4b bd bc ef b8 bc
       -0.09461556 -0.11515366 -0.049585033 -0.022575252
0003c0 07 43 62 3a 19 4f cf bd 09 c2 74 bd bf 65 a8 bd
       0.00086312037 -0.101225086 -0.05975536 -0.082225315
0003d0 d5 21 df bc 44 b4 92 3c 90 17 87 bd 4d 32 14 bd
       -0.027237812 0.017908223 -0.06596291 -0.036180783
0003e0 4c 93 78 bd d5 c3 17 be de c9 12 be aa b6 0f be
       -0.06068735 -0.14820798 -0.14334819 -0.14034525
0003f0 42 8d 00 be 1f 76 2e bd f1 ea 99 bd 2e 0c 54 bd
       -0.12553886 -0.042593118 -0.07515515 -0.051769428

fc2.bias f4 [27]
000000 f3 60 36 bb cc 18 7f 3d 6a a2 ad 3d bd 11 39 be
       -0.0027828782 0.062279508 0.08478244 -0.18073173
000010 8a d7 20 3d 54 2d 31 3d 29 3e 11 be 89 66 3d bd
       0.039268054 0.04325612 -0.14183868 -0.046240363
000020 6b 1b a8 bd e9 92 00 be 04 ce 88 be 0e e6 3f 3e
       -0.082083546 -0.12556042 -0.26719677 0.18740103
000030 e6 7c a2 bc 2c 9f 5f 3e 16 bd 43 be ce e9 37 3c
       -0.019834947 0.21838063 -0.191151 0.011225177
000040 17 df 2d 3d eb 13 57 3e 48 e3 6a bd eb 91 03 3d
       0.042449083 0.21003692 -0.05734566 0.03212158
000050 72 db a1 bd de 31 71 bb 27 b1 02 be 50 85 af 3e
       -0.07903184 -0.0036803405 -0.12762891 0.34281397
000060 9b 13 39 3e 8d b1 5d bd 09 81 56 bb
       0.18073885 -0.054124404 -0.003273072
