LeNet1/model.pth (torch, 6739 bytes, 4 tensors)

conv1.weight f4 [4, 1, 5, 5]
00000000: d027 a8bd c9e1 81be 280f 9bbe 5b57 b4be
00000010: d714 f3bc d3d5 f33e f385 403e cd62 14be
00000020: 39e4 903e 5362 2c3f e1a7 393e c300 a6be
00000030: 40f3 d2be 0db3 e73d 3f33 853e cbb3 53bf
00000040: 9cbf 27bf e70b 21bf 5bab 6abd 8765 623e
00000050: e3ad 94bf cbf4 8fbd 1111 ae3e 99df 0d3f
00000060: 43ab 8b3b c738 c9be d5cf ca3e 0435 ce3e
00000070: 1ddc 293e 94b7 133f 157c cbbc b315 a83e
00000080: d40d fb3e 3bd7 e13e 8df0 0d3f 0f28 003e
00000090: eb73 403e 7e5f 06bd 690b c1bb 2b97 b83e
000000a0: e8ca 5bbd 1329 2f3c 4e8f 22be f590 e0bd
000000b0: ebf9 e73d 6066 d13e a529 db3e 81e2 993e
000000c0: 48bb cd3e e646 923e 0470 50bf 8cad 13bf
000000d0: 06cd 40be d652 143d 4b32 ec3e 4a68 10bf
000000e0: c80d c43e 979c e23d 1376 9dbe 9ebd 5d3d
000000f0: 8f57 ab3d fea5 573d c683 8abe 6556 3dbf
00000100: 1093 a73d f2b8 7f3d 3c24 393e 5ea5 22be
00000110: 8518 a9be 6cb9 1abf b7dd 523d 2505 d23e
00000120: 3289 233f f8c9 1abd ec58 7cbf 737c 93be
00000130: 5027 53bf 3894 93bf 4aa0 1fbf 29e0 c3bd
00000140: cf45 77bf 3816 febe 9b8b c93d 8039 713e
00000150: b70a 183f 41f3 9abf ed15 26be e35d 013e
00000160: 307c 903e 3e86 303e 6127 09bf 0584 b93e
00000170: 8e8a 613e a7b5 1b3e aebe 463d b1d9 de3d
00000180: bf41 dc3d 66d5 313e 48e8 0b3e 4cb5 3e3f
-0.08210719 -0.25367573 -0.30285 -0.35222897 -0.029673023 0.47624072 0.18801098 -0.14490815
0.2829912 0.6733753 0.18130447 -0.32422456 -0.4120121 0.11313448 0.2601566 -0.8269622
-0.6552675 -0.62908787 -0.057292324 0.22109042 -1.1615566 -0.070291124 0.33997396 0.5541931
0.0042623593 -0.3930113 0.39611688 0.40274823 0.16587873 0.57701993 -0.02483944 0.32829055
0.49033988 0.4410952 0.55445176 0.12515281 0.18794219 -0.032805912 -0.005891253 0.36052832
-0.053660303 0.010690945 -0.15874979 -0.10965148 0.11326965 0.40898418 0.4280521 0.3005562
0.40181947 0.28569716 -0.8142092 -0.57686687 -0.1882821 0.03621181 0.4613212 -0.5640913
0.38291764 0.110650234 -0.30754146 0.05413591 0.0836631 0.052648537 -0.2705366 -0.7395995
0.08182347 0.062432237 0.18080229 -0.15883395 -0.3302652 -0.6043918 0.051480975 0.4101955
0.6388122 -0.03779027 -0.98573184 -0.28805885 -0.8248186 -1.1529608 -0.62353957 -0.095642395
-0.96590894 -0.49626327 0.09841081 0.23557091 0.5939135 -1.2105485 -0.16219302 0.12633471
0.28219748 0.1723871 -0.5357571 0.36233535 0.2202551 0.15206014 0.04852169 0.10881365
0.107547276 0.17366561 0.13662827 0.7449539

conv1.bias f4 [4]
00000000: d50d 723e 93fe 173e bd97 c73e f747 4b3e
0.23638089 0.14843206 0.38982955 0.19851671

conv2.weight f4 [12, 4, 5, 5]
00000000: dd27 bd3e 0131 033f 2e64 943e 792e 4c3e
00000010: 1672 19bf ed4d f93e 1ee7 f9bc 57d6 80bd
00000020: 0256 fa3b ba8d 57be 4dd7 483f 112f 343e
00000030: d0ad 2cbd 8207 043e fd81 0b3e 01df a03e
00000040: 6272 6a3e fbc8 52be c5de 1a3e b3bf 033f
00000050: f1ef 013e c7be 363c fdec c03e b8e6 f33e
00000060: ab76 363f 8726 673e 4a4a 423d 15b8 303c
00000070: 1d16 23be 2ac1 9cbd 8338 6cbd 174d 72bd
00000080: 1457 debd b6cb 1abe 275b c13e 8c90 813d
00000090: 48f6 613e 3a51 753e 0d5a cc3b f26f 7b3e
000000a0: ecc9 8d3e 1f4b f7bd ef34 113d 7c75 b7be
000000b0: ceb1 a7be 7900 e23e 96c0 7a3c 32bd 463e
000000c0: 64bd 5e3e 36de 983e e39e 303f 7d90 9a3e
000000d0: b394 bf3e a2fe 143f 2d6d 7b3e c8d0 f63c
000000e0: c14e 4c3d 3075 953c 3724 81bd 28f3 d4bc
000000f0: cfee 44bd 344f 393e 4eaf b73e 96ae 1ebe
00000100: e8da c03e c887 59be 3694 05bf 89d9 2d3d
00000110: e90e e3be fe84 233f 58c4 9f3f 470b 223f
00000120: 1fe8 333f eec8 043f d91e 853e 7870 e03e
00000130: 6422 e83e 69ac 983e 00e5 6abb 3df0 d9be
00000140: 1e5e 46bf d778 cebe 5f7e edbd 4781 ad3e
00000150: cd8a d53e 3109 82bd 2831 dabc e911 213e
00000160: c694 82bd c437 52be 0b3d 18bf 34da 3a3e
00000170: e0ad c93e db27 94bd 5d25 163e 49e7 fbbd
00000180: 6532 f33d c9a9 d63e ff3d 563d 36d1 0fbf
00000190: 2a22 d4bd 7090 dabd 3d57 5d3d 8bc0 debd
000001a0: 9bc0 5ebd 0738 cabc a846 873d 11d4 05b9
000001b0: e7c8 3b3d 562a 82bc 0cd6 07bd de98 d33b
000001c0: ed18 26bd 0779 c9bd c107 303c dc15 3b3d
000001d0: ccc7 7e3d b66a 1dbd 8fe9 37bd 7933 e83c
000001e0: d348 693d 19eb acbc 14ee 4f3d 9a30 8f3d
000001f0: 1130 8abd 6844 6cbd 656c 753d ae3d b7bc
00000200: 1384 18bd 15c7 573d 45d0 91bc f2dd a9bd
00000210: 35a6 d3bc a02d 233d 8a28 193c 41a3 2f3c
00000220: dac6 3e3d 26b5 c8bc a1af d13c be5d 6d3d
00000230: 4259 4b3d 46a6 583d 6359 dabd bbc1 0f3d
00000240: d2ea 83bd c301 febd 1f73 aabd 40ca 2f3d
00000250: ed52 cdbd 85b2 d9bd 7aa2 13bd 1fe6 adbb
00000260: 999a 01bd 1d7d d8bd 8160 003d 84e0 683c
00000270: 7b7b 143c 95ac 09bb 691c 8e3d b91e d23b
00000280: 770f 82bd edd0 333d 2eb6 a7bc af32 fdbc
00000290: 8458 95bc 2795 a13d 1101 373d 35e2 b2bd
000002a0: 3c09 82bd fc33 72bd 734d 9b3c 0ec1 2dbd
000002b0: 5cea 673d e7f3 7d3c 8690 183d 9406 afbd
000002c0: e6b4 7cbc 9917 21bd ea95 ecbd 908c 533d
000002d0: 2fb2 91bb f6d0 c0bd 7840 6c3d 67ac 1fbd
000002e0: 2e8a 90bd 5cf5 213c 54c0 eebc 592c d7bd
000002f0: 3233 4dbd 9e2b 803d f572 acbd a8c0 603d
00000300: 5624 32bd b6f6 8f3d 4a01 723d 2910 c7bd
00000310: 9492 73bd 0c67 f3bc e4c0 91bc 0bd5 6f3d
00000320: dbab febc 2776 8bbd 5987 7bbd cfc3 04bc
00000330: 2735 6dbd 6742 fe3c b1d7 8cbd 361b 2a3d
00000340: 543c 72bb 758e 983d 6045 47bd 9ab7 e3bc
00000350: ed6f 9cbd 382c 5e3d ecd8 c1bd 204e 95bc
00000360: 6ef6 e7bd 0fd9 ccbd 4bb2 373d 66e3 a2bd
00000370: 93bf d53c 6b56 c8bd bd90 6cbd a391 1d3d
00000380: eb9a 39bd ee60 543d da40 33bc 3d39 633d
00000390: 8273 7fbd 0497 bf3c f613 2dbd 1c86 a8bd
000003a0: 5650 003d 1901 973d 9327 14bd 2bad 96bb
000003b0: 5173 473c 9f0e cd3c 8494 7f3d 78b5 03bd
000003c0: b267 f1bd 0df0 233d 8cca 45bc e289 e7bd
000003d0: 1167 d43c c63c bebd d00a 693d e6c9 35bd
000003e0: c555 86bd f7d5 acbd de69 8dbd 244a b7bd
000003f0: ab93 a1bd 6bc5 b8bc 182e 26bd 1692 c13c
0.36944476 0.5124665 0.2898268 0.19939603 -0.59939706 0.48692265 -0.030505713 -0.06290882
0.0076396475 -0.21050158 0.7845352 0.1759608 -0.042157948 0.12893489 0.13623805 0.31420138
0.22895196 -0.2058448 0.15124042 0.51464385 0.12689187 0.011153883 0.37680808 0.47636962
0.7127482 0.22573291 0.04743413 0.010786076 -0.15926404 -0.076540306 -0.05767108 -0.05915555
-0.108564526 -0.15116772 0.37764856 0.06326398 0.22066605 0.23956767 0.006236321 0.24554422
0.27693117 -0.12074875 0.035450872 -0.3583182 -0.32752842 0.44140986 0.015304705 0.1940811
0.21751934 0.29857033 0.6899244 0.3018836 0.37418136 0.5820104 0.24553366 0.030128852
0.049879793 0.018244356 -0.063057356 -0.025994852 -0.048079308 0.1809662 0.35875934 -0.15496287
0.37667012 -0.21243203 -0.52179277 0.042443786 -0.44347313 0.63874805 1.2481794 0.6329846
0.70276064 0.51869094 0.26000097 0.43835807 0.45338738 0.2981904 -0.003584206 -0.425661
-0.7748736 -0.40326568 -0.11596369 0.33887693 0.4170746 -0.06349409 -0.026634768 0.15729488
-0.063760325 -0.20529085 -0.59468144 0.182473 0.3939047 -0.07234164 0.1466269 -0.122999735
0.11874846 0.4192641 0.052305218 -0.56178606 -0.10358079 -0.106720805 0.054038275 -0.108765684
-0.0543829 -0.024684919 0.066052735 -0.0001276287 0.045845892 -0.015889328 -0.033163115 0.006457432
-0.040551115 -0.09837537 0.010744036 0.045675144 0.06220226 -0.038431846 -0.044900473 0.028344857
0.056954216 -0.021108197 0.05076416 0.06991692 -0.06747449 -0.057682425 0.059917826 -0.022368278
-0.03723533 0.052680094 -0.017799506 -0.08294286 -0.02583609 0.039838433 0.009348044 0.010720075
0.04657636 -0.02450044 0.025596442 0.057950728 0.04964567 0.052892946 -0.106615804 0.035096865
-0.06441273 -0.1240268 -0.08322739 0.04291749 -0.100255825 -0.10629753 -0.03604362 -0.0053069736
-0.031641576 -0.105707385 0.031342033 0.014213685 0.009062643 -0.0021007408 0.069390126 0.006412354
-0.06350606 0.04390042 -0.020472612 -0.030907957 -0.018230684 0.07889777 0.04467875 -0.08734552
-0.063494176 -0.059131607 0.01895783 -0.04242044 0.056619987 0.015500045 0.037247203 -0.085461766
-0.015423989 -0.039329145 -0.11552031 0.051647723 -0.00444629 -0.09414856 0.05767867 -0.038982775
-0.07057606 0.009885158 -0.029144444 -0.105065055 -0.05009765 0.06258319 -0.08420364 0.05487123
-0.043491684 0.07029478 0.05908326 -0.09719879 -0.05946596 -0.029712223 -0.017792173 0.058552783
-0.031087806 -0.06809645 -0.061408374 -0.008103325 -0.05791202 0.031037522 -0.06877077 0.041529857
-0.0036962228 0.074490465 -0.048650146 -0.027797509 -0.07638536 0.05424139 -0.09465203 -0.01822573
-0.113262996 -0.10002338 0.044847768 -0.07953529 0.026092326 -0.09782108 -0.05775522 0.038468968
-0.045313757 0.05185025 -0.010940755 0.05547451 -0.062366016 0.02338744 -0.042255364 -0.08228704
0.031326614 0.07373256 -0.036170553 -0.00459828 0.01217349 0.025031386 0.062397495 -0.032155484
-0.117873564 0.040023852 -0.012072217 -0.11305596 0.025928052 -0.09288935 0.056895077 -0.044382
-0.06559328 -0.08439248 -0.06904958 -0.08949688 -0.078894936 -0.022555074 -0.040571302 0.02362923

conv2.bias f4 [12]
00000000: 6e80 e63d 2093 fdbd b7fe d6bd cc5d 9cbd
00000010: e45a d13c b290 653d d3e0 e1bd 5eef c3bd
00000020: 2383 38bd 184c 703d 0528 b7bd 529e e7bd
0.11254965 -0.123815775 -0.10497802 -0.07635078 0.025556035 0.056046195 -0.1102921 -0.0956714
-0.045046937 0.05866632 -0.0894318 -0.11309494
