LeNet1/model.pth (torch, 14919 bytes, 6 tensors)

conv1.weight f4 [4, 1, 5, 5]
000000 9c d2 64 3d 5e 87 9f be 56 f2 d1 be 92 39 11 be
       0.055864915 -0.31157964 -0.410052 -0.14182118
000010 20 2e c8 3d d0 03 84 be d2 79 b9 be 6b f3 6f bd
       0.09774423 -0.2578416 -0.36225754 -0.05858175
000020 c8 4c 3a 3e a5 d7 e3 3c 3c b5 d0 be a5 d4 80 3e
       0.18193352 0.027812788 -0.4076327 0.25162235
000030 51 c1 f4 3e ea 2a e1 3e 1f bb 0f bd 52 dc 07 3d
       0.4780374 0.43978053 -0.035090562 0.0331691
000040 c5 2c cd 3e d1 8a 10 3f 62 09 39 3e 9a 6d 9c 3d
       0.4007322 0.5646182 0.18069986 0.07638092
000050 64 07 e6 3d ab 50 c8 3e 3e 43 53 3d 2e 4f 57 3e
       0.112318784 0.39124045 0.0515778 0.21026298
000060 88 0a 86 be 83 2a b7 be 88 28 93 be e1 a0 5a be
       -0.2617991 -0.3577462 -0.2874186 -0.21350433
000070 18 52 2e be cc 92 37 bd e5 5e f6 be 52 c3 53 bf
       -0.17023504 -0.04481773 -0.48119274 -0.8271991
000080 d8 85 74 bf bd c6 19 bf c5 d3 10 bf a0 be 24 3e
       -0.9551673 -0.60068876 -0.56573135 0.16088343
000090 da 39 4f 3e fd 41 12 3c 6c 15 bc bc 2f b8 3d be
       0.20236912 0.008926866 -0.022959433 -0.18527292
0000a0 65 d1 0d 3f c0 f2 6a 3e 36 32 df 3e a4 8e 77 3e
       0.55397636 0.22944164 0.43592995 0.24175507
0000b0 3d 06 ad 3e 5d f0 9c 3e 65 82 ce 3e d4 18 d4 3e
       0.33793822 0.30652133 0.40333858 0.41425192
0000c0 ed a7 4d 3e af a8 1a 3e d8 4e 88 3d 06 21 af 3e
       0.2008359 0.1510341 0.06655663 0.34204882
0000d0 2f bc d4 3d fb 54 cf be 97 61 28 bf 5f fd a1 3e
       0.10387456 -0.40494522 -0.6577391 0.3163862
0000e0 f5 46 f5 3e c4 7b d5 3e 60 05 c8 bd b9 53 07 bf
       0.47905698 0.41695988 -0.0976665 -0.52862126
0000f0 67 ea 79 3e c3 92 fe 3e 7c 09 c6 3e f3 f7 cc 3e
       0.24405824 0.49721345 0.3867911 0.4003292
000100 6d 84 6f be 80 3b df bd 59 22 bb 3e 17 41 e1 3e
       -0.2339036 -0.109000206 0.36549643 0.43994972
000110 8b 8f b9 3d 9d 1b 10 3e 77 25 1f bf e1 81 aa be
       0.09060582 0.14073034 -0.6216654 -0.33302215
000120 a8 7f 1f be f5 51 ac 3c 22 cf de bd 77 79 f7 bd
       -0.1557604 0.021035174 -0.10879351 -0.120837145
000130 9d f2 26 3e 86 eb de 3d a3 24 06 3e 98 69 8f 3e
       0.16303487 0.10884766 0.13099913 0.2801025
000140 97 1b c6 be 76 68 e4 bc d7 4e c7 3e 9a df a9 3e
       -0.38692924 -0.027881842 0.38927338 0.33178407
000150 8b 30 43 3e 89 b2 bf bc 03 75 62 bc 1b 97 c4 3e
       0.19061486 -0.023400562 -0.013821843 0.38396534
000160 f2 f4 bb 3e 43 c0 a5 3e b6 09 84 bd 37 0a 4f 3e
       0.36710316 0.32373247 -0.06447165 0.2021874
000170 5a 5b 52 3e 6e 55 73 3e b0 5d 87 bd 83 7e 30 be
       0.2054266 0.23763058 -0.06609666 -0.1723576
000180 a7 2c 49 be c7 52 b5 3c 1a 15 26 be b1 1c 24 be
       -0.1964594 0.022134198 -0.16218987 -0.1602657

conv1.bias f4 [4]
000000 55 50 1f 3f 04 a3 fd 3d 74 e2 f1 3e 51 ab ae 3e
       0.6223195 0.123846084 0.47243083 0.3411508

conv2.weight f4 [12, 4, 5, 5]
000000 db a0 f6 3d 95 60 c9 3d cc 1b 18 3e 05 9e d8 3d
       0.120423995 0.09832875 0.14854354 0.10577015
000010 0b da 36 3d 8a 77 a7 3d 8d 65 2c 3e 65 55 db 3d
       0.044641536 0.08177097 0.16835614 0.10709647
000020 19 1e 70 3e 72 87 8e 3e 78 a7 02 3d a0 43 91 3d
       0.23448981 0.27837712 0.031897992 0.070929766
000030 cf 52 e0 3d ae 70 86 3d b9 52 c6 bc 8b 41 1e 3d
       0.109532945 0.06564461 -0.024209367 0.038636725
000040 9c d4 3b bd 6d b1 65 be d0 fd 29 be b2 0a 83 bd
       -0.045857057 -0.22430964 -0.16600728 -0.06398524
000050 3d 4d f9 bd b8 09 de bd 20 c0 01 bd 80 8b ac 3d
       -0.12172935 -0.108416975 -0.031677365 0.08425045
000060 a3 25 bc bc 66 02 89 be 13 79 73 be 68 df 50 bc
       -0.022967165 -0.26759642 -0.23776655 -0.012748577
000070 8c 00 1c 3e 0a 38 70 3e d6 a8 8f be 21 ba b6 3d
       0.15234584 0.23458877 -0.280585 0.0892222
000080 21 27 9a 3e e4 1a eb 3e a3 23 e1 3e 3d 0f 6d bb
       0.30107978 0.45918953 0.439725 -0.0036172413
000090 44 08 b2 3d 55 aa 03 3f 6d 4f fd 3e 6a f6 95 3e
       0.08692983 0.5143178 0.4947466 0.29289562
0000a0 15 11 41 bd f1 44 d6 bd 8c 1a 34 3e cc ad 9b 3e
       -0.04713543 -0.10462368 0.17588252 0.30406034
0000b0 05 32 67 3e 97 e9 d4 be 35 0d d1 38 16 ae a1 3e
       0.22577675 -0.41584465 9.9683566e-05 0.3157813
0000c0 13 9e a2 3e d9 f5 fa 3d 47 c4 7b bd de c3 96 bd
       0.31761226 0.12253923 -0.06146648 -0.073615775
0000d0 72 8c d8 bc 62 0c c7 bd 44 eb ba 3d ff d5 8f bd
       -0.026434157 -0.09719159 0.091269046 -0.070232384
0000e0 49 da 6f 3d ab 97 76 3e 3d d7 3c 3e e8 55 09 3e
       0.058557782 0.24081294 0.18441482 0.13411677
0000f0 9d ef 50 be 7b 4e 44 be d3 d9 b7 bd 06 a7 e3 3d
       -0.20403905 -0.19170563 -0.089770935 0.111158416
000100 92 83 5c 3e 35 e4 d0 bd 98 ad 95 be aa 47 bc be
       0.21534565 -0.10199777 -0.29234004 -0.36773425
000110 b5 d7 bf be d3 00 c5 bd 6b 5a be 3d 29 eb 20 3d
       -0.3746926 -0.09619298 0.092945896 0.039286766
000120 f4 8b ba bd 50 5d c5 be 4c 1f d5 be 3a 6c 1d 3c
       -0.09108725 -0.38547754 -0.4162544 0.009608323
000130 77 0f c8 bd b5 40 8b 3c 7c d2 53 3c ca 8d d3 bc
       -0.09768575 0.016998628 0.012928601 -0.025824446
000140 c5 bb 43 3d 51 0c 81 3d fe 5a 39 bc 6c 84 fa 3d
       0.047786493 0.06301177 -0.011313198 0.12232289
000150 4b 0a b1 3d ff 1c 83 3d 47 93 d2 bd a2 a6 05 be
       0.08644541 0.06402015 -0.10281997 -0.13051847
000160 6c bb df 3c d8 65 c2 bd 8a 0c ac bc 50 c5 4d bd
       0.02731105 -0.094920814 -0.021002073 -0.050237
000170 3e b9 66 be f3 83 85 be e7 06 99 be 70 9f 4c 3d
       -0.22531602 -0.26077232 -0.2988808 0.04995674
000180 e3 48 36 bd d6 57 83 be df 72 11 be cc 4d db 3b
       -0.044503104 -0.2565295 -0.14203976 0.0066926237
000190 4a 72 a7 3b ed e9 f5 bd 7c a3 2b bd 1d 1b 39 3e
       0.00511006 -0.120075084 -0.041903958 0.18076749
0001a0 a4 05 a0 3e 71 b3 c1 3d b7 31 8c be 01 77 c4 be
       0.31254303 0.09458054 -0.2738168 -0.38372043
0001b0 5b a3 86 be 76 4a 08 be bd ff 14 bd b6 8c 4f 3d
       -0.26296505 -0.13309655 -0.036376704 0.0506713
0001c0 28 bd d8 bd c3 87 b5 bd a4 19 d5 bd 34 d6 72 bd
       -0.10582954 -0.08863785 -0.10405281 -0.05928631
0001d0 0f df a0 bd 2c dc f9 b8 41 a3 9e 3d ba 43 1e 3e
       -0.07855045 -0.000119142554 0.07745982 0.15455523
0001e0 60 5b 88 3d 3b 98 b5 3d d2 0c 01 3e b6 90 74 3c
       0.066580534 0.08866926 0.12602547 0.01492708
0001f0 7d 38 b1 bd 36 aa 27 3e a8 60 c5 be 32 08 0e bf
       -0.086533524 0.16373524 -0.38550305 -0.55481255
000200 3d 49 b0 be e7 b9 bd 3b 58 d4 eb 3e d3 e0 a9 3e
       -0.34430876 0.0057899836 0.46060443 0.3317934
000210 76 f0 d7 bd 57 5f 78 be c4 ab af be 50 a9 90 3e
       -0.10543911 -0.2425512 -0.34310734 0.28254175
000220 56 b4 a7 3e 38 a9 a4 3e fc a5 19 3e 32 34 f1 3d
       0.32754773 0.32160354 0.15004724 0.117775336
000230 9f 49 a8 3c ac 3d a8 3d a9 80 ef 3d dd 79 5c 3e
       0.020542918 0.08214888 0.11694462 0.21530862
000240 83 15 59 3e 87 55 76 be 61 53 48 bd 35 48 8c bd
       0.21199612 -0.24056064 -0.04890764 -0.0684971
000250 a7 74 09 3d dc 39 f9 3d c6 78 66 be da a4 2c 3d
       0.033558514 0.12169239 -0.22507009 0.042149402
000260 33 3e c0 3e 86 24 9c 3e 17 d6 2e 3e ab 3e ac bc
       0.37547454 0.30496615 0.17073856 -0.021025976
000270 31 84 b1 be a6 a3 96 be 37 d8 ac 3d d8 f0 7f 3d
       -0.34671167 -0.2942173 0.08439677 0.062485546
000280 fb d2 2c 3e 03 39 9b 3d 5a 77 6c be ca 6e bb be
       0.16877358 0.075792335 -0.23092404 -0.36607963
000290 44 e3 48 be 55 2a 3c 3d 7a 82 11 3e 4c 47 13 bd
       -0.19617945 0.04593881 0.14209929 -0.035956666
0002a0 54 23 11 be 90 c9 ef bd 3e 40 11 3e e7 93 f6 3d
       -0.14173633 -0.11708367 0.14184663 0.12039929
0002b0 cb 9f 45 3e ff b9 f1 bc 98 d9 97 bc cc 3b c3 bd
       0.19299237 -0.029507635 -0.018536374 -0.0953289
0002c0 4a 0c 2c 3d 1e 50 21 3e 0e 60 a8 3e 4d 5d b2 3e
       0.042003907 0.15753219 0.32885784 0.34836808
0002d0 63 3e 08 be 48 2b b4 be 3e b0 f6 bd 13 05 9d 3d
       -0.13305049 -0.3518927 -0.12045334 0.076669835
0002e0 28 5a f7 3c 82 50 07 3d 9a c4 70 bd b7 d8 3a be
       0.030194357 0.033035763 -0.058781244 -0.18246733
0002f0 4a ce 0a be f7 6e 1f be 1f 76 cb 3d 79 8a 72 3d
       -0.13555256 -0.15569673 0.09934639 0.05921409
000300 d5 e7 ce 3b e8 fb 4f bd f2 93 11 3d 54 d5 8d 3d
       0.0063142576 -0.050777346 0.035541482 0.06925455
000310 aa ab 9a 3d 13 6b 04 3e af 56 4c bd 70 ca 22 3d
       0.075522736 0.1293147 -0.049887355 0.03974384
000320 ca 33 99 be 85 36 20 be 1f 0f 0c be ca 48 04 be
       -0.29922324 -0.15645798 -0.13677643 -0.12918392
000330 f0 f2 5c be 14 15 eb 3d 05 e5 dd bd 65 f3 f3 bc
       -0.21577048 0.1147863 -0.10834698 -0.029779145
000340 a2 49 44 be 7e 90 a4 bc 7d 8d 4e 3e a8 59 9d 3d
       -0.19168714 -0.02008843 0.20171161 0.07683116
000350 5c 93 84 3d 78 79 8d bb a5 42 39 3e 86 29 19 3e
       0.06473419 -0.0043174587 0.18091829 0.14957246
000360 fb cc 0d 3e 0d 11 d1 3c 15 a6 e7 3d e0 d2 0c 3d
       0.13847725 0.025520826 0.113109745 0.034380794
000370 fe 16 b1 3c 07 95 b9 bd 9e 8f e8 bc 74 f7 cf bd
       0.021617409 -0.09061628 -0.028388795 -0.1015462
000380 f4 88 a2 bd a4 13 73 3c 49 cf 8d bd 31 7f 60 bc
       -0.07936278 0.014836226 -0.06924302 -0.0137022
000390 ca 7e 25 be 00 89 b4 bd 72 7d 59 3e 97 4e 75 3d
       -0.16161647 -0.08815193 0.2123926 0.059889402
0003a0 3d 13 c8 3d 3b 3f 05 3e 86 52 bb 3e 99 c0 b6 3c
       0.097692944 0.13012402 0.36586398 0.022308635
0003b0 81 e6 c7 3d 73 67 78 3d d0 21 89 3e 52 f1 cc 3e
       0.09760762 0.060645532 0.2678361 0.40027863
0003c0 a0 0a 80 3d 1c eb d9 3d fc 16 12 3e 59 74 24 3e
       0.062520266 0.10640547 0.1426658 0.16060008
0003d0 08 ba 77 3e 83 15 1e be ea 0a d9 bb ce 1a 37 be
       0.24192059 -0.15437894 -0.0066236155 -0.17881319
0003e0 18 5d ba be 99 bf c2 be e0 f0 95 bd 40 23 4b be
       -0.3639915 -0.38036802 -0.07321334 -0.19837666
0003f0 de 13 96 bc e7 44 c4 bd 57 4f 86 be 16 a6 4c bc
       -0.01832002 -0.095834546 -0.26232406 -0.01249077

conv2.bias f4 [12]
000000 e0 d3 49 be bd 6d dd bb d8 dc 61 3b 3c 41 2e 3d
       -0.1970973 -0.0067574666 0.0034463909 0.04254268
000010 62 2b 73 3e d4 07 bf 3d a8 2d ef 3d 17 19 91 3d
       0.23747018 0.09327665 0.1167863 0.07084864
000020 c3 eb fa 3b 88 41 ac 3d b8 59 94 bd e8 30 88 bc
       0.0076574995 0.084109366 -0.07243675 -0.016624883

fc.weight f4 [10, 192]
000000 61 eb 91 bd 79 29 f2 bd 64 b5 c8 bc 14 04 2a bc
       -0.07124973 -0.118243165 -0.024500556 -0.010376949
000010 c1 d6 af bd be 11 b2 bd 41 b1 7b bd f2 2d 96 be
       -0.08585883 -0.0869479 -0.06144834 -0.29331928
000020 74 45 1a be cc 0c 71 be a8 1d 63 3d 04 83 27 3d
       -0.15065557 -0.23540038 0.055448204 0.04089643
000030 d5 15 67 3c bf ce 39 3d 61 34 56 3e f2 18 d6 3d
       0.014104326 0.045363184 0.20918418 0.10453977
000040 78 8f e6 3d 66 e5 30 3e 23 c1 d4 3d 0b 8f 48 3e
       0.11257833 0.17275009 0.103884004 0.19585817
000050 5e c0 27 be 4e 61 c8 bc d4 19 f1 bb cb fa 78 bd
       -0.16381976 -0.024460461 -0.0073578153 -0.06078605
000060 50 7c 83 be 0e d5 2e bd c0 5d e9 bb 42 de 64 be
       -0.2568078 -0.042683654 -0.0071217716 -0.2235041
000070 ce e4 9d bd b3 58 ab bc 1d 35 08 3d 42 69 b9 be
       -0.07709657 -0.020916319 0.033253778 -0.36213118
000080 fd a7 cf bd 5e bd 4a 3d 9b f4 17 bd c2 2d e6 3c
       -0.10139463 0.049497 -0.03709851 0.02809799
000090 6f f7 6e 3e 51 c2 98 3d 52 4a ac be 7c ef 81 bd
       0.23336576 0.07458938 -0.33650452 -0.06344506
0000a0 a7 0f aa bd 3a 99 99 3d 17 f3 9b bd d8 cd b2 be
       -0.08303767 0.07499929 -0.07614725 -0.3492267
0000b0 c3 39 ab bd cc 86 b8 3d b7 7b d1 3d dc bb 4f be
       -0.083606265 0.090100855 0.10228675 -0.20286506
0000c0 76 cf 5f bd b5 ee ca bc cf 50 ca 3d 88 34 3f 3c
       -0.05464121 -0.024772028 0.09878694 0.011670239
0000d0 4e 49 a7 bc ee c6 5e be d2 a3 7b bc a8 db b4 bd
       -0.020420697 -0.21755573 -0.015358882 -0.088309586
0000e0 be 8e 1f 3d b6 a0 6c bc f2 c5 38 bd b5 a5 3a 3d
       0.03895449 -0.014442613 -0.04511065 0.045568187
0000f0 b6 7d 6e 3e e1 7c bd 3d 06 22 4e 3d c2 96 ea 3d
       0.23290142 0.092523344 0.050325416 0.11454536
000100 ee 1c f3 bd dc d8 9b 3c 34 6b 2f be 99 0d 53 be
       -0.11870752 0.019024305 -0.17130738 -0.20610656
000110 f4 eb 8b 3d 89 58 59 bd 62 49 1a be 8c 3f 76 3d
       0.06832114 -0.05306295 -0.15067056 0.060119197
000120 70 72 e6 3d 43 1e b0 3d 45 ad 90 be 68 27 c3 3d
       0.11252296 0.08599522 -0.28257194 0.095290005
000130 26 85 d4 bd 0c 93 42 be b6 7e 16 be 6c 5c 3d bd
       -0.103769585 -0.19001406 -0.14696774 -0.04623072
000140 01 57 e8 3c ac 31 81 bd e3 d6 1e 3d 09 ad c2 3d
       0.0283618 -0.06308302 0.03877915 0.0950566
000150 9c 1d 8c bc dc 5e 85 bd 02 e1 31 3d 32 4c 97 3c
       -0.017103963 -0.065122336 0.043427475 0.01846895
000160 16 ad 39 3d f3 b2 bf 3d 93 c4 99 bd d9 b7 a9 bd
       0.045331083 0.09360304 -0.07508197 -0.08287019
000170 2c 2e 6f 3e 9c fd 8c 3d a1 ec aa bd 60 09 8e be
       0.23357457 0.0688431 -0.08345915 -0.27741528
000180 e8 bf c4 3d b0 22 c1 3d d7 75 3a bd 0e 8d 2d be
       0.09606916 0.09430444 -0.045522537 -0.1694834
000190 a2 4f 2e 3d 94 78 89 3d 78 22 a8 bd dc 88 c3 3c
       0.042556413 0.067124516 -0.082096994 0.02386897
0001a0 1b c8 41 3d 0f e8 10 3c 2a 14 ba bd a4 cc f0 3d
       0.047309976 0.00884439 -0.09085877 0.11757782
0001b0 ac 41 56 3c b2 68 18 be a0 af 83 ba af 53 8f 3c
       0.013077181 -0.14883688 -0.0010046847 0.017495958
0001c0 9a 68 84 bc 14 4c e6 bd f0 c0 69 3d f6 e6 84 3e
       -0.01616316 -0.112449795 0.057068765 0.2595746
0001d0 f0 ee b0 3d 0b 42 95 bc a5 6a f0 3c b0 93 9d 3e
       0.08639324 -0.018219968 0.029347727 0.3077674
0001e0 36 87 2c 3e 1e 64 63 be 95 12 3c bb 86 09 14 3e
       0.16848454 -0.2220616 -0.00286976 0.14456758
0001f0 f9 f7 74 3e dc 99 ba be 4e 04 c8 bd 22 69 45 3e
       0.23922719 -0.3644551 -0.09766446 0.19278386
000200 af 7a 83 3c 6f bb 34 3d 13 f8 da 3b 70 bb 46 3d
       0.016049711 0.044124063 0.006682405 0.048518598
000210 15 da f4 3c f1 97 de bd 27 c7 98 be 46 01 65 bd
       0.029889146 -0.10868824 -0.2983944 -0.055909418
000220 ef e3 d5 3c 8d 9d 96 bb 86 ba 4f be 52 18 ab bd
       0.026109664 -0.0045964182 -0.20285997 -0.08354248
000230 5b 28 95 3d f0 8a 26 3e da 64 f5 3c 81 7e 4e bd
       0.07283088 0.16263938 0.029955316 -0.050413612
000240 f9 4d f5 3d aa 4e 11 bd dd f3 c3 bc 05 57 5d be
       0.11977763 -0.03547541 -0.023919994 -0.21615227
000250 c4 c7 ae 3d 8c e0 c7 3d b7 a2 d9 bd 4d 74 ec 3a
       0.08534196 0.09759626 -0.106267385 0.0018040031
000260 80 38 e7 3c 16 0e 06 be b4 7d 93 3d a1 16 3c 3e
       0.028225183 -0.13091311 0.0720171 0.18368007
000270 78 ac 1d bd 58 97 32 bd 48 99 4d 3d 6c ae c7 3d
       -0.038494557 -0.043601364 0.05019501 0.09750065
000280 e7 dc 1a bd e4 71 23 3e 88 f7 43 3d 97 a5 bd 3d
       -0.037808325 0.15961415 0.047843486 0.092600994
000290 ab 91 23 be 66 1d 58 3d 6b 57 bd bd cc 04 0c bc
       -0.15973537 0.05276241 -0.09245189 -0.008546066
0002a0 22 74 01 be 97 ba 9f be d5 ba 53 be d9 02 88 3c
       -0.12641957 -0.31197044 -0.2067674 0.01660292
0002b0 17 cc 1d 3d df 32 5f 3d 43 1f 6b 3c 1f c0 c0 3c
       0.038524713 0.054491874 0.014350715 0.02352911
0002c0 84 b4 6c be 65 1a ef 3c 15 c3 98 3d fd 59 15 be
       -0.23115736 0.02918739 0.07459084 -0.14585109
0002d0 a7 6b a5 bd 15 bb 58 bd 87 76 01 3d b2 46 33 3d
       -0.08077174 -0.05291279 0.031607177 0.043768592
0002e0 e2 03 61 be 58 20 5f be 7d 55 fe bd 6d 4e fc 3d
       -0.21974137 -0.21789682 -0.12418649 0.12319646
0002f0 97 8b da 3d 70 8a 5d bd d8 4b 25 bd 6b 71 eb 3d
       0.10671156 -0.054087102 -0.040355533 0.11496242
000300 42 69 20 bd 15 0e b9 bd 9c d9 bb be 22 a3 23 bd
       -0.03916288 -0.09035889 -0.3668946 -0.039950497
000310 cf 18 97 3d 99 e7 ef bd 77 8e 02 be 4d 24 06 bc
       0.07377779 -0.117140956 -0.12749659 -0.008187366
000320 3e 6a 9b bc fb 06 3e bc d2 a8 29 be 97 95 fc bc
       -0.018971559 -0.011598344 -0.16568306 -0.030833049
000330 3a 42 73 bd 99 4d 02 3e 4a b3 80 3d fb 5b 25 3e
       -0.05938933 0.12724914 0.06284197 0.16148369
000340 7a b3 db bd f8 90 02 be fa f1 b5 bc d5 c5 2a be
       -0.10727592 -0.12750614 -0.02221011 -0.1667703
000350 92 b2 37 3e 03 5f a4 be 11 b6 f2 bd 56 b3 68 bd
       0.17939213 -0.32103738 -0.11851133 -0.056811653
000360 d6 2e 91 3c 25 63 67 be 6c df 9c be 96 fe 83 bd
       0.017722528 -0.22596414 -0.30639207 -0.06445043
000370 fd a2 0b 3e 9a ae 15 be 3e e0 3a be d0 99 d2 3c
       0.13636394 -0.14617386 -0.18249604 0.02570811
000380 75 e3 43 be e9 3c 04 be 53 f4 c7 3c f1 66 6a ba
       -0.19129737 -0.1291386 0.024408495 -0.0008941731
000390 37 67 a6 3d 8a 19 af 3d 98 e3 8f 3d 3a 83 30 3d
       0.081251554 0.08549793 0.07025832 0.043093897
0003a0 68 a9 c2 3d ba 4f 41 3e 44 90 f6 3d 5f 9f 38 3e
       0.09504968 0.1887807 0.12039235 0.18029545
0003b0 82 71 35 3e 78 d6 92 3e c1 36 2b 3e 9d 67 0e 3d
       0.17719081 0.28679252 0.16720106 0.034766782
0003c0 a2 08 28 bc b6 b1 54 3d 80 5d 6f bd 8d 90 3b bc
       -0.0102559645 0.05192729 -0.058438778 -0.011448038
0003d0 ec 71 84 be a6 86 34 bd 85 0b 1d be d0 2b 86 bd
       -0.25868165 -0.044073723 -0.15336426 -0.06551325
0003e0 61 8b 8f bd 9b d3 b2 3c a9 be 6b bc be 49 15 be
       -0.07009006 0.021829417 -0.014388719 -0.14578912
0003f0 fc ab b4 bd 0b 69 aa 3d 9a 61 ff 3d 1b d5 38 3e
       -0.08821866 0.083208166 0.12469788 0.18050043

fc.bias f4 [10]
000000 dd 23 13 bd 56 7b 67 3b a1 7b 47 3d d3 87 9d bd
       -0.035922874 0.0035321317 0.048701886 -0.07691922
000010 97 d2 b4 3d 09 d6 84 bd 2d 8b 2f 3d b8 e2 e6 bd
       0.08829229 -0.064861365 0.042857338 -0.11273712
000020 b8 c9 4b 3d e2 c0 b0 bc
       0.04975292 -0.021576349
