LeNet5/LeNet_5.pth (torch, 249647 bytes, 10 tensors)

conv1.weight f4 [6, 1, 5, 5]
0	0xbe83b352	-0.25722748
1	0xbef5b8a0	-0.4799242
2	0xbeae769c	-0.34074867
3	0xbe4acb6c	-0.19804162
4	0xbe07ac01	-0.13249208
5	0x3e739e89	0.23790945
6	0x3ddc1228	0.107456505
7	0x3ea93062	0.33044726
8	0x3c8f1760	0.0174672
9	0x3da3948a	0.07987316
10	0x3e78de3d	0.24303527
11	0x3e2fd22a	0.17170015
12	0x3ea96849	0.33087376
13	0x3d6be904	0.057595268
14	0x3e1551f2	0.14582041
15	0x3dad0c39	0.08449597
16	0xbe5d749e	-0.21626517
17	0xbe809074	-0.2511021
18	0xbe0abb81	-0.1354809
19	0x3cb14133	0.021637535
20	0xbe0a4a4a	-0.13504902
21	0x3ddf8096	0.10913198
22	0xb9558d10	-0.00020365813
23	0x3de53c45	0.11193136
24	0x3e69fdd4	0.22850734
25	0x3d91491d	0.070940234
26	0x3be114e6	0.0068689464
27	0x3dec9f10	0.11553776
28	0x3da84b95	0.08217541
29	0x3e47a4a2	0.19496396
30	0xbe4d3ba3	-0.20042281
31	0x3e8df2dc	0.2772435
32	0x3e64a71d	0.22329374
33	0x3dbdbecb	0.092649065
34	0x3dcb0b7f	0.09914302
35	0x3b96b2a1	0.004598931
36	0x3e1bb1a2	0.1520448
37	0x3ebe9d64	0.37229455
38	0xbd9b3f6d	-0.07580457
39	0xbd8ad9b3	-0.06779804
40	0x3dcb3e48	0.099239886
41	0x3ec979fb	0.39350876
42	0xbd144b58	-0.036204666
43	0xbeb3473a	-0.3501528
44	0xbea6aca7	-0.32553598
45	0x3e330809	0.17483534
46	0xbe2e5b46	-0.17027006
47	0xbef0d207	-0.47035238
48	0xbe9d097d	-0.306713
49	0xbe000899	-0.1250328
50	0x3d900048	0.07031304
51	0xbe3c3cb9	-0.18382539
52	0xbd850ca3	-0.06496551
53	0xbdf42d54	-0.11922708
54	0x3d739dee	0.059476785
55	0xbe407b9c	-0.18797153
56	0x3d96a8cc	0.07356414
57	0xbce6b3f0	-0.028161973
58	0x3e7a017c	0.24414629
59	0x3e887f6c	0.26659715
60	0xbe9d95c4	-0.30778325
61	0xbd107a18	-0.035272688
62	0x3d5832a0	0.052782655
63	0x3e61d33b	0.22053234
64	0x399aaf71	0.00029503883
65	0xbe8aabd5	-0.27084222
66	0x3e8a4ce9	0.27011803
67	0x3e87bfd9	0.26513556
68	0xbc08df85	-0.008354072
69	0xbdf90b69	-0.121603794
70	0x3daa4fac	0.083159775
71	0x3e805621	0.2506571
72	0xbd84870a	-0.06471069
73	0xbe252780	-0.1612835
74	0xbcd81776	-0.026378375
75	0x3d19f80d	0.037590075
76	0x3e45131b	0.1924557
77	0x3e352637	0.17690359
78	0x3dbeb295	0.093114056
79	0x3e8e18b6	0.27753228
80	0x3e8dfcd6	0.2773196
81	0x3edaaf5c	0.42711914
82	0x3e8211d3	0.25404224
83	0x3e011c99	0.12608565
84	0x3e9ca4a3	0.30594358
85	0xbe10f37f	-0.14155386
86	0xbd8289d5	-0.063739456
87	0x3dcfcd52	0.101465836
88	0x3d61dc7b	0.055141907
89	0x3d317362	0.04332293
90	0xbf03f1db	-0.5154092
91	0xbef1d1fe	-0.47230524
92	0xbeb9c1fd	-0.36280814
93	0xbde111d7	-0.10989731
94	0xbe5749ac	-0.21024197
95	0xbdaa0d93	-0.0830337
96	0xbd8dd700	-0.069257736
97	0xbe50f727	-0.20406781
98	0xbeb39bbc	-0.35079753
99	0xbd7011e6	-0.05861082
100	0x3e0d0035	0.1376961
101	0x3d07c8fc	0.033150658
102	0xbc2eb6ad	-0.0106636705
103	0xbd0a0234	-0.033693507
104	0x3e1886cb	0.1489517
105	0x3df80f22	0.12112261
106	0x3e95eb82	0.2928124
107	0x3db923cd	0.090400316
108	0x3dc8375f	0.09776186
109	0xbea81268	-0.32826543
110	0x3daacae5	0.0833948
111	0x3e4ea7e6	0.20181236
112	0x3ea90e76	0.33018845
113	0xbde3b6b8	-0.11118835
114	0xbe1b2183	-0.15149502
115	0xbeaea14b	-0.34107432
116	0x3e85faab	0.26167807
117	0x3e9e5b1e	0.30928892
118	0x3e34637e	0.17616078
119	0xbe9e7f9f	-0.30956742
120	0xbe86b6b5	-0.2631127
121	0x3db6934d	0.08914814
122	0x3d857fca	0.065185145
123	0x3eca9384	0.3956567
124	0xbd9efdd2	-0.07763256
125	0xbe02c821	-0.12771656
126	0xbd8f9e06	-0.070125625
127	0xbe3eab45	-0.18620022
128	0xbe1ffafd	-0.15623088
129	0xbdf4834e	-0.11939107
130	0xbd1c30cc	-0.038132474
131	0xbe11c7fc	-0.14236444
132	0xbd07939c	-0.033099756
133	0xbde7ced3	-0.113187455
134	0xbda6d321	-0.081457384
135	0xbdeebd3a	-0.11657186
136	0xbdcd5602	-0.1002617
137	0x3d1e89ee	0.03870576
138	0xbdff9a8e	-0.12480651
139	0xbe19b3d2	-0.15010002
140	0xbdf1d763	-0.1180866
141	0x3d7a38ff	0.061089512
142	0xbc60ddc4	-0.013724748
143	0x3cb4883e	0.022037622
144	0xbe6efcd3	-0.23338632
145	0x3a916d7a	0.0011095249
146	0xbd12a63d	-0.03580307
147	0x3bd7307c	0.006567059
148	0xbd5ea04c	-0.05435209
149	0xbe0f0873	-0.13968067

conv1.bias f4 [6]
0	0xbd2b782c	-0.04186265
1	0x3d880b69	0.06642801
2	0x3dce09c5	0.10060457
3	0x3d4c43d2	0.049869366
4	0x3d8c981b	0.06864949
5	0x3d66ba14	0.0563298

conv2.weight f4 [16, 6, 5, 5]
0	0x3e1e61ae	0.1546695
1	0x3e80adb6	0.2513253
2	0xbc8be1e5	-0.017075488
3	0x3dee1592	0.11625208
4	0x3d99e858	0.07515019
5	0xbd8633f7	-0.0655288
6	0xbed0f8b0	-0.40814734
7	0xbb895b43	-0.0041917874
8	0x3e2e3dd6	0.17015776
9	0xbd6e829a	-0.05823002
10	0xbcdaafc4	-0.02669514
11	0xbd950ccd	-0.07277832
12	0x3df05603	0.117351554
13	0x3e12211a	0.1427044
14	0xbc98137b	-0.018563977
15	0xbddbf8ae	-0.10740791
16	0xbd11962b	-0.035543602
17	0x3d72185f	0.059105273
18	0x3db7e0a1	0.089783914
19	0x3d932708	0.07185179
20	0xbe1ee067	-0.1551529
21	0xbe56135f	-0.20905827
22	0xbd3549d0	-0.044259846
23	0xbd154565	-0.036443133
24	0xbddc02b8	-0.10742706
25	0x3cebad72	0.028769229
26	0x3cd7f052	0.02635971
27	0x3e16877d	0.14700122
28	0x3db719d4	0.08940473
29	0xbe035d93	-0.12828664
30	0xbd8c3531	-0.06846083
31	0x3d6f64ee	0.058445863
32	0xbcd1769a	-0.025569249
33	0xbe8bcc67	-0.27304384
34	0x3d18124f	0.037126835
35	0xbd85443c	-0.06507155
36	0x3baafbeb	0.0052180192
37	0xbe7b7428	-0.24556029
38	0xbdc973d8	-0.098365486
39	0x3d905241	0.07046939
40	0x3e4cc4d8	0.19996965
41	0x3d411932	0.04714317
42	0xbe5690a2	-0.2095361
43	0xbdf3bffc	-0.119018525
44	0xbda35f9f	-0.07977223
45	0x3e0fc8a2	0.14041379
46	0xbe55e9e8	-0.2089001
47	0xbe358f10	-0.17730355
48	0xbdf5d486	-0.12003426
49	0xbddcd656	-0.10783069
50	0xbcd7669e	-0.026294049
51	0x3d4be2c2	0.0497768
52	0xbc4adcf5	-0.012381782
53	0xbd11ea72	-0.035623975
54	0x3df0272b	0.11726221
55	0xbd59f7ae	-0.05321472
56	0xbd859cd0	-0.0652405
57	0xbea01bf1	-0.31271318
58	0x3d4e3a42	0.050348528
59	0x3e78e7cb	0.24307172
60	0x3dc73f0a	0.097288206
61	0xbd9fe01a	-0.07806416
62	0xbe6d0749	-0.2314731
63	0x3da9fa0b	0.08299645
64	0x3e0e0032	0.13867262
65	0x3e2e7950	0.17038465
66	0xbe533f63	-0.20629649
67	0xbd446cd2	-0.04795534
68	0x3cdeb9f4	0.027188279
69	0x3d7b2672	0.06131596
70	0xbc7d1327	-0.015446461
71	0xbe4a41c7	-0.19751655
72	0xbdb8cc96	-0.09023397
73	0xbd80710f	-0.06271564
74	0xbd541634	-0.051778987
75	0x3e49a739	0.19692697
76	0x3e4f9988	0.20273411
77	0x3dfe8364	0.124274045
78	0x3e77f977	0.24216257
79	0xbd1c1620	-0.038107038
80	0x3e0d1fbc	0.13781637
81	0x3d43d63a	0.047811724
82	0xbd30f84b	-0.04320554
83	0xbe44a0fd	-0.19202037
84	0xbe8c045c	-0.27347076
85	0xbe1ce337	-0.1532105
86	0xbdfd3460	-0.12363505
87	0xbe6e5d3c	-0.23277754
88	0xbe882265	-0.2658874
89	0xbde6c344	-0.11267713
90	0xbdc70b6d	-0.09718976
91	0xbd9b4931	-0.075823195
92	0xbe329fb2	-0.17443731
93	0x3d7e3c78	0.062069386
94	0xbe00451a	-0.1252636
95	0xbda935d1	-0.08262218
96	0xbd6ca270	-0.0577721
97	0xbe457394	-0.19282371
98	0x3d9a395e	0.07530473
99	0x3c498287	0.012299187
100	0x3d0e2da6	0.034711502
101	0x3d575371	0.05256981
102	0x3d03aec9	0.03214911
103	0xbe200a4b	-0.15628926
104	0xbc9bba38	-0.019009694
105	0xbd853942	-0.06505062
106	0x3d50007c	0.050781712
107	0xbe0a6788	-0.13516057
108	0xbe09f7fa	-0.13473502
109	0x3dc2826c	0.09497532
110	0x3dc51049	0.09622247
111	0xbce10938	-0.027470216
112	0xbe91599f	-0.28388688
113	0x3d2fd33d	0.042926062
114	0x3df400d9	0.11914224
115	0x3d988955	0.07448069
116	0xbd227c13	-0.039669108
117	0xbea09bc1	-0.3136883
118	0x3dfd06a5	0.12354783
119	0x3dc3bdf4	0.09557715
120	0x3d1478cf	0.036248025
121	0xbdf8d5ef	-0.121501796
122	0xbcded2c6	-0.027200114
123	0xbb1321f7	-0.0022450665
124	0x3c7839e2	0.015150519
125	0xbda9b43b	-0.08286329
126	0x3c32b92d	0.010908407
127	0xbd16d28d	-0.03682189
128	0xbbdd5d96	-0.006755541
129	0x3d795b76	0.06087824
130	0x3c765af5	0.015036334
131	0x3dda9e99	0.10674781
132	0x3d8a0e85	0.06741051
133	0x3d2c696d	0.04209273
134	0xbde39a23	-0.111133836
135	0x3afb566d	0.0019175537
136	0xb987741a	-0.0002583571
137	0xbc968db9	-0.018378126
138	0xbdfa16fd	-0.12211416
139	0xbe023804	-0.12716681
140	0xbd533ef8	-0.051573724
141	0xbc873bc3	-0.016507989
142	0xbc6ea55e	-0.014565794
143	0xbd0b06b7	-0.03394195
144	0xbd3cd3e3	-0.04610051
145	0xbd8a5226	-0.0675395
146	0x3cd83ffb	0.026397696
147	0x3de1903e	0.1101384
148	0xbc96f118	-0.01842551
149	0xbd484f69	-0.048903856
150	0xbafc626f	-0.001925541
151	0x3d83f55b	0.06443282
152	0x3d726539	0.059178565
153	0x3c390a0a	0.011293897
154	0xbe15433e	-0.14576432
155	0x3db7f43e	0.089821324
156	0x3d79d528	0.060994297
157	0xbe1d394d	-0.1535389
158	0xbe81b6d5	-0.25334802
159	0xbe559a71	-0.20859696
160	0xbd98acbc	-0.074548215
161	0xbe3fd115	-0.18732102
162	0xbcc3b031	-0.023887726
163	0xbe3e4de3	-0.18584399
164	0xbe4457b6	-0.19174084
165	0xbd85bb3a	-0.06529851
166	0xbcd84b66	-0.02640314
167	0x3ba9de7c	0.005183993
168	0x3d726d62	0.059186347
169	0x3c1d4cbf	0.009600817
170	0x3d535105	0.051590938
171	0x3e24206f	0.16027997
172	0x3e5c4168	0.21509326
173	0x3e3989e1	0.18119003
174	0x3e0db003	0.13836674
175	0xbe45e3fb	-0.19325249
176	0x3c35a31d	0.0110862525
177	0x3cfac59b	0.030611804
178	0x3d86b1a1	0.06576849
179	0x3e1094e7	0.14119302
180	0x3ce27e6f	0.027648179
181	0xbd0bcc82	-0.03413058
182	0x3dc37dd1	0.09545482
183	0x3de97388	0.11398989
184	0x3e182ee3	0.14861636
185	0x3d5bb176	0.053636037
186	0x3e089282	0.13337138
187	0x3e12b20d	0.14325733
188	0xbd9bd75d	-0.07609437
189	0xbdd1c9a2	-0.102435365
190	0xbe3b8e71	-0.18316056
191	0x3d054e5d	0.032545436
192	0xbccdef37	-0.02513848
193	0xbe35dae0	-0.17759275
194	0xbdf14109	-0.117799826
195	0xbc88ea07	-0.016713155
196	0xbcec034a	-0.028810162
197	0xbdb6d5d3	-0.089275025
198	0xbd8ab9cc	-0.06773719
199	0x3c6e3f6a	0.014541486
200	0x3c8dbbb8	0.017301425
201	0xbc24dd11	-0.010062472
202	0x3c5c51fc	0.013447281
203	0x3dce2540	0.100656986
204	0x3e036eb0	0.12835193
205	0x3d660e13	0.056165766
206	0xbd8120f8	-0.063051164
207	0x3c0f3a3d	0.008741912
208	0x3c740a42	0.014895024
209	0xbd897cb5	-0.06713239
210	0xbd85aafc	-0.06526753
211	0xbd55ed81	-0.052228455
212	0xbe18c96e	-0.1492059
213	0xbe2784de	-0.16359279
214	0xbe4d1244	-0.20026499
215	0xbe1fdb80	-0.15611076
216	0xbd61214c	-0.054963395
217	0xbdf8ec11	-0.12154401
218	0x3d922034	0.071350485
219	0x3cf47d44	0.029844888
220	0xbc0a1eeb	-0.008430223
221	0x3de9475e	0.11390565
222	0x3d4456ee	0.047934465
223	0x3db7c986	0.089739844
224	0x3e06425b	0.1311125
225	0xbcfaab03	-0.030599123
226	0xbe27c591	-0.1638396
227	0xbdb84ea9	-0.08999378
228	0xbdd01323	-0.101599
229	0xbb9de897	-0.0048189866
230	0x3de35f1a	0.111021236
231	0x3de399c5	0.111133136
232	0xbc43f45b	-0.011960114
233	0x3db6f70c	0.08933839
234	0x3dbb7463	0.091530584
235	0x3e6f62bc	0.23377508
236	0x3e539b86	0.20664796
237	0x3d47a7dc	0.048744068
238	0x3dc80b0f	0.09767734
239	0xbd831c5f	-0.06401896
240	0x3de06603	0.10956957
241	0x3c90ba3c	0.017666928
242	0xbd955531	-0.072916396
243	0xbe17dfee	-0.14831516
244	0xbe6e34ec	-0.23262376
245	0xbd3e5f90	-0.046477854
246	0xbe800ec0	-0.25011253
247	0xbe39efff	-0.18157957
248	0x3cad7237	0.021172626
249	0x3e1be299	0.15223159
250	0x3cb69d8c	0.022291921
251	0xbd11c67e	-0.035589688
252	0x3d058c1e	0.03260433
253	0xbaf32f2d	-0.0018553488
254	0x3ca1225a	0.0196697
255	0x3d7ff5ac	0.06249015

conv2.bias f4 [16]
0	0x3bc46cd2	0.0059944177
1	0x3d0d2340	0.034457445
2	0xbcf31101	-0.029671194
3	0xbcd4c07a	-0.025970686
4	0xbd9976df	-0.07493376
5	0x3c3245e4	0.010880921
6	0x3d864b0b	0.06557282
7	0xbc800849	-0.01562895
8	0x3d68eede	0.056868427
9	0x3cb9dd0a	0.022688407
10	0xbd3dae5b	-0.046308856
11	0xbd4c9fb8	-0.049957007
12	0xbc421d8e	-0.011847867
13	0xbd852783	-0.06501677
14	0x3c092125	0.008369719
15	0x3d3a6876	0.045509778

fc1.weight f4 [120, 400]
0	0xbddca7b6	-0.10774176
1	0xbdb0d9ee	-0.08635317
2	0xbc0590df	-0.008152216
3	0x3e88e33f	0.26735875
4	0x3e27d54e	0.16389963
5	0x3d0e0870	0.034676015
6	0x3c54b8b5	0.012983491
7	0xbe190c2f	-0.14946054
8	0xbc969db2	-0.018385742
9	0xbcc28ec3	-0.023749715
10	0x3ce1b4a3	0.027551955
11	0x3d71acd8	0.059002727
12	0x3c5bf3cc	0.013424825
13	0xbdfa38f2	-0.12217893
14	0xbe105a0d	-0.14096852
15	0x3e687230	0.22699809
16	0x3c8f9664	0.017527767
17	0xbe071e8e	-0.1319525
18	0xbd353b2b	-0.04424588
19	0x3e0a5ad5	0.13511212
20	0xbe05a9bd	-0.13053031
21	0xbc9ecf23	-0.01938588
22	0xbda7fedc	-0.082029074
23	0xbc13f6b6	-0.009030988
24	0x3cd8ccde	0.026464876
25	0xbde7b6d3	-0.11314168
26	0xbdd1d51b	-0.10245725
27	0xbccfd63e	-0.025370713
28	0xbe4f57f3	-0.20248394
29	0xbde42448	-0.111397326
30	0x3e55aaca	0.20865932
31	0xbc97df69	-0.018539147
32	0x3c70e222	0.014702352
33	0xbd587bd8	-0.05285248
34	0xbb38ffb8	-0.0028228592
35	0x3e21c620	0.15798235
36	0x3c580423	0.01318458
37	0xbb2fa782	-0.0026802723
38	0x3d398eac	0.045302078
39	0x3db44a5e	0.08803247
40	0xbe1f041d	-0.15528913
41	0x3c895db0	0.016768306
42	0x3d19057b	0.037358742
43	0xbcf35a0b	-0.029706022
44	0x3d83ce59	0.06435842
45	0xba0268bc	-0.0004974713
46	0xbc629574	-0.013829578
47	0x3d6b157c	0.057393536
48	0x3db683be	0.089118466
49	0x3db42083	0.087952636
50	0xbc8b167f	-0.0169785
51	0x3cfac3d7	0.030610962
52	0x3b56911d	0.0032740303
53	0xbd6b72af	-0.057482418
54	0xbd210473	-0.039310884
55	0x3d7e4d0c	0.062085196
56	0x3d16f568	0.03685513
57	0xbc31e577	-0.010857931
58	0x3d65eb9f	0.05613291
59	0x3cabcc58	0.020971462
60	0x3d616b2b	0.055033844
61	0x3d6c0331	0.05762023
62	0xbd0dd68e	-0.034628443
63	0x3d99f910	0.07518208
64	0x3e3a20a0	0.18176508
65	0x3d356b4e	0.044291787
66	0x3d1b3065	0.03788795
67	0xbccea2d6	-0.02522413
68	0x3da6cd5d	0.08144639
69	0xbd39706b	-0.045273226
70	0x3d8a2e9d	0.06747172
71	0x3d1975fc	0.037466034
72	0xbc9c8c81	-0.019109966
73	0xbd911556	-0.07084148
74	0xbe424447	-0.18971358
75	0x3d813982	0.06309797
76	0x3d0aba9c	0.03386937
77	0x3d44dfde	0.04806506
78	0xbc6ab204	-0.014324669
79	0xbe05c9a4	-0.13065201
80	0xbcb592aa	-0.022164661
81	0xbb8dc2b9	-0.0043261913
82	0xbc040ab3	-0.0080591915
83	0x3da3cf04	0.079984695
84	0x3b4a9a61	0.003091477
85	0xbdeae42d	-0.11469302
86	0xbd45003a	-0.04809592
87	0x3d1fec28	0.039043576
88	0x3dab116f	0.083529346
89	0x3dc88b26	0.097921655
90	0xbd920f64	-0.07131842
91	0x3c57f250	0.01318033
92	0xbd37e09d	-0.044891942
93	0x3c112b3d	0.0088604065
94	0xbbe2af3c	-0.006917862
95	0xbe216dd8	-0.15764558
96	0xbc8347db	-0.016025474
97	0x3d1ea781	0.038733963
98	0x3b5d59e7	0.003377551
99	0xbd912808	-0.070877135
100	0x3d1a2580	0.03763342
101	0xbdb75959	-0.089525886
102	0xbe04caab	-0.12967937
103	0xbd1ecdb1	-0.03877038
104	0x3dcf91a2	0.10135199
105	0x3e1cd66a	0.15316167
106	0x3d50e559	0.050999973
107	0xbded8a4a	-0.11598642
108	0xbd9e326f	-0.07724463
109	0xbce0f59a	-0.027460862
110	0x3e889cef	0.2668223
111	0xbda1f7f3	-0.07908621
112	0xbd5b7e1d	-0.053587068
113	0xbe1963b9	-0.14979447
114	0x3c8f5309	0.017495649
115	0xbc5c9455	-0.0134630995
116	0xbd04d308	-0.032427818
117	0xbb8b4243	-0.0042498424
118	0x3d3ec16b	0.046571176
119	0x3c447bc6	0.0119924005
120	0x3cbc710a	0.02300312
121	0x3db0fbbf	0.08641767
122	0x3d27c194	0.040956095
123	0xbd061df3	-0.032743406
124	0x3d19d6e1	0.03755844
125	0x3d27c2b4	0.040957168
126	0xbcd6aae2	-0.02620453
127	0xbd3fa9bb	-0.046792727
128	0x3a1c5022	0.00059628685
129	0xbd995bcb	-0.07488211
130	0x3dc84edf	0.097806685
131	0x3e5ca33e	0.21546647
132	0x3e39a195	0.18128045
133	0xbe1220d4	-0.14270335
134	0xbdc33f4c	-0.09533557
135	0x3e0fd956	0.14047751
136	0x3e085593	0.13313894
137	0xbcb3beec	-0.021941625
138	0xbd0a35b3	-0.033742618
139	0x3c9f655f	0.019457517
140	0x3d906db1	0.07052172
141	0x3da31f30	0.07964933
142	0xbc731717	-0.014837048
143	0xbd1aa2a3	-0.03775276
144	0xbd699a75	-0.057032067
145	0x3db0a459	0.08625097
146	0x3d4c422d	0.049867798
147	0xbc04fbde	-0.00811669
148	0xbd844846	-0.064590976
149	0xbe9fc365	-0.31203762
150	0xbc03c45d	-0.008042422
151	0x3cc558ae	0.024090137
152	0x3d85ce97	0.065335445
153	0x3dd6f618	0.104961574
154	0x3db11e98	0.086484134
155	0xbdab751a	-0.08371945
156	0xbd803a18	-0.062610805
157	0x3e3126ea	0.17300001
158	0x3d2d8209	0.04236034
159	0x3c82d487	0.015970482
160	0x3de7ffa5	0.11328057
161	0xbd8e8d2c	-0.0696052
162	0x3b68523a	0.0035449401
163	0x3ce636bb	0.02810227
164	0x3d96a342	0.07355358
165	0xbda7307c	-0.081635445
166	0xbd7abe29	-0.061216507
167	0x3d32e4fc	0.043675408
168	0xbd2e5943	-0.042565595
169	0x3b9e9959	0.004840058
170	0xbdfa51e9	-0.12222654
171	0xbd4933b0	-0.04912156
172	0xbe65d582	-0.22444728
173	0xbd8827e7	-0.06648236
174	0x3d8c6457	0.06855076
175	0x3d7d6f13	0.061873507
176	0xbd891d37	-0.066950254
177	0xbd6682c4	-0.05627705
178	0xbd42f494	-0.04759653
179	0x3bc74759	0.0060815034
180	0x3e16c57b	0.1472377
181	0xbd6ef12e	-0.058335476
182	0x3d6dc456	0.05804857
183	0x3d85cfc2	0.06533767
184	0xbd40a6b0	-0.047033966
185	0x3e57b83a	0.2106637
186	0x3e13d914	0.14438277
187	0xbd91aa32	-0.0711254
188	0xbce9c638	-0.0285369
189	0xbd77f878	-0.060539693
190	0x3db3534e	0.087561235
191	0xbbb45953	-0.0055038123
192	0xbd9c0577	-0.0761823
193	0xbd5f8ec0	-0.054579496
194	0x3dab4c4c	0.08364162
195	0xbdaf3798	-0.085555255
196	0x3de40503	0.111337684
197	0x3d754890	0.059883654
198	0x3db61acb	0.08891829
199	0xbde866c8	-0.11347729
200	0xbe8421b9	-0.25806978
201	0x3cde7b36	0.02715836
202	0x3d959d99	0.0730545
203	0x3e951648	0.29118562
204	0x3e2b6a44	0.16739756
205	0xbe59ae4c	-0.21257895
206	0xbac944a1	-0.0015355536
207	0x3d93e0dd	0.07220624
208	0x3cdcc9f3	0.026951766
209	0x3d8d8102	0.06909372
210	0xbda4e40d	-0.0805131
211	0xbce978c4	-0.028499968
212	0xbdf7b991	-0.12095941
213	0xbda3e496	-0.08002584
214	0xbcd13cfe	-0.025541779
215	0xbcc8a5f7	-0.0244932
216	0xbc534ba9	-0.012896457
217	0xbad65281	-0.0016351492
218	0xbdc35704	-0.09538081
219	0x3d6df1e5	0.058092017
220	0x3e1611b0	0.14655185
221	0x3d3f5bfe	0.04671859
222	0x3c800616	0.015627902
223	0x3ba8bb04	0.005149247
224	0xbbe9d479	-0.0071359244
225	0x3df4b6cb	0.119489275
226	0xbd8eeaa1	-0.06978346
227	0xbd4c7a4b	-0.049921315
228	0xbb3562f2	-0.0027677384
229	0xbcaf01b6	-0.02136312
230	0x3da575ef	0.08079135
231	0xbe0d0e68	-0.13775027
232	0x3d666f90	0.056258738
233	0x3df7e4f9	0.1210422
234	0x3e52e755	0.20596059
235	0xbe1b886f	-0.15188764
236	0x3c2bcf23	0.010486397
237	0x3dc3b9aa	0.09556897
238	0xbc913023	-0.017723149
239	0xbdb4ee8b	-0.08834561
240	0xbde2bd86	-0.11071305
241	0xbd27c79f	-0.040961858
242	0xbd0c0408	-0.034183532
243	0x3cb6d9de	0.022320684
244	0x3dbcbe3f	0.09215974
245	0xbdfb84a6	-0.1228116
246	0xbde9a49f	-0.11408352
247	0xbcfb7c0d	-0.0306988
248	0x3d7f5323	0.062335145
249	0x3d9f9bbe	0.07793377
250	0x3e3b4d69	0.18291248
251	0x3d9960a5	0.074891366
252	0x3ce81d8f	0.028334407
253	0x3dd6edb7	0.10494559
254	0xbcc1f7ac	-0.02367767
255	0xbc600893	-0.013673919

fc1.bias f4 [120]
0	0x3dab68eb	0.08369621
1	0xbc8c05e0	-0.017092645
2	0xbd550968	-0.052010924
3	0x3d63cc51	0.055614773
4	0xbcac2d08	-0.021017566
5	0x3d748477	0.05969664
6	0xbc6308eb	-0.013857107
7	0xbdc6cfa1	-0.09707571
8	0xbcf2f48a	-0.029657621
9	0xbd5b07db	-0.05347429
10	0x3d0eb992	0.034844942
11	0xbd4a8130	-0.04943961
12	0xbd6bc64d	-0.05756216
13	0x3d74c752	0.0597604
14	0x3cf4f221	0.029900612
15	0x3b54791e	0.0032420824
16	0x3caf4a49	0.021397727
17	0x3dd59bf3	0.104301356
18	0x3c2baa49	0.010477611
19	0x3d1aa9ec	0.037759706
20	0xbb994998	-0.0046779625
21	0xbd8ff707	-0.070295386
22	0xbd69a654	-0.05704339
23	0x3cd341f0	0.025788277
24	0x3d12bb59	0.0358232
25	0xbd2a39ca	-0.04155902
26	0x3d74f1a3	0.059800755
27	0x3c955d83	0.018233066
28	0x3c4739a6	0.012159741
29	0x39928b70	0.0002795118
30	0x3d81afeb	0.06332382
31	0xbc51d03a	-0.012805993
32	0xbcc174ff	-0.023615358
33	0x3d919178	0.07107824
34	0xbd6a6164	-0.057221785
35	0xbd3edc68	-0.046596915
36	0x3c0dfa02	0.008665564
37	0x3d992012	0.0747682
38	0xbbe7b390	-0.007070966
39	0x3c2914e5	0.010319923
40	0xbba412de	-0.005007132
41	0xbd03cec9	-0.032179628
42	0xbd279a13	-0.04091842
43	0xbd8baa01	-0.06819535
44	0x3cdf423e	0.027253266
45	0x3db0c8b7	0.08632033
46	0xbcef7eb3	-0.02923522
47	0xbcd1082d	-0.025516594
48	0xbcd99651	-0.026560934
49	0xbd5755cf	-0.052572068
50	0x3c8e5532	0.017374609
51	0x3d36687a	0.04453323
52	0x3da3bd0b	0.079950415
53	0x3c24e31d	0.010063914
54	0xbd63c196	-0.05560454
55	0x3d70a5ca	0.05875186
56	0x3b38d90c	0.0028205542
57	0xbcf26719	-0.029590176
58	0xbd04b534	-0.03239937
59	0xbcf62774	-0.03004811
60	0x3a4fc415	0.0007925642
61	0xbd35aa2e	-0.04435175
62	0x39482e54	0.00019090745
63	0xbd324008	-0.043518096
64	0xbcf44cb3	-0.02982173
65	0x3db5f773	0.08885088
66	0x3d537ab5	0.051630694
67	0x3ce78221	0.028260292
68	0xbd3fd231	-0.046831314
69	0x3d176e45	0.036970396
70	0xbb84b314	-0.004049668
71	0x3d67eefa	0.05662439
72	0xbd1d04ff	-0.038334843
73	0xbcec05f4	-0.028811432
74	0xbb920eaf	-0.004457317
75	0x3d1cd3f0	0.038288057
76	0x3da64b92	0.08119883
77	0xbd5de8c4	-0.05417706
78	0x3c829013	0.01593784
79	0xbc1f2ea0	-0.009715706
80	0x3ca44b6b	0.020055493
81	0x3d5b5aed	0.05355351
82	0x3a0c7daa	0.00053593016
83	0xbda8c886	-0.08241372
84	0xbb87a948	-0.004140053
85	0xbd03d3b1	-0.032184307
86	0x3d06859e	0.03284227
87	0x3cee63ff	0.029100416
88	0xbd8b9e15	-0.06817261
89	0x3d01c682	0.031683452
90	0xbaf87729	-0.0018956411
91	0x3d04edd4	0.032453373
92	0x3cdd91f8	0.027047142
93	0xbd10ceab	-0.035353344
94	0x3d655213	0.055986475
95	0x3ca6bd01	0.020353796
96	0xbcf7af12	-0.030234847
97	0xbd0d19d6	-0.034448467
98	0xbd39f694	-0.04540117
99	0x3ced5a40	0.028973699
100	0xb9816f68	-0.00024687801
101	0x3e03454a	0.128194
102	0x3d2da5e0	0.04239452
103	0xbc264c1e	-0.010149984
104	0x3c7407ff	0.014894485
105	0xbda93199	-0.08261413
106	0xbd9d8989	-0.076922484
107	0xbceb40cf	-0.028717427
108	0xbcd3f0af	-0.025871603
109	0xbdbc7c06	-0.09203343
110	0x3b82c767	0.003991056
111	0x3c758892	0.014986174
112	0xbafba93a	-0.0019200214
113	0x3ca7e843	0.020496493
114	0x3d2e533d	0.04255985
115	0xbcb54a9e	-0.022130307
116	0x3cd3ffbe	0.025878783
117	0xbc64e134	-0.013969708
118	0xbca236e7	-0.01980157
119	0xbc70b12f	-0.014690681

fc2.weight f4 [84, 120]
0	0x3d0d9eda	0.03457532
1	0xbd8c1805	-0.06840519
2	0xbc7a8fbe	-0.01529306
3	0xbd93b109	-0.07211501
4	0xbe408b55	-0.18803151
5	0xbda97a60	-0.08275294
6	0x3d9eef19	0.07760448
7	0xbd3329b1	-0.043740932
8	0xbe1f6350	-0.15565228
9	0x3d3ab279	0.04558036
10	0xbd317cbf	-0.043331858
11	0x3d3465e3	0.04404248
12	0x3da8dfdc	0.08245823
13	0xbd71cd5e	-0.059033744
14	0xbd582ec6	-0.05277898
15	0xbe211427	-0.15730344
16	0xbd3381ac	-0.043824837
17	0x3d2c5f33	0.042082977
18	0xbc8a1a9a	-0.016858388
19	0xbcb7a8c0	-0.022419333
20	0xbcda127f	-0.026620148
21	0xbcc79bac	-0.024366222
22	0x3cb14766	0.02164049
23	0xbde1c0e0	-0.11023116
24	0xbdb1a636	-0.0867428
25	0x3d977af1	0.07396496
26	0xbde469b0	-0.11152971
27	0xbe48f1f4	-0.19623548
28	0x3c153494	0.009106774
29	0x3b5f9c90	0.0034120418
30	0xb9d03081	-0.0003970899
31	0xbc9e3eaa	-0.01931699
32	0x3d4cdba3	0.05001415
33	0xbd278eb7	-0.040907588
34	0x3c3328e3	0.010935041
35	0x3e1e5cf5	0.15465148
36	0x3c277a0b	0.010221968
37	0xbce0bc87	-0.027433647
38	0xbd1986e6	-0.037482165
39	0x3d919285	0.071080245
40	0xbdb8458d	-0.08997641
41	0xbd93e686	-0.07221703
42	0xbd9eb02f	-0.07748448
43	0x3c4d8c0e	0.012545599
44	0x3dbd88d2	0.09254612
45	0xbda5157b	-0.08060738
46	0xbd8a13b0	-0.06742036
47	0x3dc452ce	0.09586106
48	0xbb0bdeb0	-0.002134245
49	0x3cfe2a8e	0.031026151
50	0xbdc3c4bf	-0.09559011
51	0xbd9aa466	-0.07550888
52	0x3de6a8c6	0.1126266
53	0xbdd4d6b5	-0.103925146
54	0x3df18616	0.11793153
55	0xbcbba3e1	-0.022905292
56	0xbd95c63b	-0.073132
57	0x3cc8d270	0.024514407
58	0x3d25c99c	0.040475473
59	0xbc00b245	-0.007855003
60	0xbd5a14ec	-0.05324261
61	0x3bca196c	0.0061675813
62	0xbdde57f8	-0.108566225
63	0x3d9fff6b	0.07812389
64	0x3d8080af	0.062745444
65	0x3d34621e	0.044038884
66	0xbe036b5d	-0.12833925
67	0xbd9b82d2	-0.07593311
68	0x3d3cdd25	0.046109337
69	0xbe096a41	-0.13419439
70	0x3e120d6b	0.14262931
71	0x3dd539e9	0.10411436
72	0xbdbb572f	-0.09147488
73	0x3d87f546	0.06638579
74	0x3d9f0e6b	0.07766422
75	0x3aa5169c	0.0012595239
76	0x3da71cda	0.081598
77	0xbd8a5098	-0.06753653
78	0xbe1bceb4	-0.1521557
79	0xbdc961bc	-0.098330945
80	0xbe2a1673	-0.16610126
81	0x3d2ada11	0.04171187
82	0xbe0b4cee	-0.13603565
83	0x3d0a1d8e	0.03371959
84	0xbcbe601a	-0.023239184
85	0xbdbc3d56	-0.091913864
86	0xbc9899b2	-0.018627975
87	0x3d8da81f	0.06916832
88	0x3cce470d	0.025180364
89	0xbd3bdd52	-0.045865364
90	0xbb96973f	-0.0045956667
91	0xbde0665f	-0.10957026
92	0xbdff2062	-0.124573484
93	0xbd3023a0	-0.043002725
94	0x3cd63d6a	0.026152331
95	0xbd8405ac	-0.06446394
96	0xbaeac83b	-0.0017912457
97	0xbd8962c0	-0.06708288
98	0x3bbcfb0e	0.0057672327
99	0xba955a7f	-0.0011394768
100	0x3c13af72	0.009013997
101	0xbe213bd5	-0.1574548
102	0x3d49eed9	0.04930005
103	0x3d4e1c15	0.05031975
104	0x3d883397	0.06650465
105	0x3d2276a3	0.039663922
106	0x3cbac58e	0.02279928
107	0xbcce69d4	-0.025196947
108	0xbdb44c06	-0.08803563
109	0x3cbc953a	0.023020376
110	0xbdcd3f4f	-0.10021841
111	0x3d14c8d0	0.036324322
112	0xbd552521	-0.052037362
113	0x3d3a3b95	0.045466978
114	0x3dcf5c74	0.10125056
115	0x3b99ee7a	0.004697618
116	0x3b90b9c6	0.004416677
117	0xbe188f7a	-0.14898482
118	0x3c657b43	0.014006439
119	0x3d8969d5	0.06709639
120	0xbd976da3	-0.073939584
121	0x3e132b9c	0.14372104
122	0xbd9413c4	-0.072303325
123	0x3da2c618	0.0794794
124	0x3dde6c3a	0.10860486
125	0xbde07e75	-0.1096162
126	0x3dd14431	0.102180846
127	0xbd18640a	-0.03720478
128	0xbd1fc041	-0.039001707
129	0xbd4902ac	-0.049074814
130	0x3da27930	0.07933271
131	0xbd4b3b60	-0.04961717
132	0xbc382c12	-0.011240976
133	0x3c84c887	0.0162089
134	0xbd52755b	-0.05138145
135	0x3e215715	0.15755875
136	0x3dbecce8	0.093164265
137	0x3e0ab134	0.1354416
138	0xbd3caf40	-0.04606557
139	0xbd83ba50	-0.06432021
140	0x3deba6cc	0.11506423
141	0xbd42d4ad	-0.047566105
142	0x3d0e9c1a	0.03481684
143	0x3e0f3644	0.13985544
144	0x3de2fa60	0.110829115
145	0xbb6da40c	-0.003626111
146	0x3ddb3c40	0.10704851
147	0x3e039681	0.12850381
148	0x3dd49708	0.103803694
149	0x3d29cd6b	0.041455667
150	0xbce2da3a	-0.02769195
151	0x3aba9ecc	0.0014237999
152	0xbd0ba695	-0.034094412
153	0x3cbee3c5	0.023301968
154	0x3c4fb4b0	0.012677357
155	0x3d901f0f	0.07037174
156	0xbc0bcac8	-0.008532234
157	0xbd0d3491	-0.03447396
158	0xbdae89bc	-0.085223645
159	0x3d80b4ca	0.06284483
160	0x3c6c92f1	0.01443933
161	0x3ddc8c6f	0.10768973
162	0x3e03372b	0.12814014
163	0xbc612f8b	-0.013744245
164	0xbd1af3cc	-0.03783016
165	0x3df40cbf	0.119164936
166	0x3dd02ab6	0.101643965
167	0x3d212e2c	0.039350674
168	0x3d152871	0.03641552
169	0xbb031872	-0.0020003584
170	0xbc7af845	-0.015317981
171	0xbd81dafa	-0.063405946
172	0x3c39931c	0.0113265775
173	0x3e0357c9	0.12826456
174	0xbd9ce5c5	-0.076610126
175	0x3de21048	0.11038262
176	0xbdc0eeac	-0.09420523
177	0x3cd3a3be	0.025834914
178	0xbd812aec	-0.06307015
179	0xbdd442b2	-0.103642836
180	0xbdb2a0a4	-0.08722046
181	0xbcc01dcc	-0.023451708
182	0xbd3fb2dc	-0.046801433
183	0x3d831092	0.06399645
184	0xbdb3b57e	-0.08774851
185	0x3cfd3a38	0.03091155
186	0xbd6a4d82	-0.057202823
187	0x3d8d1a23	0.06889751
188	0x3db64898	0.08900565
189	0xbb87673e	-0.0041321805
190	0xbe0c68fc	-0.13711923
191	0x3da6c42b	0.08142885
192	0x3c40b3e9	0.011761644
193	0x3d952e74	0.07284251
194	0xbd405d33	-0.04696388
195	0xbd627664	-0.055288687
196	0xbc277d4d	-0.010222745
197	0x3e175941	0.14780141
198	0x3e341567	0.1758629
199	0xbde9875f	-0.11402773
200	0xbd74b20c	-0.05974011
201	0xbc10e70e	-0.00884415
202	0x3d6b9ef0	0.05752462
203	0x3c0e9bde	0.008704154
204	0x3b3cfcb1	0.002883714
205	0x3dc526f0	0.09626567
206	0xbd9226c5	-0.07136301
207	0x3db8e27e	0.09027575
208	0xbd9c7697	-0.07639807
209	0x3d7b1190	0.061296046
210	0xbd6fedeb	-0.058576506
211	0x3d2e9a96	0.042627893
212	0x393db01c	0.0001809005
213	0x3d123e53	0.03570397
214	0xbd99dc18	-0.07512683
215	0x3d5aa138	0.053376406
216	0x3e1bf71f	0.15230988
217	0xbcbf737f	-0.023370503
218	0x3d30db5b	0.043177944
219	0x3e3da209	0.18518843
220	0x3c30a049	0.010780402
221	0xbe4486de	-0.19192073
222	0x3d82eac7	0.063924365
223	0xbdcc20c6	-0.099671885
224	0xbda65da5	-0.0812333
225	0xbd53e79e	-0.05173456
226	0x3d907d7d	0.07055185
227	0xbc8260c6	-0.015915286
228	0xbd6050e8	-0.05476466
229	0xbd538395	-0.05163916
230	0x3dfec29f	0.12439465
231	0xbdbb8bad	-0.091575004
232	0xbd07e246	-0.033174776
233	0xbd2fb0b2	-0.04289312
234	0x3db81bac	0.08989653
235	0x3e0b5de7	0.1361004
236	0xbc261efb	-0.010139222
237	0xbd4f1ebe	-0.050566427
238	0xbdd1154a	-0.10209139
239	0xbe3f6c71	-0.18693711
240	0xbe13499e	-0.14383551
241	0xbe3563ec	-0.17713898
242	0x3d939d54	0.07207742
243	0xbd279477	-0.04091307
244	0xbe19c171	-0.15015198
245	0xbcb2a938	-0.021809205
246	0x3da2ea28	0.07954818
247	0x3ce19a76	0.027539473
248	0xbdedd852	-0.116135255
249	0xbdadc827	-0.08485442
250	0x3d40bc21	0.047054414
251	0x3cb46f2c	0.022025667
252	0x3d655a50	0.05599433
253	0xbb8256da	-0.0039776387
254	0xbdf85d75	-0.121272005
255	0xbd6ecd9b	-0.05830155

fc2.bias f4 [84]
0	0xbd8f0452	-0.06983246
1	0x3da4a0f5	0.080385126
2	0xbdcb8941	-0.099382885
3	0xbb9a6106	-0.004711273
4	0xbd0a1b70	-0.033717573
5	0x3dbf3e2b	0.093380295
6	0xbddf995a	-0.10917921
7	0x3d5ad0c9	0.05342177
8	0x3ced15a6	0.028940987
9	0xbdcb29e4	-0.099200994
10	0xbd7430be	-0.059616797
11	0x3dbb4152	0.09143318
12	0xbd3d34be	-0.046192877
13	0xbca9e579	-0.020739304
14	0x3cd203e8	0.025636628
15	0xbce2820f	-0.027649907
16	0x3dbacdb4	0.09121266
17	0x3cedaeee	0.029014077
18	0x3ca96f8f	0.020683078
19	0x3de76a29	0.11299545
20	0x3ddd5199	0.10806579
21	0x3d1cc8eb	0.038277548
22	0x3df6f056	0.12057559
23	0xbd89d20c	-0.067295164
24	0xbd0baba1	-0.034099225
25	0xbd582a32	-0.052774616
26	0xbcff4805	-0.031162271
27	0x3d2b266d	0.041784693
28	0xbd9e10c9	-0.07718045
29	0x3d7379d2	0.05944235
30	0xbd9d61a4	-0.07684639
31	0xbddf990d	-0.10917864
32	0x3c725961	0.014791817
33	0x3d4b3c34	0.04961796
34	0xbdae65bc	-0.08515498
35	0x3ce5d753	0.028056776
36	0x3d8e17cc	0.06938133
37	0xbd8f059e	-0.06983493
38	0xbc095d19	-0.008384013
39	0xbc1bc47a	-0.009507293
40	0x3d5fbe52	0.054624863
41	0xbd0bf8ef	-0.03417295
42	0x3d2b0b42	0.041758783
43	0xbde39a70	-0.11113441
44	0x3dfe7070	0.124237895
45	0x3d80f674	0.06297007
46	0xbb881554	-0.004152933
47	0x3d0300b7	0.031983104
48	0x3d913cd2	0.07091679
49	0x3d5d819a	0.054078676
50	0xbc517c83	-0.012786034
51	0xbc5721d8	-0.013130628
52	0xbbf3f60e	-0.0074451035
53	0x3b9903cc	0.004669642
54	0xbd0dc2db	-0.034609657
55	0x3d96b54f	0.073588006
56	0xbd376ac6	-0.04477956
57	0x3d1dbc97	0.03850993
58	0x3cd7d866	0.026348304
59	0x3b499e2a	0.003076444
60	0x3c0223cc	0.007943105
61	0xbd90aa8b	-0.070637785
62	0xbcb264e1	-0.021776618
63	0xbca80b1c	-0.02051311
64	0xbd03b4ef	-0.032154974
65	0x3d0532b8	0.032519072
66	0xbd5a3f57	-0.05328306
67	0xbdbdc5c7	-0.09266239
68	0x3da431ae	0.08017288
69	0xbcd6c0ae	-0.026214924
70	0xbcca31a1	-0.024681868
71	0x3c06a7a9	0.008218684
72	0xbdfde35e	-0.123968825
73	0x3da46fff	0.08029174
74	0x3cf42d22	0.029806677
75	0xbcfc7a5d	-0.030820066
76	0xbd5d8659	-0.054083202
77	0x3d515fd1	0.05111677
78	0xbdcd50a6	-0.10025148
79	0x3adddde6	0.0016927093
80	0x3aa98272	0.0012932552
81	0x3d6e7861	0.05822027
82	0xbc5fa715	-0.013650675
83	0x3c8e4628	0.017367437

fc3.weight f4 [10, 84]
0	0xbdebb83a	-0.11509748
1	0x3e027b28	0.12742293
2	0x3e01216a	0.12610403
3	0xbe2e12ad	-0.16999312
4	0xbe416dc6	-0.18889531
5	0x3df0caa7	0.11757403
6	0xbd9c0575	-0.07618228
7	0xbe192721	-0.14956333
8	0x3dbcba0b	0.092151724
9	0xbdc8e84c	-0.09809932
10	0xbda84961	-0.08217121
11	0xbe3d9a62	-0.18515924
12	0xbcc69994	-0.024243154
13	0xbe00593c	-0.1253404
14	0x3d36abd0	0.044597447
15	0xbd9561f7	-0.07294076
16	0xbddbeefa	-0.107389405
17	0xbde7a9b2	-0.11311664
18	0xbe815256	-0.2525813
19	0x3e46fbfb	0.1943206
20	0x3d35d76f	0.044394907
21	0x3c7b2233	0.015327978
22	0x3d17e3bd	0.037082423
23	0xba194518	-0.00058467826
24	0x3df750a2	0.12075926
25	0xbc485044	-0.012226168
26	0x3ce5b38e	0.02803972
27	0xbd66ce7f	-0.056349274
28	0x3e50688c	0.20352381
29	0x3d919bd3	0.07109799
30	0xbe213f5f	-0.1574683
31	0x3d92cca4	0.07167938
32	0xbd9f91f6	-0.07791512
33	0xbdf73e17	-0.120723896
34	0xbc64435b	-0.013932074
35	0xbeac0d77	-0.33604023
36	0xbe65a4ea	-0.22426191
37	0x3d1a844b	0.03772382
38	0x3d7220d4	0.05911334
39	0x3e22ef8e	0.15911695
40	0xbd27eddb	-0.04099832
41	0x3d416d98	0.047223657
42	0xbe3ecefd	-0.18633647
43	0x3bdbeb97	0.006711434
44	0xbda81ee3	-0.08209016
45	0xbdf53b66	-0.1197422
46	0x3db26d03	0.087121986
47	0xbe59c7a7	-0.21267568
48	0x3d9f8823	0.07789638
49	0x3e18b66c	0.14913338
50	0xbe868f1b	-0.26281056
51	0xbda3887e	-0.07985018
52	0x3d283c5b	0.041073184
53	0xbe141522	-0.14461187
54	0x3c99764b	0.018733164
55	0xbd9062d2	-0.070500985
56	0xbc54e021	-0.01299289
57	0x3dd2e15f	0.102968924
58	0xbe6f0ba7	-0.23344289
59	0xbe4f8bf5	-0.20268233
60	0xbe4635d3	-0.1935647
61	0xbdeaea4d	-0.114704706
62	0x3d8d8f0b	0.06912049
63	0x3d2a1748	0.04152611
64	0x3d33c6a7	0.04389062
65	0xbebbf995	-0.36713853
66	0xb99dc0e7	-0.00030089097
67	0xbe545044	-0.20733744
68	0xbae49e72	-0.001744224
69	0x3d0d3130	0.034470737
70	0x3e2748f6	0.16336426
71	0x3df3b739	0.11900181
72	0x3c957f70	0.018249243
73	0xbe57362a	-0.21016756
74	0xbccfa0b7	-0.02534519
75	0x3cfb8489	0.030702846
76	0x3ba5271b	0.005040062
77	0x3d0b2ce9	0.033978377
78	0xbe1ed60d	-0.15511341
79	0x3d168dbc	0.036756262
80	0xbdc58c41	-0.09645892
81	0xbda067bd	-0.078322865
82	0x3dfd3ed3	0.123654984
83	0x3cf9781e	0.030452784
84	0xbd0e9ead	-0.034819294
85	0xbd1f5783	-0.038901817
86	0xbea90a1a	-0.3301552
87	0x3dab0452	0.083504334
88	0x3d69cd96	0.057080828
89	0x3dec7ad6	0.115468666
90	0x3d34a040	0.04409814
91	0xbd6d112c	-0.057877705
92	0x3d2f11fd	0.042741764
93	0xbde0cc3c	-0.109764546
94	0xbd899560	-0.06717944
95	0x3e4eb4a8	0.20186102
96	0xbc9a9241	-0.018868567
97	0xbe48948f	-0.1958792
98	0xbe52fcb8	-0.20604217
99	0xbe844c65	-0.25839534
100	0xbc7a4d76	-0.015277257
101	0xbe436dda	-0.19084874
102	0xbdf78d86	-0.1208754
103	0xbce0d75b	-0.02744644
104	0xbb806c32	-0.003919148
105	0x3c336db5	0.010951449
106	0xbe5c1651	-0.21492888
107	0xbe18cb0c	-0.14921206
108	0xbe1acae1	-0.15116455
109	0x3dacd3c8	0.084388316
110	0xbd964725	-0.073377885
111	0x3d3c0476	0.04590269
112	0x3de03f34	0.10949555
113	0xbe597c42	-0.21238807
114	0xbd9ae56d	-0.07563291
115	0x3d5a3086	0.05326893
116	0x3e0829f7	0.13297258
117	0xbd836e97	-0.06417578
118	0x3cdd7102	0.027031425
119	0x3d2d6fc1	0.042342905
120	0x3d047486	0.032337688
121	0xbd0a88aa	-0.03382174
122	0x3d8a271e	0.06745742
123	0xbe700fcd	-0.23443528
124	0x3ce22dce	0.027609732
125	0xbd0fa223	-0.035066735
126	0x3db8ed88	0.090296805
127	0xbd7d7622	-0.06188024
128	0xbd227e40	-0.039671183
129	0x3e252d3e	0.1613054
130	0x3d4fe9d6	0.050760113
131	0xbcdb9c1a	-0.026807833
132	0x3e238928	0.1597029
133	0xbddcb8b5	-0.107774176
134	0xbe0e2d95	-0.13884576
135	0xbdc2c650	-0.09510481
136	0x3dedb53d	0.11606834
137	0xbe4cf1bc	-0.2001409
138	0xbd449ae7	-0.04799929
139	0x3d86cd0b	0.065820776
140	0x3e091c3f	0.13389681
141	0x3db12c49	0.08651025
142	0x3def9f33	0.11700287
143	0x3d9a3cf5	0.07531158
144	0xbe6c9d27	-0.23106824
145	0xbe0b7f0b	-0.13622682
146	0xbb2ea08d	-0.0026645989
147	0xbe299f39	-0.16564645
148	0x3d51a08d	0.051178504
149	0xbcbac024	-0.022796698
150	0x3c2889bc	0.010286745
151	0x3df12baf	0.1177591
152	0x3dfbf8bb	0.12303301
153	0x3d884e20	0.06655526
154	0xbd9e1b4d	-0.07720051
155	0xbe0715b6	-0.13191876
156	0xbd72c1bd	-0.059266794
157	0x3d9ed4a8	0.07755405
158	0x3dbd9946	0.0925775
159	0xbe1c9424	-0.15290886
160	0xbe3195ac	-0.17342252
161	0x3dd92986	0.10603623
162	0x3da7217c	0.081606835
163	0xbe1f3978	-0.15549266
164	0xbd47a5cb	-0.048742097
165	0x3cd1b9f7	0.02560137
166	0x3e06e7cf	0.13174365
167	0xbe4c1f58	-0.19933832
168	0xbd4a3f9c	-0.04937707
169	0x3e065adf	0.13120602
170	0xbddcaeed	-0.10775552
171	0xbd343968	-0.04400006
172	0x3c004d8f	0.007830991
173	0xbe86315c	-0.26209533
174	0xbcbc07d2	-0.022952948
175	0xbd282062	-0.041046508
176	0xbd9e0d3d	-0.07717369
177	0x3d857421	0.065162905
178	0xbdc50533	-0.09620132
179	0xbe951d6b	-0.29124007
180	0x3d5a1bd9	0.053249214
181	0x3d9ed623	0.07755687
182	0xbc9f2762	-0.019427959
183	0x3de33b43	0.11095288
184	0xbe334fbe	-0.17510888
185	0x3deacbe1	0.11464668
186	0xbcb898c0	-0.022533774
187	0xbc0cc81a	-0.00859263
188	0xbe30e910	-0.17276406
189	0xbd8ec33d	-0.069708325
190	0xbe2f5c98	-0.17125165
191	0x3d9887b1	0.07447756
192	0x3dfe040d	0.124031164
193	0x3e08d28d	0.13361569
194	0xbe67eb7f	-0.22648428
195	0xbce31cb2	-0.027723644
196	0x3d203e87	0.03912213
197	0xbe1f9717	-0.1558498
198	0xbd6b35f4	-0.0574245
199	0xbddedf50	-0.10882437
200	0x3de0f304	0.109838516
201	0x3e0b41af	0.13599275
202	0x3d267968	0.040643126
203	0xbc5b1f38	-0.013374142
204	0x3e22b6c4	0.15890032
205	0xbc4c3fc0	-0.012466371
206	0xbd978549	-0.07398469
207	0xbc37c6bb	-0.011216815
208	0x3d874e8b	0.06606778
209	0x3b7e5bec	0.0038812114
210	0xbdb14012	-0.086547986
211	0x3dd8e5bf	0.105906956
212	0x3dfeb07c	0.124360055
213	0x3d3d113e	0.04615902
214	0xbe62a5aa	-0.22133508
215	0xbe2154da	-0.15755025
216	0xbdce96e2	-0.10087372
217	0xbe2d36cf	-0.16915439
218	0x3da4ca8a	0.08046444
219	0x3c2bf3ea	0.010495165
220	0xbb064cfd	-0.0020492666
221	0xbdc42e67	-0.09579163
222	0x3d517b2d	0.05114286
223	0x3c9cfb01	0.019162657
224	0xbe21bf7a	-0.15795699
225	0xbd62aa1c	-0.05533801
226	0xbe0a6cd0	-0.13518071
227	0x3ac3e850	0.0014946554
228	0xbe62f217	-0.22162662
229	0xbd32260a	-0.043493308
230	0x3d36a4d5	0.04459079
231	0x3dcb4a2b	0.09926256
232	0x3d009738	0.031394213
233	0xbe787d2b	-0.24266498
234	0xbd185b91	-0.0371967
235	0xbe0a1032	-0.1348274
236	0x3d3ecdc1	0.04658294
237	0x3db8129e	0.08987926
238	0xbe653e87	-0.22387134
239	0x3e00530a	0.12531677
240	0xbd259c44	-0.04043223
241	0xbe2b6a71	-0.16739823
242	0x3da20277	0.079106264
243	0xbe1c323f	-0.15253542
244	0xbdddd03e	-0.10830735
245	0xbd75ee01	-0.06004143
246	0xbcfe9bcc	-0.03108015
247	0xbe34636d	-0.17616053
248	0x3d6cfef5	0.057860333
249	0x3da23edb	0.07922145
250	0x3e1ea02b	0.15490787
251	0x3e0e8cc1	0.13920881
252	0x3df29c22	0.11846186
253	0xbcee5f73	-0.029098248
254	0x3ce87772	0.028377268
255	0xbdd07b8a	-0.10179813

fc3.bias f4 [10]
0	0xbd8f076e	-0.06983839
1	0x3beef084	0.0072918553
2	0xbcd9b1a0	-0.026573956
3	0xbd959f6d	-0.07305799
4	0x3d32c246	0.043642305
5	0xbdab2855	-0.08357302
6	0xbe2407cb	-0.16018598
7	0x3daf9288	0.085728705
8	0x3d416237	0.047212806
9	0x3bf72ff5	0.0075435587
