LeNet5/model.pth (torch, 239547 bytes, 8 tensors)

conv1.weight f4 [6, 1, 5, 5]
-0.28526488 -0.15226558 0.21032816 0.31772956 0.28428438 -0.22031236 -0.17394519 -0.08332537
0.3250549 0.12166584 -0.20504989 -0.22567531 -0.17887801 -0.057107408 0.1208646 -0.16605178
-0.11882324 -0.37431416 -0.098830104 -0.006136913 -0.07719926 -0.082783885 0.0006001155 -0.055548683
0.06536364 -0.2028583 -0.18710645 -0.018527271 -7.362961e-05 0.16042595 -0.26208946 0.14020741
0.2717093 0.2706621 0.23353013 -0.07693347 0.31446275 0.33145416 0.2096165 0.09674945
0.0632567 0.1762392 0.26195055 0.19119482 -0.25955823 0.30291247 0.047992114 -0.12664394
-0.1630144 -0.3051417 0.37069735 0.21692388 0.21447465 0.28694624 0.38221845 0.3638296
0.3826603 0.46616042 0.40348575 0.17227112 -0.24217974 0.04242374 0.24147049 -0.010997723
0.09685136 -0.7340898 -0.44558325 -0.36132804 -0.2733371 -0.117800884 -0.44598487 -0.4580016
-0.40890726 -0.0954524 0.045342978 -0.16198748 -0.270911 -0.10886431 -0.013622578 0.2323348
0.041476667 -0.21712802 -0.4551526 -0.47249377 -0.18220107 0.35052532 0.080052085 -0.080243416
-0.44294646 -0.21802874 0.23853305 0.41612396 0.45426896 -0.22715104 -0.17466776 0.090239264
0.20356764 0.43143216 0.06089287 0.18468753 0.10849199 -0.10734132 0.20712315 -0.11675129
0.06296686 0.006464401 0.20491678 0.19459331 0.07024678 0.32521632 0.09588438 0.1471512
0.22927073 0.11429252 0.23863472 -0.11574335 0.2093812 0.17905411 0.25572038 -0.03565302
0.045303755 0.055632897 0.178445 0.19928788 0.16322938 -0.15401497 -0.15236977 -0.025763946
0.16394986 0.011001079 -0.1120278 -0.15935588 0.0014989873 0.20118181 0.10992846 -0.25805393
-0.08745236 0.06905693 0.33676797 -0.13915405 -0.17709406 -0.080106534 0.22392616 0.07251299
-0.16908164 -0.033403225 0.010966711 0.16402167 0.10791972 -0.09901237
00000000: 3d0e 92be 82eb 1bbe 4460 573e 73ad a23e
00000010: b98d 913e 9099 61be b01e 32be 7ea6 aabd
00000020: 996d a63e f12b f93d 99f8 51be 6e17 67be
00000030: cc2b 37be 75e9 69bd dc87 f73d 7a09 2abe
00000040: 9959 f3bd 1ba6 bfbe 7067 cabd 2818 c9bb
00000050: a51a 9ebd 998a a9bd 1251 1d3a 0487 63bd
00000060: 5fdd 853d 16ba 4fbe d598 3fbe 81c6 97bc
00000070: 9969 9ab8 b346 243e 9730 86be 8892 0f3e
00000080: 7b1d 8b3e 3994 8a3e 8622 6f3e 4c8f 9dbd
00000090: 4301 a13e 5cb4 a93e b5a5 563e 9324 c63d
000000a0: bb8c 813d 0d78 343e 621e 863e 93c8 433e
000000b0: d1e4 84be 5817 9b3e 6193 443d f3ae 01be
000000c0: 3fed 26be 883b 9cbe 0bcc bd3e 4b21 5e3e
000000d0: 3e9f 5b3e 9eea 923e 23b2 c33e e047 ba3e
000000e0: 0dec c33e 94ac ee3e af95 ce3e d767 303e
000000f0: f7fd 77be 84c4 2d3d 0a44 773e cb2f 34bc
00000100: 015a c63d 4fed 3bbf 7d23 e4be fdff b8be
00000110: d7f2 8bbe 9741 f1bd 2158 e4be 307f eabe
00000120: 4b5c d1be 8c7c c3bd 8fb9 393d 0ce0 25be
00000130: d9b4 8abe 40f4 debd 3c31 5fbc 2ce9 6d3e
00000140: 70e3 293d cf56 5ebe c309 e9be b4ea f1be
00000150: eb92 3abe 0e78 b33e 59f2 a33d a956 a4bd
00000160: e1c9 e2be ed42 5fbe 0242 743e 330e d53e
00000170: f195 e83e 489a 68be 1bdc 32be 5dcf b83d
00000180: 0974 503e ade4 dc3e cd6a 793d ba1e 3d3e
00000190: 0c31 de3d c4d5 dbbd 1718 543e 4d1b efbd
000001a0: c5f4 803d 53d3 d33b b4d5 513e 7843 473e
000001b0: 8bdd 8f3d c182 a63e 085f c43d ceae 163e
000001c0: f2c5 6a3e 3212 ea3d a95c 743e d90a edbd
000001d0: 0668 563e f659 373e c8ed 823e e708 12bd
000001e0: 6e90 393d 52df 633d 49ba 363e 1f12 4c3e
000001f0: 9a25 273e 1ab6 1dbe d206 1cbe e90e d3bc
00000200: 79e2 273e df3d 343c d56e e5bd 302e 23be
00000210: ab79 c43a 9b02 4e3e 2c22 e13d a51f 84be
00000220: 391a b3bd b86d 8d3d da6c ac3e 667e 0ebe
00000230: 2558 35be e50e a4bd e64c 653e b181 943d
00000240: bd23 2dbe d2d1 08bd b8ad 333c 4cf5 273e
00000250: 0405 dd3d ffc6 cabd

conv1.bias f4 [6]
-0.584514 0.24754691 0.005859608 -0.145412 0.34028044 -0.23077382
00000000: b6a2 15bf f07c 7d3e f401 c03b e2e6 14be
00000010: 3d39 ae3e f94f 6cbe

fc1.weight f4 [120, 400]
0.020403227 0.18250267 -0.0026375777 0.05276022 0.0938669 0.35454592 0.14574492 -0.20986575
0.016790248 -0.02796517 -0.048518177 -0.00991502 0.08870096 -0.027884688 -0.051978067 -0.13065536
-0.25890225 -0.032655194 0.23547375 -0.16186583 0.01660325 0.20233586 0.023945874 -0.0594181
0.3449703 0.04086725 0.059322733 0.12098095 0.24250221 0.037843045 0.07294276 -0.051960815
0.079673916 0.11920977 0.15553378 0.032927338 -0.0067367316 0.08082803 0.3787449 0.36785546
0.112658575 -0.004082742 0.064048745 0.12420476 -0.27692917 0.081060335 0.055459827 0.003773964
-0.20049624 -0.117580555 -0.012858774 -0.051993996 -0.218403 -0.1996802 -0.06952112 -0.017808452
0.10062689 -0.034495175 -0.08543664 -0.10913094 0.020214224 0.18719174 -0.01066972 -0.029423593
0.042821992 -0.047762655 -0.061609853 -0.054890603 0.07054622 0.14097872 -0.14752579 0.11232629
-0.14318812 -0.05310048 -0.06037455 0.07157891 -0.034306288 -0.050342176 -0.111909546 -0.03844299
0.034975816 -0.098261386 0.117629305 -0.09589307 -0.06656215 -0.029043954 0.07379125 0.17049713
0.070608646 0.019476365 -0.01122447 -0.0670123 0.15786852 0.21242389 0.18387327 -0.1766415
-0.15273656 0.12743175 0.1067308 0.0784109 0.13145868 0.29185128 0.3700031 0.10808124
-0.115993656 -0.11282102 0.24155653 0.060512282 0.2537066 0.04876457 0.021014338 0.31418896
-0.04468995 -0.078460015 0.01806276 0.31221282 0.2415112 -0.29760617 0.14945796 0.21491933
0.123781584 0.39308068 0.33753327 0.38375628 0.26913616 -0.022112677 0.05859316 -0.043603547
0.0597513 -0.03563488 0.09754202 -0.095124155 -0.06049245 0.034129355 -0.060369827 0.0021147511
-0.08894747 -0.03324454 -0.05733165 -0.15933377 0.04904906 0.083014145 -0.0062545794 0.0016728385
0.04180901 0.124817446 0.08639311 0.05904609 0.020377131 -0.13284811 -0.039947636 -0.011910133
0.057330392 0.120568834 -0.016925579 -0.07755356 0.048201796 0.024681978 0.046412993 -0.006225395
0.061441805 -0.017481767 -0.099132955 -0.024481772 -0.09866228 0.1417875 0.04401796 -0.0177042
0.022060316 0.07428964 0.083359435 0.111289695 0.045872204 0.05083726 0.04288245 0.068308346
-0.085356064 -0.15907662 -0.046407152 0.0050614257 -0.017332187 0.08543805 -0.08481934 -0.035421535
0.0164697 -0.14778003 -0.053464428 0.057614885 -0.036843196 -0.0014259665 -0.11854645 0.03938072
0.0114022195 0.055360354 0.0935529 0.09405721 -0.019727532 -0.13042302 -0.27044138 -0.2163222
0.06785283 0.01672866 0.006376066 -0.010972646 0.08029373 -0.12285081 -0.07107179 -0.042082947
0.02833934 0.052994553 -0.1540564 -0.030068628 -0.03361892 -0.020089328 -0.017274829 0.0684052
0.04473113 -0.1545996 0.007331028 -0.04237264 -0.011878341 0.077136464 -0.07715546 -0.031885784
0.068009675 0.10537778 0.3903998 0.05837591 -0.038263157 -0.17856976 -0.03825892 0.44174036
0.20913538 0.0060655437 -0.020909797 -0.0987215 0.1553074 0.2918008 0.16886458 0.015456402
-0.12485597 0.27741256 -0.16681148 0.207937 0.069496825 0.1618792 0.4042735 0.20331717
-0.352462 -0.16282555 0.027522448 -0.060121 -0.011227904 0.08555051 0.07859876 0.02441003
00000000: ab24 a73c fbe1 3a3e 36db 2cbb 1a1b 583d
00000010: 4a3d c03d 0b87 b53e 283e 153e 0ce7 56be
00000020: b48b 893c 3617 e5bc ffba 46bd 9c72 22bc
00000030: d9a8 b53d 6e6e e4bc f4e6 54bd 85ca 05be
00000040: d68e 84be 74c1 05bd 0820 713e 28c0 25be
00000050: 8a03 883c 2231 4f3e 232a c43c 6560 73bd
00000060: f29f b03e 6b64 273d 65fc 723d dcc4 f73d
00000070: 8052 783e 4f01 1b3d 0463 953d ddd4 54bd
00000080: 142c a33d 4024 f43d 3f44 1f3e d1de 063d
00000090: cdbf dcbb 2b89 a53d daea c13e 8d57 bc3e
000000a0: 8ab9 e63d 86c8 85bb fd2b 833d 115f fe3d
000000b0: a9c9 8dbe f602 a63d d829 633d 9c54 773b
000000c0: e34e 4dbe 13ce f0bd 9bad 52bc a8f7 54bd
000000d0: 09a5 5fbe f778 4cbe 1761 8ebd 08e3 91bc
000000e0: 7915 ce3d d04a 0dbd 68f9 aebd 0b80 dfbd
000000f0: 4d98 a53c 31af 3f3e 0dd0 2ebc bf09 f1bc
00000100: 1d66 2f3d c6a2 43bd 9d5a 7cbd f8d4 60bd
00000110: 897a 903d ba5c 103e 0011 17be 530b e63d
00000120: e89f 12be e47f 59bd 4e4b 77bd f797 923d
00000130: c084 0cbd 9933 4ebd d530 e5bd 6676 1dbd
00000140: cd42 0f3d 443d c9bd a2e7 f03d 9663 c4bd
00000150: bd51 88bd 96ed edbc de1f 973d cd96 2e3e
00000160: 449b 903d e68c 9f3c d7e6 37bc bf3d 89bd
00000170: 49a8 213e a685 593e 4649 3c3e 82e1 34be
00000180: f966 1cbe 787d 023e ad95 da3d e595 a03d
00000190: 1b9d 063e 886d 953e 0c71 bd3e b259 dd3d
000001a0: 158e edbd b50e e7bd 985a 773e badb 773d
000001b0: d5e5 813e 5cbd 473d 4326 ac3c 60dd a03e
000001c0: cf0c 37bd a5af a0bd 5af8 933c 5cda 9f3e
000001d0: b64e 773e d65f 98be 820b 193e d013 5c3e
000001e0: 3381 fd3d df41 c93e 29d1 ac3e b47b c43e
000001f0: 37cc 893e a525 b5bc 62ff 6f3d a299 32bd
00000200: c7bd 743d e1f5 11bd 1cc4 c73d 74d0 c2bd
00000210: eec6 77bd 39cb 0b3d 5a46 77bd a397 0a3b
00000220: 172a b6bd 6d2b 08bd 98d4 6abd 6428 23be
00000230: abe7 483d 5203 aa3d 37f3 ccbb 2543 db3a
00000240: ed3f 2b3d 4aa0 ff3d dfee b03d 50da 713d
00000250: f1ed a63c 5609 08be 22a0 23bd b822 43bc
00000260: 46d3 6a3d cbec f63d 83a7 8abc 67d4 9ebd
00000270: 3f6f 453d dc31 ca3c 8d1b 3e3d 66fe cbbb
00000280: 67aa 7b3d ec35 8fbc 3806 cbbd ff8d c8bc
00000290: 730f cabd be30 113e 2d4c 343d 6608 91bc
000002a0: d6b7 b43c 2b25 983d 5ab8 aa3d daeb e33d
000002b0: 7ee4 3b3d bb3a 503d 82a5 2f3d 3fe5 8b3d
000002c0: 29cf aebd fbe4 22be 6d15 3ebd 51da a53b
000002d0: 3bfc 8dbc 25fa ae3d c3b5 adbd 2c16 11bd
000002e0: 77eb 863c a653 17be 84fd 5abd 96fd 6b3d
000002f0: e4e8 16bd 7fe7 baba 7bc8 f2bd ae4d 213d
00000300: 60d0 3a3c 8ac1 623d aa98 bf3d 11a1 c03d
00000310: a29b a1bc 9d8d 05be 4b77 8abe 9183 5dbe
00000320: 6df6 8a3d 8b0a 893c 51ee d03b 9dc6 33bc
00000330: 0a71 a43d 3599 fbbd 168e 91bd 2b5f 2cbd
00000340: e727 e83c d110 593d f6c0 1dbe 7c52 f6bc
00000350: feb3 09bd 6092 a4bc f183 8dbc 0718 8c3d
00000360: fd37 373d 5c4f 1ebe 1f39 f03b ef8e 2dbd
00000370: 609d 42bc b9f9 9d3d af03 9ebd ab9a 02bd
00000380: a848 8b3d 4ed0 d73d 7ce2 c73e 941b 6f3d
00000390: d4b9 1cbd feda 36be 63b5 1cbd cb2b e23e
000003a0: 9627 563e 78c1 c63b 064b abbc 7f2e cabd
000003b0: e708 1f3e ea66 953e d6ea 2c3e d93c 7d3c
000003c0: 7db4 ffbd 0509 8e3e a1d0 2abe 70ed 543e
000003d0: 5a54 8e3d a9c3 253e f0fc ce3e 6032 503e
000003e0: e675 b4be bebb 26be c276 e13c 7041 76bd
000003f0: 3ef5 37bc 1b35 af3d 63f8 a03d 8bf7 c73c

fc1.bias f4 [120]
0.023051316 0.0045006485 -0.0338104 -0.04916271 -0.011400397 -0.009777023 0.0022386045 -0.028194362
-0.009455127 0.0048834984 0.03567265 0.030154457 0.04210453 0.09088113 0.012520914 0.012352767
0.08571797 -0.05528116 -0.0014077934 0.016412415 -0.0328995 0.033815663 0.033400886 0.07871148
0.070236206 -0.002800106 0.080219604 -0.011787031 0.02662159 0.021503128 0.044993293 -0.049318463
0.012205177 0.0328412 -0.045803875 0.10707478 -0.044378567 0.037433844 -0.036679722 -0.0009891875
0.0682632 0.04470192 0.018920025 -0.016337669 -0.013893696 0.018580416 0.037387908 -0.0069042793
-0.016305316 0.043013655 -0.04016141 -0.033759434 0.023806788 -0.016549375 0.02048683 0.05640402
0.050337903 -0.03148198 0.05164516 0.067468226 0.027768014 -0.023522826 -0.03526588 -0.0058965595
0.010387303 -0.0046490887 -0.034782223 -0.035580672 0.058854047 -0.011624964 0.027724154 -0.05391354
0.0037735351 -0.017042235 -0.04276079 0.012599024 -0.0038461767 -0.07546661 0.032297652 0.008058338
-0.00155397 -0.04219557 0.024521094 0.02292327 0.014326216 -0.07064133 0.04280667 -0.049741335
0.03930946 -0.053720836 0.006450601 -0.0045027733 -0.0037473075 -0.046951413 0.0077992603 0.0043646386
-0.023032721 0.023624161 -0.035034746 -0.055565353 0.011064035 0.036827423 0.01287551 -0.004221036
0.015551537 0.059932142 -0.021349253 0.050261438 0.088433735 0.0677744 0.026762318 0.01935593
-0.012516792 -0.04483958 0.016398424 -0.024602147 0.048449032 -0.028616222 -0.043893173 0.08431635
00000000: 1dd6 bc3c 2d7a 933b c67c 0abd d65e 49bd
00000010: bbc8 3abc cf2f 20bc 8db5 123b ddf7 e6bc
00000020: ade9 1abc c105 a03b 7c1d 123d 7b06 f73c
00000030: cd75 2c3d e31f ba3d 8524 4d3c 4363 4a3c
00000040: e78c af3d 7f6e 62bd b585 b8ba 5473 863c
00000050: a0c1 06bd 4b82 0a3d 5ecf 083d 7c33 a13d
00000060: 00d8 8f3d fc81 37bb 2d4a a43d 641e 41bc
00000070: 8515 da3c 5427 b03c e34a 383d 2802 4abd
00000080: 39f8 473c 7e84 063d d89c 3bbd 064a db3d
00000090: 4dc6 35bd 3b54 193d 7a3d 16bd a0a7 81ba
000000a0: 94cd 8b3d 5c19 373d 2bfe 9a3c 93d6 85bc
000000b0: 62a2 63bc f535 983c 1024 193d 4b3d e2bb
000000c0: ba92 85bc 162f 303d 4a80 24bd 5547 0abd
000000d0: 7406 c33c 8e92 87bc ffd3 a73c e707 673d
000000e0: 1e2f 4e3d 40f3 00bd e089 533d c82c 8a3d
000000f0: bf79 e33c f1b2 c0bc f572 10bd ed37 c1bb
00000100: 822f 2a3c 6257 98bb ce77 0ebd 0abd 11bd
00000110: f110 713d a276 3ebc c41d e33c 72d4 5cbd
00000120: 6a4d 773b 289c 8bbc f025 2fbd 236c 4e3c
00000130: 2310 7cbb 3d8e 9abd 8b4a 043d 1f07 043c
00000140: 95ae cbba 43d5 2cbd 76e0 c83c 95c9 bb3c
00000150: 81b8 6a3c 67ac 90bd 0c56 2f3d 92bd 4bbd
00000160: f502 213d 610a 5cbd 905f d33b 008c 93bb
00000170: 6395 75bb 2050 40bd f090 ff3b 3e05 8f3b
00000180: 1eaf bcbc 7587 c13c 9880 0fbd 7f98 63bd
00000190: ed45 353c 5ad8 163d cef3 523c 9e50 8abb
000001a0: e0cb 7e3c 687b 753d a1e4 aebc f0de 4d3d
000001b0: bf1c b53d 4ecd 8a3d a63c db3c 5490 9e3c
000001c0: 3b13 4dbc b5a9 37bd fd55 863c 718a c9bc
000001d0: 7e72 463d 916c eabc 54c9 33bd 0dae ac3d

fc2.weight f4 [84, 120]
-0.04812895 -0.019372016 0.021885257 0.08358814 0.14415699 -0.10911394 0.039726585 0.17747894
-0.20582286 0.13129579 -0.03288869 -0.011847891 -0.07490327 0.0673592 0.03489177 -0.07296793
-0.053270604 -0.075142756 -0.023294115 -0.06365906 0.031649094 0.104202226 -0.09512439 -0.07210394
-0.1259436 0.08061638 0.09463069 0.008742705 0.014016237 0.009438094 0.0912616 -0.07628265
0.03883776 0.11228731 0.017660594 -0.0042728507 0.06676832 0.054604918 0.039962724 0.15836285
0.09720531 -0.02083428 0.009147115 0.08670109 -0.11135991 -0.061456256 0.049567603 -0.05985927
-0.036641553 -0.06458672 -0.0030133647 0.02998877 0.14635482 -0.23750998 0.10811046 0.18109383
-0.026299246 -0.13802907 0.04548045 0.076581255 0.071463 0.016881593 0.060477674 -0.060501426
-0.03388424 0.12762484 -0.06424932 0.06550443 0.15209216 0.18995336 -0.019290997 0.002531094
-0.08234076 -0.056773577 0.06400363 0.18528418 -0.022943016 -0.10919966 0.16771026 -0.017026206
0.089366764 0.029849354 -0.28339642 0.044541463 0.10519688 0.042583365 0.055186767 0.012201651
0.095422044 0.019088594 0.09558142 0.07636326 0.06619588 0.064490385 -0.019625256 -0.022692999
0.04281761 0.12578449 -0.016481725 -0.2148606 0.22072497 -0.041341227 0.05014607 -0.051093843
0.031374358 0.055873152 -0.093219735 -0.047172546 -0.02080478 0.026083123 -0.07888519 0.048995934
-0.07758616 -0.057374526 -0.106767915 0.096154414 -0.18293601 0.04255344 -0.20517011 -0.11337812
-0.018022574 0.037001207 0.01661259 0.07246151 -0.1567055 0.067258194 -0.041502133 -0.08058562
-0.0030478183 -0.130597 0.15769506 -0.05437758 -0.17727864 -0.030110566 -0.078094244 -0.054878794
0.07481722 -0.015187596 0.08568458 -0.016199224 0.045689065 0.029302567 0.0617965 0.06791883
0.023184171 0.089494824 0.0976835 -0.19225578 0.07488772 0.071198165 -0.03498759 -0.064285986
-0.09171228 -0.026042508 -0.077135324 0.11865894 -0.030041449 0.15559396 0.08406324 0.10572467
-0.123046905 -0.05878438 0.0017840549 -0.04545194 0.10076325 -0.023504457 -0.049381293 0.04248212
-0.09436774 -0.00908955 -0.04059644 -0.006555163 0.088112034 0.061619006 0.05472403 -0.0731141
-0.21523583 0.17970014 0.108447164 -0.020897023 -0.050737068 -0.07959812 0.13844213 0.19701377
0.0117904795 -0.07532484 -0.0855252 0.0040607625 0.09190064 -0.142991 -0.0886134 0.030615719
0.09337714 0.0863309 -0.029429175 -0.2570344 -0.017694566 -0.07228712 -0.00402153 -0.051596437
-0.04782963 0.016596157 0.11265314 -0.053673282 0.12409949 -0.08905934 -0.0051440704 -0.045535415
-0.234236 -0.099507034 0.05091365 0.03964482 -0.07702081 0.030115275 0.083805576 0.07201102
0.006775262 0.049046926 -0.05853167 0.06996949 -0.07999489 -0.042072725 0.016888088 0.15609853
-0.056938995 -0.07763909 0.045165792 -0.029242996 0.0903831 0.0065820483 0.035004944 -0.0006833349
0.07641997 0.010193018 -0.032209944 0.05799955 0.06728594 0.047959678 0.07732114 0.073148936
-0.09921548 -0.2558572 0.002946716 0.03500445 0.1310953 -0.063541085 0.04034647 -0.029078633
-0.09667223 0.16005881 -0.01964553 -0.0036468226 0.00045098274 0.17625552 -0.07317871 0.06297761
00000000: dd22 45bd 10b2 9ebc b648 b33c 4230 ab3d
00000010: e49d 133e 2177 dfbd 58b8 223d 0abd 353e
00000020: 3ac3 52be 6772 063e 4ab6 06bd a81d 42bc
00000030: e366 99bd 9ff3 893d acea 0e3d 3670 95bd
00000040: 4732 5abd 72e4 99bd 4dd3 bebc ae5f 82bd
00000050: 7ba2 013d fa67 d53d 94d0 c2bd 3bab 93bd
00000060: 5cf7 00be 331a a53d bccd c13d 903d 0f3c
00000070: 5ca4 653c 3ca2 1a3c 5de7 ba3d 143a 9cbd
00000080: 5814 1f3d e4f6 e53d f3ac 903c 4503 8cbb
00000090: d4bd 883d 68a9 5f3d f4af 233d df29 223e
000000a0: 9413 c73d a7ac aabc c8dd 153c 5790 b13d
000000b0: aa10 e4bd 8eb9 7bbd 6607 4b3d fe2e 75bd
000000c0: 7415 16bd 0b46 84bd df7b 45bb 02ab f53c
000000d0: 0ade 153e d135 73be 0469 dd3d a970 393e
000000e0: 8471 d7bc 7e57 0dbe b549 3a3d a2d6 9c3d
000000f0: 315b 923d 444b 8a3c 70b7 773d 58d0 77bd
00000100: 33ca 0abd 16b0 023e 2695 83bd 3027 863d
00000110: 0cbe 1b3e 2283 423e 2708 9ebc b6e0 253b
00000120: 46a2 a8bd 698b 68bd 5614 833d 23bb 3d3e
00000130: fef2 bbbc 12a4 dfbd 3dbc 2b3e 8b7a 8bbc
00000140: ec05 b73d a286 f43c 5619 91be 1c71 363d
00000150: 7671 d73d e56b 2e3d 850b 623d 6fe9 473c
00000160: a26c c33d af5f 9c3c 31c0 c33d 5764 9c3d
00000170: b591 873d 8913 843d 25c5 a0bc abe6 b9bc
00000180: 8561 2f3d a6cd 003e af04 87bc 6b04 5cbe
00000190: ba05 623e 6b55 29bd f765 4d3d c747 51bd
000001a0: 6682 003d 3fdb 643d fde9 bebd 0038 41bd
000001b0: c96e aabc 46ac d53c 8f8e a1bd f6af 483d
000001c0: 7ee5 9ebd 8d01 6bbd 23a9 dabd 9bec c43d
000001d0: 9453 3bbe 844c 2e3d 1d18 52be ca32 e8bd
000001e0: 14a4 93bc 948e 173d 2017 883c b366 943d
000001f0: 6877 20be aabe 893d 24fe 29bd 130a a5bd
00000200: e8bd 47bb 38bb 05be d07a 213e 06bb 5ebd
00000210: 8888 35be 6faa f6bc e0ef 9fbd 96c8 60bd
00000220: c539 993d 65d5 78bc 667b af3d 3cb4 84bc
00000230: 7524 3b3d f00b f03c 541e 7d3d 0719 8b3d
00000240: bbec bd3c 1049 b73d 490e c83d b3de 44be
00000250: bc5e 993d 58d0 913d 264f 0fbd 5fa8 83bd
00000260: a6d3 bbbd 1957 d5bc 20f9 9dbd 7503 f33d
00000270: 7c19 f6bc 0654 1f3e 5929 ac3d 2d86 d83d
00000280: 0400 fcbd e4c7 70bd f3d6 e93a d02b 3abd
00000290: f65c ce3d 6b8c c0bc 0a44 4abd bb01 2e3d
000002a0: e043 c1bd 56ec 14bc 7448 26bd b1cc d6bb
000002b0: 1574 b43d 3664 7c3d 4e26 603d d8bc 95bd
000002c0: c866 5cbe 5003 383e 8c19 de3d 3c30 abbc
000002d0: acd1 4fbd 5704 a3bd c6c3 0d3e fabd 493e
000002e0: db2c 413c e943 9abd d627 afbd 2510 853b
000002f0: 6736 bc3d 3c6c 12be f17a b5bd d1cd fa3c
00000300: 843c bf3d 41ce b03d 7415 f1bc 039a 83be
00000310: 32f4 90bc 450b 94bd 0ac7 83bb c956 53bd
00000320: 01e9 43bd aaf4 873c b1b6 e63d 84d8 5bbd
00000330: e027 fe3d be64 b6bd 978f a8bb 5883 3abd
00000340: 90db 6fbe 58ca cbbd d58a 503d 9b62 223d
00000350: 16bd 9dbd 4fb4 f63c 42a2 ab3d 837a 933d
00000360: 0403 de3b 6ee5 483d e8be 6fbd 2a4c 8f3d
00000370: 5cd4 a3bd 7354 2cbd e358 8a3c 4bd8 1f3e
00000380: dd38 69bd 3e01 9fbd c4ff 383d 028f efbc
00000390: c61a b93d 39ae d73b 5861 0f3d d421 33ba
000003a0: 1382 9c3d 9e00 273c 93ee 03bd f090 6d3d
000003b0: 36cd 893d 5e71 443d 8c5a 9e3d 1ccf 953d
000003c0: 7c31 cbbd b7ff 82be b11d 413b d360 0f3d
000003d0: d93d 063e d421 82bd 5742 253d 5036 eebc
000003e0: 17fc c5bd 75e6 233e aaef a0bc 88ff 6ebb
000003f0: e171 ec39 547c 343e b8de 95bd 68fa 803d

fc2.bias f4 [84]
0.04882224 -0.0050933673 0.05414974 -0.005242911 0.07757949 0.043251276 -0.12672596 -0.051567934
-0.1148383 0.106415845 0.11985513 -0.09082232 0.0032164662 -0.090592645 0.026096225 -0.03077828
0.07540675 -0.05271243 -0.13064796 0.09854208 0.17060445 0.0846286 -0.051791932 -0.059950475
0.070845984 -0.105040655 0.08338985 -0.02346246 -0.0810903 -0.05904341 -0.028946185 -0.13267991
-0.008373284 0.0011615999 0.018927068 0.068422794 -0.12616464 -0.008678433 0.06455543 0.05557368
0.07019657 0.051210165 -0.0138614755 0.043963455 -0.006334625 -0.08729795 0.038976543 0.110038504
0.09708273 -0.09110665 0.06514364 -0.007512111 0.05230983 0.034395836 0.038355086 -0.011951326
0.020492615 -0.027057588 0.0445612 -0.08962064 -0.012510167 0.05083206 -0.09777456 -0.09948903
-0.04972958 0.11003368 -0.016771028 -0.05228819 0.0738507 0.046685196 0.040736966 -0.061318837
-0.022900894 0.028519634 -0.02611927 -0.055242408 0.07816322 -0.067318484 0.07630175 -0.0119925365
-0.034081157 0.004042544 0.06647685 -0.0068280683
00000000: d4f9 473d 43e6 a6bb 1ecc 5d3d bacc abbb
00000010: ffe1 9e3d 4028 313d 73c4 01be e638 53bd
00000020: 5830 ebbd 8df0 d93d 9b76 f53d 0d01 babd
00000030: 59cb 523b a388 b9bd c0c7 d53c bb22 fcbc
00000040: db6e 9a3d fde8 57bd 94c8 05be 6ed0 c93d
00000050: efb2 2e3e c251 ad3d c723 54bd a18e 75bd
00000060: b317 913d 8e1f d7bd 4cc8 aa3d 5834 c0bc
00000070: ac12 a6bd 81d7 71bd 8d20 edbc 3edd 07be
00000080: 1930 09bc d340 983a f00c 9b3c 4021 8c3d
00000090: 4e31 01be fc2f 0ebc a335 843d 3aa1 633d
000000a0: 38c3 8f3d c0c1 513d 3e1b 63bc 0613 343d
000000b0: b092 cfbb 45c9 b2bd dea5 1f3d de5b e13d
000000c0: 4fd3 c63d 2096 babd 076a 853d 2828 f6bb
000000d0: d542 563d a6e2 0c3d 391a 1d3d 7fcf 43bc
000000e0: 21e0 a73c e0a7 ddbc ce85 363d 078b b7bd
000000f0: 72f7 4cbc 4735 503d 073e c8bd e8c0 cbbd
00000100: 3eb1 4bbd 5759 e13d 6563 89bc 242c 56bd
00000110: 093f 973d fa38 3f3d cedb 263d 7629 7bbd
00000120: a89a bbbc 02a2 e93c 14f8 d5bc dd45 62bd
00000130: 0a14 a03d 46de 89bd 1844 9c3d 587c 44bc
00000140: af98 0bbd 5177 843b 0425 883d fdbd dfbb

fc3.weight f4 [10, 84]
-0.12673835 0.1574806 -0.090461075 -0.105057925 -0.02426476 0.10422744 -0.005804294 -0.09888083
0.042272188 -0.37600553 -0.122467734 0.017146055 0.09357546 -0.1389411 0.054724865 -0.12433007
-0.1325448 0.06813511 -0.058809575 -0.21810734 0.053242266 0.03232725 0.09853771 -0.09573665
-0.0014777443 0.06251955 0.080110796 -0.21095534 -0.10650773 -0.18444614 0.14863078 -0.036065947
0.062996015 -0.09014144 0.1975742 -0.03489882 -0.056093585 0.07940954 -0.04244279 0.023509663
0.1522015 -0.21142215 -0.041838985 0.11550283 -0.26499653 -0.22219397 -0.12854229 -0.1624824
0.13772002 -0.038490623 -0.29206333 -0.16214441 0.0023282229 0.045345638 -0.0022598905 -0.04337105
0.22214074 0.21140933 -0.29165348 -0.11989979 -0.12091601 -0.013115682 -0.07265519 -0.15826738
-0.087836176 0.07456386 -0.15409338 -0.01419185 -0.012911818 0.059121497 0.16475661 -0.21642765
-0.15110885 -0.049358882 -0.09282806 0.046054587 0.09381632 -0.02986895 0.030397559 -0.22687976
-0.120851606 -0.32326865 0.15728593 -0.13374484 0.0787005 -0.07297083 -0.13718507 -0.10184062
0.08534995 -0.1275377 -0.11150524 -0.006847856 -0.04692291 0.026308686 0.20421873 -0.049947545
0.0631977 -0.17716636 0.020405542 -0.24373254 0.17549267 -0.1882536 -0.009869366 0.1627322
-0.22668965 0.114915505 0.07918579 -0.010698087 0.08689631 0.033784457 0.12872168 -0.011096707
0.023324106 -0.039114278 -0.075745456 -0.00894016 -0.25457242 -0.1914614 -0.1603173 -0.19596978
0.047258437 0.057429124 0.20861596 -0.2069347 0.13922901 0.06754261 -0.24933171 0.18572201
0.13397203 0.00045366838 0.10438625 -0.22323136 -0.17249992 0.046390448 0.082908586 -0.18145803
0.14196286 -0.030841395 -0.3558906 -0.0926862 0.09847583 -0.045687784 -0.031084476 -0.05692908
-0.12612955 0.036357015 -0.14697753 -0.09972979 0.12510233 -0.2912274 0.15282458 -0.056724522
0.18334658 0.13428359 -0.15266949 0.13515191 -0.015125103 0.17287357 -0.057260055 -0.047180608
0.069573745 0.027556539 -0.117593095 -0.22873324 -0.16753782 0.003709764 -0.10567011 -0.21952283
-0.22678852 0.108459696 -0.120482326 0.036847025 0.01859817 0.1473714 -0.017110398 -0.04533931
0.025938665 -0.11322459 -0.022675466 -0.037487578 -0.06540774 -0.03589401 0.13535598 -0.014204862
-0.11011758 -0.013299647 0.019519735 -0.23954302 0.09761748 -0.07675744 0.021554688 0.16699857
-0.025053289 -0.03605025 0.01740162 0.13663745 0.007307577 0.18458001 0.029546935 -0.09857677
-0.02906146 0.07369984 0.008422887 0.062448725 0.047292605 -0.10158699 -0.100647524 -0.057879474
-0.19644655 -0.027359378 0.03848262 0.080784865 0.21416427 0.09572473 0.04361324 -0.1588309
0.026660807 0.047673576 -0.02523653 0.009271016 -0.042344727 0.032148786 0.11169872 0.09661709
0.11392761 -0.12961121 -0.051909342 0.096148446 -0.07066444 -0.078520454 -0.011513523 0.072255015
-0.11947209 -0.11825527 0.1943824 -0.09537777 -0.21296771 -0.019762376 0.04176929 0.046015956
-0.17573167 -0.11114798 0.07060352 -0.026114494 0.10048194 0.02455118 -0.29363647 0.08782157
-0.030714866 -0.04175003 -0.12474083 -0.3366695 0.17861004 -0.08039947 -0.1522885 -0.09130487
00000000: b3c7 01be 9842 213e a843 b9bd 9c28 d7bd
00000010: e4c6 c6bc 3275 d53d f231 bebb 0882 cabd
00000020: 9a25 2d3d cc83 c0be 5dd0 fabd e275 8c3c
00000030: 7ea4 bf3d 9346 0ebe 2e27 603d c4a0 febd
00000040: d3b9 07be 6c8a 8b3d 4fe2 70bd 8857 5fbe
00000050: 9014 5a3d 9469 043d 24ce c93d 9411 c4bd
00000060: dfb0 c1ba 400a 803d 2111 a43d ad04 58be
00000070: ba20 dabd 73df 3cbe ab32 183e e3b9 13bd
00000080: 0e04 813d 139c b8bd e450 4a3e 11f2 0ebd
00000090: 63c2 65bd 78a1 a23d 7ed8 2dbd 5697 c03c
000000a0: b6da 1b3e 0c7f 58be 5b5f 2bbd bf8c ec3d
000000b0: a0ad 87be d186 63be 97a0 03be c961 26be
000000c0: 7a06 0d3e 58a8 1dbd 5389 95be 2f09 26be
000000d0: 1995 183b 59bc 393d ac1a 14bb d8a5 31bd
000000e0: dd78 633e b07b 583e 9b53 95be 058e f5bd
000000f0: d0a2 f7bd 28e3 56bc 3fcc 94bd d810 22be
00000100: 74e3 b3bd f0b4 983d a8ca 1dbe ef84 68bc
00000110: 178c 53bc 6229 723d f5b5 283e 369f 5dbe
00000120: 47bc 1abe 8a2c 4abd a31c bebd bca3 3c3d
00000130: c522 c03d baaf f4bc 4d04 f93c 2b53 68be
00000140: 0c81 f7bd 7883 a5be 900f 213e 68f4 08be
00000150: ba2d a13d bb71 95bd 3e7a 0cbe d191 d0bd
00000160: f4cb ae3d 3e99 02be dc5c e4bd fb63 e0bb
00000170: 3d32 40bd 5085 d73c b71e 513e cc95 4cbd
00000180: cc6d 813d 196b 35be 8629 a73c 0695 79be
00000190: 5ab4 333e 8dc5 40be 1fb3 21bc 45a3 263e
000001a0: 5521 68be d258 eb3d 292c a23d 0747 2fbc
000001b0: b1f6 b13d 9261 0a3d 9ecf 033e f6ce 35bc
000001c0: 3212 bf3c 4b36 20bd 6f20 9bbd c079 12bc
000001d0: 5157 82be 750e 44be 382a 24be 4dac 48be
000001e0: 1092 413d cd3a 6b3d 6c9f 553e b1e6 53be
000001f0: 0d92 0e3e c853 8a3d d050 7fbe e92d 3e3e
00000200: f72f 093e 57da ed39 75c8 d53d c396 64be
00000210: d2a3 30be e903 3e3d facb a93d 22d0 39be
00000220: b65e 113e 18a7 fcbc 4b37 b6be 43d2 bdbd
00000230: b2ad c93d 1d23 3bbd dfa4 febc 782e 69bd
00000240: 1b28 01be 18eb 143d 4781 16be 223f ccbd
00000250: d31a 003e c21b 95be 0c7e 1c3e f957 68bd
00000260: 35bf 3b3e a381 093e 6455 1cbe 4365 0a3e
00000270: 48cf 77bc c505 313e 8589 6abd 7440 41bd
00000280: ae7c 8e3d 40be e13c a6d4 f0bd 0c39 6abe
00000290: 098f 2bbe 831f 733b 9269 d8bd 98ca 60be
000002a0: 403b 68be 1e20 de3d 70bf f6bd e8ec 163d
000002b0: 305b 983c 87e8 163e 1b2b 8cbc b6b5 39bd
000002c0: 537d d43c 4be2 e7bd e6c1 b9bc 938c 19bd
000002d0: 7ef4 85bd 9905 13bd c29a 0a3e 82bb 68bc
000002e0: 5385 e1bd c3e6 59bc dae7 9f3c c44a 75be
000002f0: aceb c73d 0133 9dbd 7593 b03c ac01 2b3e
00000300: 8e3c cdbc 6da9 13bd d88d 8e3c b0ea 0b3e
00000310: 6674 ef3b 8b02 3d3e 6a0c f23c 9ee2 c9bd
00000320: 4d12 eebc f1ef 963d 2600 0a3c 3cca 7f3d
00000330: e4b5 413d d70c d0bd 4a20 cebd 0713 6dbd
00000340: 4929 49be c620 e0bc f49f 1d3d 8972 a53d
00000350: e14d 5b3e 540b c43d cca3 323d 91a4 22be
00000360: c467 da3c 5e45 433d d7bc cebc 76e5 173c
00000370: aa71 2dbd 72ae 033d 4cc2 e43d 2edf c53d
00000380: e152 e93d cdb8 04be e49e 54bd 7ae9 c43d
00000390: 85b8 90bd 55cf a0bd 37a3 3cbc 70fa 933d
000003a0: c8ad f4bd d22f f2bd 2e0c 473e 6c55 c3bd
000003b0: 3514 5abe b5e4 a1bc 4616 2b3d 3a7b 3c3d
000003c0: 01f3 33be 8da1 e3bd 9498 903d 10ee d5bc
000003d0: 7ac9 cd3d 8e1f c93c 8557 96be ccdb b33d
000003e0: be9d fbbc 1402 2bbd 1f78 ffbd f25f acbe
000003f0: 8de5 363e 7aa8 a4bd 84f1 1bbe 0cfe babd

fc3.bias f4 [10]
-0.08589039 0.023588639 -0.054767214 -0.04111056 0.012365801 0.08995328 -0.004366452 -0.031470448
-0.019824596 0.01370144
00000000: 4de7 afbd f63c c13c 9653 60bd 8c63 28bd
00000010: ee99 4a3c 6d39 b83d 7414 8fbb 28e7 00bd
00000020: 3167 a2bc 017c 603c
