Interface/Boosted_LeNet4_modelsa/model1.pth (torch, 214789 bytes, 8 tensors)

conv1.weight f4 [4, 1, 5, 5]
000000 8b 9f d0 bd 9f e5 c6 be 0d 07 13 bf 39 a6 bc be
       -0.101866804 -0.38847062 -0.57432634 -0.36845568
000010 ac 5e 1f 3d 22 ee 86 be 3f 6a e2 be 4e 7a 04 bf
       0.038908646 -0.26353556 -0.44221684 -0.5174912
000020 69 72 8a be 26 d8 fc bd d3 25 e7 3d 82 b5 9e bd
       -0.27040413 -0.123459145 0.11286511 -0.077494636
000030 fb 50 a9 3e b5 b4 b2 3e 05 e4 50 3d f9 ca d3 3e
       0.33069596 0.34903494 0.050998706 0.41365793
000040 32 f5 fd 3e 0e 89 16 3f 1a a4 b3 3e a8 28 40 3e
       0.49601132 0.5880288 0.35086137 0.18765509
000050 2c 5c 45 3e a6 d7 c7 3e 67 94 54 3e ab 1f d7 3d
       0.19273442 0.39031714 0.20759736 0.10504087
000060 44 0e 88 be dc 91 b3 3d c7 79 36 3e dd 8f 17 3e
       -0.26573384 0.08768055 0.17819892 0.14800973
000070 1a 59 cc 3c e9 20 eb 3a 1d 8f 1c 3e b9 d9 b0 3e
       0.02494483 0.0017938885 0.15288968 0.3454111
000080 99 2c 9f 3e 33 4e cc 3d 12 b1 85 be 65 0f d3 3d
       0.31088713 0.09975853 -0.26111656 0.10305671
000090 e0 f3 bc 3e a8 95 96 3e 95 b5 4d 3e a2 09 89 bd
       0.36904812 0.29411054 0.200888 -0.066912904
0000a0 26 55 bf bb 2f 32 5b 3d 20 c7 70 3c cd ed 7d 3e
       -0.005839008 0.053514656 0.014695913 0.24797745
0000b0 38 6b 4b be 0d 27 02 be 5e 4b f9 bd 20 8f 2e 3e
       -0.1986512 -0.12710209 -0.12172578 0.17046785
0000c0 57 8e bf 3d f6 60 3d 3c a8 41 2a 3e 1f b4 20 be
       0.09353321 0.011558762 0.16626608 -0.1569371
0000d0 ee b6 03 bf a8 f5 0a bf b3 4c 05 bf 7a 07 3d bf
       -0.51451004 -0.5428109 -0.5207016 -0.73839533
0000e0 81 76 10 bf b4 91 fd be 0e 5a 99 be be 48 9a be
       -0.5643082 -0.49525225 -0.2995152 -0.30133623
0000f0 55 d1 13 bf b6 46 c0 be 38 b1 e1 be 3e 04 dd be
       -0.5774129 -0.37553948 -0.4408052 -0.431673
000100 5a ef bb bd c4 7b 25 3e d2 33 06 bd be 45 a6 be
       -0.09176512 0.16160494 -0.032764263 -0.32475084
000110 ac d4 0c bf 9f 0f c2 be d1 7e ea 3e 38 3d 4e 3e
       -0.5501201 -0.37902543 0.45799878 0.2014054
000120 5c 0f 74 be 41 d7 0e bf 77 0c f8 be 85 bc a9 3d
       -0.23833984 -0.557972 -0.4844701 0.0828791
000130 65 a3 b9 3e 86 37 eb 3d e3 bd ea be 52 8f 81 be
       0.36257473 0.114852 -0.45847997 -0.25304657
000140 9b 89 3f 3e 44 e1 e3 3e 62 46 3c 3e 80 0e a5 be
       0.18704836 0.44507802 0.18386224 -0.32237625
000150 da eb 10 bf 5b a1 a4 bd 65 45 11 3f 61 e3 9f 3e
       -0.5660988 -0.080385886 0.5674651 0.31228164
000160 d3 16 bc be ce 03 12 bf 35 37 2a 3c 20 bb 53 3e
       -0.36736163 -0.57037055 0.010389139 0.20676851
000170 e4 1d e6 3e 5b 57 28 be f9 98 70 be 1e 94 df 3d
       0.4494468 -0.16439573 -0.23495854 0.10916923
000180 77 20 aa 3e dc 8d b1 3e b4 5c 76 3d 7e 3f 28 be
       0.33227894 0.34678543 0.060147002 -0.1643047

conv1.bias f4 [4]
000000 67 a3 12 3e 75 b8 4c be be ea a8 bd 8c 7b da 3e
       0.14320146 -0.1999224 -0.082478985 0.42672384

conv2.weight f4 [16, 4, 5, 5]
000000 ca 6d 94 be 19 3f ce bc 35 d1 0e 3e 8f 7f ca 3d
       -0.28990012 -0.025176572 0.13946994 0.09887611
000010 96 4f 35 3b ed 08 84 be 6b ce 98 bd c5 07 4d bc
       0.0027665845 -0.2578806 -0.07461246 -0.012514059
000020 59 db 8a bd 7a 8c 69 be b5 cb d4 bd 36 6e e5 3d
       -0.067801185 -0.22807494 -0.103904165 0.11202662
000030 68 5b 84 bd 8b 24 e0 bd d7 ac 9b 3c c0 49 f8 36
       -0.06462747 -0.1094447 0.019003315 7.3995616e-06
000040 50 a9 ec bd 15 3f a1 bd e7 11 f0 3b f7 94 30 3d
       -0.11555731 -0.0787336 0.007326353 0.043110814
000050 6e 62 a2 bc 14 43 f4 bd 85 b8 09 3d 26 5e b3 3d
       -0.019822326 -0.11926857 0.033623237 0.08758192
000060 84 10 1a be c9 41 78 3d 0f c0 98 bd 07 9e c3 be
       -0.15045363 0.060609613 -0.07458507 -0.38206503
000070 6a 75 17 be 84 ad 63 bb 9d d0 20 be f0 c0 3d 3c
       -0.14790884 -0.0034740875 -0.1570458 0.011581644
000080 3e 3c 22 be 68 b2 7f bb 9f 03 6c bd b9 63 91 be
       -0.15843293 -0.003901625 -0.05762064 -0.28396395
000090 4f 94 c5 bc 21 4a 3a bc a9 5e 23 bc ee 4f 07 3a
       -0.02411857 -0.011370213 -0.009971299 0.0005161752
0000a0 7f 93 89 be 15 57 be 3d 03 c6 a9 3d 25 81 41 bd
       -0.26870343 0.09293953 0.08289721 -0.047242302
0000b0 49 01 37 3e 3c cb 13 be f8 03 90 3d 51 2b 20 3e
       0.17871584 -0.14432997 0.07032007 0.15641524
0000c0 81 4d 07 3e ac b0 30 3e 33 3f 73 3e 6d 7f 36 3d
       0.13213159 0.17254895 0.23754577 0.044555116
0000d0 4a cc 12 be e1 86 7a be 16 5c 7f 3d 79 19 68 3e
       -0.14335743 -0.24465515 0.06234368 0.22665967
0000e0 a8 f7 5f bd c3 4b e5 be 24 30 6f be a5 7d 30 3d
       -0.054679543 -0.44784364 -0.23358208 0.043088574
0000f0 46 f3 0f 3d 20 76 19 bf 39 97 8a be 2f 8b 24 be
       0.035144113 -0.5994587 -0.270685 -0.1606872
000100 28 79 99 bc d3 9f be be fd 81 36 bf 95 60 14 bd
       -0.01873453 -0.3723131 -0.71292096 -0.03622492
000110 6e 87 23 bd b5 83 03 bf 30 00 9e be b8 c5 3f bf
       -0.039924078 -0.51372844 -0.30859518 -0.7491107
000120 ce 92 04 bf 23 26 1f bf 36 a8 c8 be 5a f4 b9 3d
       -0.51786506 -0.62167567 -0.39190835 0.090798095
000130 8b 70 20 3d 62 c9 33 be 4b 09 f0 3c 19 6e 4d 3d
       0.03916983 -0.1755729 0.029301306 0.050153825
000140 53 63 13 3e b6 53 48 3e b0 4c 69 be bc 58 37 bd
       0.14393358 0.19563183 -0.2278316 -0.044762358
000150 4c e3 22 3e 2a e6 38 bd 51 1a b4 3e c6 10 ed 3d
       0.1590702 -0.045141377 0.35176328 0.11575465
000160 f5 ff e8 3c ff f4 67 3e 39 a6 be be 27 8b f7 3e
       0.028442362 0.22652052 -0.37236193 0.48348352
000170 0d 2d cf 3d 2e e4 e2 bd 5d 24 56 3e 8f 39 82 be
       0.10116015 -0.11078678 0.20912309 -0.2543454
000180 dc b2 9c 3e 44 87 4e 3d 1b d7 19 be 2b 42 b7 3e
       0.3060521 0.050421968 -0.15023462 0.3579267
000190 08 da 35 3e 6b 86 d7 bc ac 20 cb bd 3e d1 c8 bb
       0.17758954 -0.026309213 -0.09918341 -0.0061284592
0001a0 e3 81 06 3d c9 d2 1d 3d 2b 27 00 be 58 c7 54 be
       0.032838713 0.0385311 -0.12514941 -0.20779169
0001b0 81 5c 08 be 06 c4 e1 bd ae 2a 35 bf 10 f7 1a bf
       -0.13316537 -0.11023717 -0.7076825 -0.6053324
0001c0 cf ce 61 be 3b b1 ee 3d 03 c4 17 3d 24 eb 2e bf
       -0.22051547 0.11654898 0.037052166 -0.68327546
0001d0 ae ed 0b bf a5 5e cf be 20 02 09 bd 52 bf 1e 3e
       -0.54659545 -0.40501896 -0.033449292 0.1550267
0001e0 dd 03 26 3d aa 4b 32 be 73 38 ba be 59 26 86 be
       0.040531028 -0.17411676 -0.36371192 -0.26201132
0001f0 76 43 ba 3c 18 0c cf 3d 88 63 75 3d db 58 20 bd
       0.022737246 0.101097286 0.059909374 -0.03914724
000200 8f 5b 6d 3d de 60 e5 3d ba c6 26 bd 05 1b 1f 3e
       0.057948645 0.112001166 -0.040716864 0.15537651
000210 fb f3 12 3e 95 10 16 be 4e 8d 86 bd 42 31 90 bc
       0.14350884 -0.14654763 -0.065699205 -0.017601613
000220 14 01 00 3b 2a 70 40 3e 36 de fa 3d b7 5a e2 bd
       0.0019531893 0.18792787 0.122494146 -0.11052459
000230 ae ca 42 be e7 82 2c bd 24 77 76 3d ab 6c 14 3e
       -0.19022629 -0.042117026 0.060172215 0.14494579
000240 1d f8 7e 3d 53 a5 88 bc a4 68 9d bd e3 2b 30 be
       0.062248338 -0.016680395 -0.07685974 -0.17204241
000250 45 66 9e 3c 98 55 9a 3d 95 29 99 bc e1 78 d0 3c
       0.019335875 0.07535857 -0.018696586 0.025448265
000260 aa ed 3e 3e a8 c9 2d 3d da 47 0e be ab 5f 2c 3c
       0.18645349 0.042428643 -0.13894597 0.010520856
000270 05 20 92 bd 51 aa af 3e d3 e5 9a 3e dd 46 81 3d
       -0.071350135 0.3430963 0.30253467 0.06312344
000280 95 e0 22 3e b9 20 de be aa e1 b0 be ac bb 26 bc
       0.15905984 -0.4338434 -0.34547168 -0.01017658
000290 45 dd ae 3c 47 02 75 3e 41 2f cc be 18 6f fb be
       0.021345744 0.2392665 -0.39879802 -0.49108195
0002a0 79 15 e6 bd 89 d1 e6 3d e5 16 6f 3d 7f 4b d4 bc
       -0.11234564 0.112704344 0.058371443 -0.025914906
0002b0 5b 18 6b be f4 fc f5 3d ff 49 6d 3e 39 32 98 bb
       -0.2295851 0.120111376 0.23172759 -0.004644659
0002c0 5c 3f 63 3e 3e f4 ae bd eb c2 44 be 06 ca 87 bd
       0.22192138 -0.08542679 -0.1921498 -0.0663033
0002d0 62 82 0a be 86 84 2a 3e b1 d7 44 3e 3a 41 33 be
       -0.135263 0.16652116 0.19222905 -0.1750535
0002e0 87 fa 8c be 5f c2 b7 be 2e 52 05 3e 88 7e 93 3e
       -0.27534887 -0.3589048 0.1301963 0.28807473
0002f0 64 a7 30 3e f0 fd 70 bd 06 2b 71 be 7d 9b 81 3d
       0.17251354 -0.058835924 -0.23551568 0.06328485
000300 fc 26 ed 3d 1d 28 21 3d d9 6d 61 3d a5 20 c1 3d
       0.11579701 0.039344896 0.0550364 0.094300546
000310 ea 75 14 3e 40 df 06 3e cf 28 59 be b5 92 60 3d
       0.14498106 0.131711 -0.21206973 0.05482741
000320 fa 70 88 3e 54 66 16 3e d4 7e 13 be 52 52 12 be
       0.26648694 0.14687473 -0.1440385 -0.14289215
000330 f2 df 3f bd d7 56 41 3d d6 51 3d 3e f1 84 a3 3d
       -0.04684443 0.047201958 0.18488249 0.07984341
000340 b7 d9 6d 3d 23 28 d2 bd eb a4 3d be 07 a9 fd 3c
       0.058068957 -0.10261562 -0.18519942 0.030964388
000350 d9 cc cb 3d 83 a3 47 3d 6d b1 f8 bd 30 20 c6 be
       0.09951181 0.04873992 -0.12143216 -0.38696432
000360 d9 18 03 be fe 4d 3e 3d a8 c9 44 bd 5e d3 1a be
       -0.12802447 0.046461098 -0.048043877 -0.15119693
000370 7b dc 48 bf 03 01 4b bf bf ac d5 be 58 16 be be
       -0.78461426 -0.7929842 -0.41733357 -0.37126422
000380 50 42 a1 be c6 69 2f 3d 1c 8d a7 be 91 18 09 bf
       -0.31495905 0.042825483 -0.32724845 -0.5355311
000390 a5 7e f4 be 6c 9a b0 3c e1 26 36 3e b9 fd a1 bd
       -0.47752872 0.02155801 0.17788269 -0.07909722
0003a0 49 fd 04 be d8 b4 b2 be 26 84 21 bd 72 93 ec 3d
       -0.12987246 -0.34903598 -0.039432667 0.115515605
0003b0 79 70 17 3e a1 cd 2a 3e d2 4d ca 3d 69 91 0f be
       0.14788999 0.16680004 0.09878124 -0.14020313
0003c0 d0 6a 61 3d e6 da 1b 3e 2a 0f 6d 3d 52 e4 43 bc
       0.055033505 0.15220222 0.05787579 -0.011956291
0003d0 c2 23 f4 bd f5 e3 b3 bd 68 2c 9c 3a 30 cb 0d bd
       -0.11920883 -0.08783714 0.001191509 -0.034617603
0003e0 ce b4 4e bd e6 1a 9e bd 47 a9 70 3e c7 ed 81 3e
       -0.050465398 -0.07719974 0.23502074 0.25376722
0003f0 1b 54 24 3e b0 7c 1f 3e a9 68 29 3e db e5 b1 3d
       0.16047709 0.15574908 0.16543831 0.086864196

conv2.bias f4 [16]
000000 fc d0 ca 3d 91 64 f5 3d 96 a9 70 be 6f ad ad be
       0.09903142 0.11982072 -0.23502192 -0.33921382
000010 47 20 3f 3d a3 f9 38 3c 4e 3c 24 3e 2c 10 9f 3c
       0.04666164 0.011289987 0.1603863 0.019416891
000020 e6 8a 5b be 65 67 0b 3e 9c 86 b2 3d 58 89 35 3d
       -0.21439704 0.1361366 0.08717081 0.044320434
000030 14 84 c9 3d 8a ca d6 bd 5f 34 94 bd 82 65 ca 3b
       0.09839645 -0.1048785 -0.072365515 0.0061766515

fc1.weight f4 [120, 400]
000000 04 55 08 be 5a 87 3a be 16 99 06 be 0a b9 0b 3b
       -0.13313681 -0.18215695 -0.13144335 0.0021320009
000010 a6 7c 86 3d e1 7d 86 bc eb a5 e5 3c 08 9f ba 3c
       0.065667436 -0.016417446 0.028033217 0.02278091
000020 ea a6 f2 3d aa b3 82 3c ff e4 0a be ae 4a 2c be
       0.118482426 0.015954811 -0.13563918 -0.16825363
000030 66 0f 8f bd a2 86 39 3b 23 6f 17 3d 3f 87 8c bd
       -0.06985359 0.0028309007 0.036971223 -0.06861734
000040 05 99 50 bd bf 39 04 bb 55 c9 9f bd 4d 98 43 bd
       -0.05092718 -0.002017602 -0.07802073 -0.047752667
000050 50 16 e5 bc 20 15 7e be 25 bc b0 be cd eb cb be
       -0.027964741 -0.24812746 -0.34518543 -0.3982834
000060 c3 9d 29 bd 2a 99 f4 bc cc ae 2c be 7a 7b 1f 3d
       -0.04141022 -0.02985819 -0.16863555 0.038936116
000070 ac cf 60 be eb 25 92 be 02 c6 65 bd a6 bf 6e 3d
       -0.2195422 -0.28544554 -0.056097038 0.05828824
000080 fe 24 96 3c 75 43 2f 3e de 9c a1 bc 87 0a 0b 3d
       0.018328186 0.17115577 -0.01972812 0.033945587
000090 91 be ef bc 19 dc 05 bd b9 2f 6b bd b4 27 3d 3e
       -0.029265674 -0.032680605 -0.05741856 0.18472177
0000a0 07 e9 27 3e a0 7b 74 bd 7e 95 37 bd e3 d2 1f bd
       0.16397487 -0.05968821 -0.0448203 -0.039019477
0000b0 1e 60 a8 3d c7 7e 8c 3e bd 54 3d 3e 16 e0 b6 3d
       0.08221458 0.27440473 0.18489356 0.0892946
0000c0 9c 9b a8 3d 82 a9 fc 3d 58 22 8a bb 88 51 e1 3d
       0.08232805 0.123370185 -0.00421552 0.11001879
0000d0 f1 7b 0f 3e 45 24 8b bd 9f da be bd ab 2f 1d 3e
       0.14012124 -0.06794027 -0.093190424 0.15350215
0000e0 96 bd 2e 3d 8a 46 2e 3e a7 68 c2 3c be ad f3 ba
       0.042661272 0.17019096 0.023731543 -0.0018591208
0000f0 43 29 a1 3e e2 9a a2 3d 79 12 db bd f4 32 93 3d
       0.31476793 0.07939698 -0.10696883 0.07187453
000100 0e f4 43 3e 68 af 82 3c 0e eb 02 3e 9f 30 4c bd
       0.19136068 0.01595278 0.12784979 -0.049851056
000110 48 57 14 be fe b7 d8 bd 65 32 29 be 48 01 69 be
       -0.1448642 -0.10581969 -0.1652313 -0.22754395
000120 03 f0 27 ba 1f 47 86 3c 6e b5 83 3c 2f ea 9f be
       -0.0006406309 0.016391335 0.016077723 -0.31233355
000130 97 9d 19 bf 00 75 24 be 50 82 1d be f0 14 69 bd
       -0.6000609 -0.16060257 -0.15381742 -0.056904733
000140 cb cc 46 3d 1f 41 23 3d 6c f6 55 bd e0 fa 92 3c
       0.04853515 0.039857026 -0.05223696 0.017941892
000150 9b 9b 63 3a 4a 33 0d 3d 33 65 61 3e 32 85 26 3e
       0.000868255 0.03447274 0.2201126 0.16261747
000160 1d 9f 42 3e a4 72 97 3c 6f 90 9f bd 47 1b f9 bc
       0.1900601 0.018487282 -0.077912204 -0.030408515
000170 e0 f7 04 bd 5d 8d a4 bc e6 e1 09 bd fd b5 3c be
       -0.032462955 -0.020086939 -0.0336627 -0.18428798
000180 dc 4f a0 bc 53 1d be 3d e6 31 27 3c 33 d2 b9 bd
       -0.01956933 0.09282937 0.010204768 -0.090732954
000190 95 95 51 be a0 62 de bd 31 5c 81 bd 5d d5 bd 3d
       -0.20467217 -0.10858655 -0.06316412 0.092692114
0001a0 5f 41 d3 bb 74 f3 22 be 67 ed 7e bd 09 3b 71 3c
       -0.006447002 -0.15913182 -0.062238123 0.014723548
0001b0 05 a7 df 3d e6 36 74 3d b2 ec 86 be 38 b7 41 be
       0.10920528 0.059622668 -0.2635246 -0.18917549
0001c0 ca 8d e5 bd a0 1b 55 3d 55 2f 08 3e 5c 4e 42 be
       -0.11208685 0.0520283 0.13299306 -0.18975204
0001d0 19 53 9f bd 3e f3 cd bd 07 ca 62 3c ce 5e 3f bd
       -0.077795215 -0.100561604 0.013842112 -0.046721272
0001e0 21 a1 0a 3d 61 53 4d bc bf 51 8c 3d a5 ba a2 bd
       0.03384507 -0.012532086 0.06851529 -0.07945756
0001f0 22 e1 5e bd 2b 8b 06 3e f1 dc 97 bb e6 45 1a 3d
       -0.054413922 0.13139026 -0.0046344926 0.037664317
000200 44 39 06 3e 54 d1 00 3e 07 d9 bc 3d 00 16 8a 3c
       0.13107783 0.12579852 0.09221082 0.016856194
000210 f4 d2 49 be 9f 6d 47 be 06 5d 9c bc 93 fa 96 bd
       -0.19709378 -0.19475411 -0.019087326 -0.07372012
000220 76 a2 31 be be 1c 9c be fa 67 6c be 37 6c d7 bc
       -0.1734713 -0.3049068 -0.23086539 -0.026296718
000230 60 55 bb 3d 5d 40 93 3d c7 6d 69 3d b6 40 1f be
       0.09147143 0.07190011 0.056989457 -0.15552029
000240 25 f8 e2 3d 12 bd ef 3d f8 6c 23 3e 25 a6 9e 3d
       0.11082486 0.11705984 0.15959537 0.07746533
000250 30 f7 c9 bb a5 29 27 3d 22 3a a7 bd 13 c3 8f be
       -0.0061635002 0.0408112 -0.08165385 -0.28078517
000260 e4 f2 09 bf c9 85 ca be 3f 8d 9b be 0a c3 8f bd
       -0.53886247 -0.39555195 -0.303812 -0.070196226
000270 92 55 c0 bd 8e 79 17 be b2 fb 72 be e6 54 6f 3d
       -0.09391321 -0.14792463 -0.23728827 0.058430575
000280 1b c7 40 bd 03 95 b5 3d 78 bb a4 3d 13 a4 94 3d
       -0.04706488 0.08866312 0.08043569 0.07257857
000290 44 cf 47 3e 25 d3 ff bb 87 8b dc 3c 21 15 93 3e
       0.1951266 -0.007807153 0.026922 0.28727058
0002a0 7b bd 49 3e 20 e4 12 3e b1 3b e2 3d 7f 25 38 3e
       0.19701187 0.14344835 0.110465415 0.17983054
0002b0 03 16 73 3e 77 a1 10 3e 37 81 a1 3d 9d 31 9d be
       0.23738866 0.14124094 0.07885974 -0.30701914
0002c0 99 aa 39 3d 6d 07 cf bd de 75 e0 3a 5b 3b dc bc
       0.04532871 -0.10108838 0.0017124971 -0.026883772
0002d0 c6 10 a0 be 18 42 54 bd 79 0a 8f 3d bb f0 03 3e
       -0.31262797 -0.051820844 0.069844194 0.128848
0002e0 11 f5 aa 3d fc e1 c8 bd 41 5c 98 bb 87 44 da bd
       0.08347524 -0.09808728 -0.0046496694 -0.10657602
0002f0 2a 2b 86 3d 66 86 0f be d3 73 5b be 8a 78 85 bd
       0.06551202 -0.14016113 -0.21430902 -0.065171316
000300 fc 8d 0b 3b b8 bb fb bc 54 96 05 be 87 d3 cc bd
       0.0021294346 -0.03072916 -0.13045627 -0.10001283
000310 9e 41 14 3e 1a a1 e5 3d 29 7a 09 be 58 76 70 be
       0.14478156 0.11212368 -0.13425507 -0.23482645
000320 17 8f 2e be 05 5b df bd f8 44 0b be 2d 99 42 3c
       -0.17046772 -0.109060325 -0.13600528 0.01187734
000330 13 b8 60 bc c1 99 33 bb 28 65 b0 3d 5d 4c a8 3e
       -0.013715762 -0.0027404877 0.08613044 0.3287076
000340 20 a2 14 3e c8 10 07 be 84 43 b3 3c 05 73 0b 3e
       0.14514971 -0.13189995 0.02188278 0.13618095
000350 6c 81 27 3e b3 62 a6 3d 11 c1 31 be 77 81 29 bd
       0.16357964 0.08124294 -0.17358805 -0.041383233
000360 a4 7f 87 3c 0f 3c e8 bd b0 54 75 3c 70 c8 b6 3c
       0.016540356 -0.1133958 0.014973804 0.022312373
000370 1b 40 f1 bd ba 7d 17 bd 1f e8 93 3b 26 1c d6 3d
       -0.11779805 -0.036985137 0.004513755 0.10454588
000380 83 07 78 3d 78 89 7c bd e5 0a 54 be a9 f5 89 be
       0.06055404 -0.061654538 -0.20707281 -0.26945236
000390 7b b2 af bc 5c 63 44 3c 5c 11 ba 3c 69 19 93 bc
       -0.02144741 0.01198658 0.022713356 -0.017956452
0003a0 61 02 9f 3d 8e fd 59 3c eb 86 7c bd 64 00 94 3d
       0.077641256 0.013305081 -0.061652105 0.07226637
0003b0 9b 18 9c bd 4e 56 f1 3c 09 b8 10 bd 88 5f 6b bd
       -0.076218806 0.029460099 -0.03533176 -0.057464153
0003c0 51 a6 85 bd 81 96 29 be e8 2a df bc c9 a8 2a be
       -0.06525863 -0.16561319 -0.027242139 -0.16665949
0003d0 06 c7 d2 3d c5 6e 45 3e 1f fb a0 3d 58 ed 6d 3b
       0.10291867 0.19280536 0.078603975 0.0036304798
0003e0 aa 6e 8f bd 9d ca 3a 3e 67 55 36 be 50 57 51 be
       -0.07003529 0.18241353 -0.17806016 -0.20443463
0003f0 72 40 3a be f9 2e 6f bd af 0a 90 3d 09 7c cd bd
       -0.18188646 -0.058394406 0.07033288 -0.100334235

fc1.bias f4 [120]
000000 13 5d 2a be e2 31 aa 3c dc 60 0b 3e ed 45 de bd
       -0.16637067 0.02077574 0.13611168 -0.10853181
000010 da 24 ad b8 23 76 5c 3d 52 9e ac bd cb 9a 0c bd
       -8.256147e-05 0.0538236 -0.08428635 -0.03432731
000020 79 b3 ff bc e6 b2 29 3e f6 4a 93 bb cd 40 68 bb
       -0.031213509 0.1657215 -0.00449502 -0.0035439015
000030 1c 57 43 3d 72 e7 dd bd c2 61 34 3d a7 6a a0 bd
       0.047690496 -0.1083516 0.04403854 -0.07832842
000040 8e a0 8a 3d 68 bf 0f bd 9e 00 8e bc b5 e8 7d 3d
       0.067689046 -0.03509465 -0.017334279 0.061989505
000050 41 ce cb bc 77 a8 94 bb b0 4c b2 bd cd 51 fd 3c
       -0.024878623 -0.004536684 -0.08706033 0.030922795
000060 08 8e 00 bd 25 dd b4 3d cc 7a 16 bc 3b ef 85 3c
       -0.03138545 0.088312425 -0.0091845505 0.016349426
000070 5b 3f 7d bd 38 4c 10 3d 2c 62 00 be 19 d5 bb ba
       -0.061828 0.035228938 -0.1253745 -0.0014330476
000080 a2 32 4b 3e a1 55 09 3b 62 32 b6 bc a5 bf cd bd
       0.19843534 0.002095558 -0.022240821 -0.10046319
000090 26 50 99 bd 97 0e e1 bd 2f 0a 24 3d 9a 2b b4 3c
       -0.0748599 -0.10989111 0.040048774 0.021993447
0000a0 bf f3 16 3d 60 dc 0e bd 1b 1d 50 bc 89 d3 3a bd
       0.03685355 -0.034878135 -0.012702252 -0.045611892
0000b0 8c a6 31 bd 0d 2e b3 3d 6b 44 c5 bd 5b b0 6b 3d
       -0.043371722 0.08749018 -0.0963219 0.057541233
0000c0 98 af 22 3d 16 6b 7c bd 36 07 6d bd 38 4c 74 3d
       0.03971824 -0.061625563 -0.057868205 0.059643
0000d0 f8 a3 81 3c af 09 27 bd a2 85 8e 3c 46 69 be bd
       0.015825257 -0.04078072 0.017397705 -0.09297423
0000e0 74 91 42 3c e1 59 61 bd 59 89 1d be 42 87 f3 bd
       0.011875499 -0.055017356 -0.15384425 -0.11891033
0000f0 23 88 0c bd 9d c5 0f bd a6 03 46 bd 9b e4 c3 bd
       -0.034309518 -0.035100568 -0.048343323 -0.095650874
000100 12 a4 9a 3d b5 91 42 3c 60 31 02 be fc 44 b6 bc
       0.07550825 0.01187556 -0.12714148 -0.022249691
000110 17 bd ca bc 29 dc e3 3d 48 cb a1 3d 13 1a 83 bd
       -0.024748368 0.111259766 0.07900101 -0.06401458
000120 d5 df 42 3e 52 8d b8 3c d9 00 ad bd bd 45 b2 bd
       0.19030698 0.022528324 -0.08447427 -0.08704708
000130 0f 78 ab bd 13 55 bb bd f6 09 0a 3d 36 28 07 3d
       -0.08372509 -0.09147086 0.033700906 0.032997333
000140 ed 43 0d be 35 1d 9c 3d 60 7e c3 3d d5 42 c3 3d
       -0.13795443 0.07622758 0.095455885 0.095342316
000150 a8 30 fe bd 13 ba 9b 3c 4c 62 50 bb 45 fa 98 bb
       -0.12411624 0.019009626 -0.003179687 -0.0046685063
000160 c7 8a a2 bd 37 20 67 bd 22 6a 54 3b 9b 47 ae bd
       -0.07936626 -0.056427207 0.0032411893 -0.085097514
000170 3e bb 3b bd 40 9a 2e 3e bb f9 0e bd 85 89 82 bd
       -0.045832865 0.17051029 -0.03490613 -0.06373886
000180 0a 45 d9 bd 6f d8 9b 3d c9 f3 b2 3c 5e 18 2f bd
       -0.10608871 0.07609641 0.021844761 -0.042747848
000190 1e 47 58 bd 72 57 2d bd 4e 35 cd bc e5 b0 b2 3b
       -0.052802198 -0.042319722 -0.025049832 0.0054532164
0001a0 95 e8 bf bd e8 c3 2a 3d de 9c 4d 3d 40 5f 45 3e
       -0.093705334 0.041690737 0.05019843 0.19274616
0001b0 16 8c 25 3d 48 26 b0 3c 9d 82 9d 3d 62 4f 98 bc
       0.0404168 0.021502629 0.07690928 -0.01859254
0001c0 e4 da 37 bd 61 52 5c 3c 18 a9 80 3c c8 a0 0f be
       -0.044886485 0.013447375 0.01570563 -0.14026177
0001d0 4c 2e 58 3d 43 e9 43 bb 86 bd 5f bd 75 d3 35 bc
       0.052778527 -0.0029893673 -0.054624103 -0.011097779

fc2.weight f4 [27, 120]
000000 a1 68 a0 be 10 23 84 bd b6 2b ba bd 2d d4 fc bb
       -0.31329826 -0.06452 -0.090903684 -0.007715723
000010 41 15 8f 3d 95 63 e0 bd 29 98 2c be d0 b5 a8 bd
       0.06986476 -0.10956494 -0.1685492 -0.08237803
000020 02 ba d8 be a4 de d5 3b 9d 5c b0 be 62 f0 3b be
       -0.42329413 0.006526785 -0.34445658 -0.18353418
000030 b3 26 c7 bd 61 d1 73 bd 40 04 86 be aa 25 84 3d
       -0.09724178 -0.05952585 -0.26175117 0.06452496
000040 e5 8d 1e be 5e c0 6e bd 4a fb 55 bd b1 c2 4a bd
       -0.15483816 -0.058288924 -0.0522416 -0.04950208
000050 1a 93 f7 bd f2 ea 9f be 03 d7 05 be 43 bb d0 bd
       -0.12088604 -0.31233937 -0.13070302 -0.10191967
000060 a4 6e 5e be 6c 3e 67 bc 94 c1 3d be 18 29 d5 bd
       -0.21721894 -0.014114004 -0.18530875 -0.10408229
000070 bf 58 3b bd ae f9 f7 bd cb 8d a9 bd 88 7a d8 bd
       -0.04573893 -0.121081695 -0.08278998 -0.10570246
000080 73 04 3c be 84 e9 1e be 18 bd c8 bd ad ed 6e be
       -0.18361072 -0.15518767 -0.09801692 -0.23332854
000090 22 44 ce bc 4f 10 9e bd 39 dd 0c be 6f 1f 3f 3d
       -0.025178973 -0.07717954 -0.13756265 0.046660837
0000a0 05 36 95 bd af a7 af bd fa 31 fa bd 44 a0 ce bd
       -0.07285694 -0.08576905 -0.122165635 -0.10089162
0000b0 c1 fa 35 3d e4 9b 58 be 8f 68 0c be 6d 66 37 be
       0.04442859 -0.21153218 -0.13711761 -0.17910166
0000c0 f5 df 25 be 99 9d 01 be 0a c5 d5 bd 5d b0 20 be
       -0.16198714 -0.12657775 -0.10437973 -0.15692277
0000d0 e7 5c 4d 3c c5 b1 8a 3c 2d 3e bb bd bb b2 de bd
       0.012534357 0.01693047 -0.091427185 -0.10873934
0000e0 3d a3 d6 bd 43 0a 11 be d2 10 04 be 33 73 ef bd
       -0.10480354 -0.14164071 -0.12897041 -0.116918944
0000f0 95 9c 20 3c b8 61 c5 bd 3a 01 2a be e8 e9 eb bd
       0.009802957 -0.09637779 -0.1660203 -0.115192235
000100 71 0b 36 be c1 59 64 3d 16 2a 1e be 06 0f 3b be
       -0.17777802 0.05574966 -0.15445742 -0.1826745
000110 60 8d 24 bf 5d 23 27 bd 22 e9 7b be d8 3b 1b be
       -0.6427822 -0.04080521 -0.24600652 -0.15159547
000120 cd dd f6 bd 4a 88 60 be b9 7b f6 bd 9a 08 d5 bd
       -0.12054024 -0.2192699 -0.12035317 -0.10402031
000130 6d cc 66 3b d8 2d 02 be e1 ee b0 bd 47 4c 70 bd
       0.0035217062 -0.127128 -0.086393125 -0.058666494
000140 d6 ef 96 be 60 6b d6 bd f1 02 cb bd c4 4f 17 be
       -0.29479855 -0.10469699 -0.099126704 -0.14776522
000150 8b 8a cc bd f1 14 4e be 03 c2 57 3d d2 a1 a1 3c
       -0.099873625 -0.20125176 0.05267526 0.019730482
000160 98 45 5f bd 9b c1 81 bd b9 51 d2 bd 8e 90 a6 be
       -0.05450973 -0.063357554 -0.102694936 -0.3253216
000170 d6 bd ea bd ca 9d b8 bd 9b 66 9e bd 5c f6 8d be
       -0.114619896 -0.09014471 -0.07734414 -0.2772702
000180 c7 f0 4a be 2b d0 25 bd e8 3c 52 bd 68 92 e4 bd
       -0.19818412 -0.040481728 -0.051327616 -0.11160737
000190 87 5e 41 bd 3a 02 6f 3d 28 91 38 be c6 08 bc bd
       -0.04720929 0.058351733 -0.18024123 -0.09181361
0001a0 56 b4 05 bd 7e 85 b6 bd da c7 11 be 15 f3 f2 bd
       -0.032642685 -0.0891218 -0.14236394 -0.118627705
0001b0 75 62 04 be 2e 08 ea bf d7 20 2f be 4a c6 26 be
       -0.12928183 -1.8283746 -0.17102371 -0.16286579
0001c0 44 16 5f bd d5 37 95 bd e6 3c eb bd 49 a1 ca bc
       -0.054464594 -0.0728604 -0.11486225 -0.02473511
0001d0 96 f3 02 be d9 ad 63 3c c3 42 28 be 9e e7 0d bf
       -0.12788233 0.013896429 -0.16431718 -0.55431545
0001e0 0d 86 9f bd ac 4f a1 3c d1 42 67 3d da 37 95 bd
       -0.0778924 0.01969131 0.056460205 -0.072860435
0001f0 50 39 ba bd 45 ef 9f bd 6e 25 65 be cb dd da 3d
       -0.09092963 -0.07809309 -0.2237756 0.10686835
000200 51 af cc be 29 8c 66 3e ad 73 4e be 1f bd 8c 3d
       -0.39977506 0.22514404 -0.20161314 0.068720095
000210 f1 22 1e 3e 73 e0 3a be 5c 18 94 be b9 7e 38 bd
       0.15443017 -0.18249683 -0.28924835 -0.045042727
000220 71 ae ea bd a1 47 a3 3d b9 7d e6 3c 75 a9 c3 be
       -0.11459053 0.079726465 0.028136121 -0.38215223
000230 0f a9 0e 3a f1 07 e0 bc 72 e9 d4 bd 1c f2 ca 3c
       0.0005442062 -0.027347537 -0.10396089 0.02477365
000240 b9 de 8c be c7 29 14 3c 44 c7 07 be d6 3c 1b be
       -0.27513674 0.009043164 -0.13259608 -0.15159926
000250 d2 dc 35 3e 9c d4 80 bd 49 69 05 be 7a 58 29 3d
       0.17760018 -0.06290552 -0.13028444 0.041344143
000260 15 06 b6 3d 22 19 5b be e6 b2 13 bd 24 da 93 3e
       0.08887879 -0.21396306 -0.036059283 0.28877366
000270 c8 fc 8c 3d 9d 53 1f be b5 15 ef 3d a4 5d e0 bc
       0.06884152 -0.1555924 0.11674062 -0.027388401
000280 b9 22 da 3d 9b c7 74 be 15 38 84 be d8 92 f7 3d
       0.10651154 -0.23904268 -0.25824037 0.12088555
000290 fc be 1e 3b c8 e6 66 3e b7 1f db 3d 49 4b 21 be
       0.0024222722 0.22548974 0.106994085 -0.15751375
0002a0 b8 8c 07 be 81 f2 60 3e c4 9c be 3d be 8b 47 3e
       -0.13237274 0.21967508 0.093072444 0.19486901
0002b0 ce 72 39 bd a1 7a 00 bd dc 46 8b 3d 84 9c ba 3d
       -0.045275502 -0.031366948 0.06800625 0.09111884
0002c0 57 6e d5 3d 54 07 87 3d 70 63 be be 46 ba aa 3d
       0.10421436 0.065931946 -0.3718524 0.0833631
0002d0 a1 1f 2d bd 6a 3c d3 bd a7 9f ba 3d c4 a2 07 3e
       -0.04226649 -0.103142574 0.091124825 0.13245684
0002e0 b6 3e 96 3d 90 d8 dd 3b 82 1b ba 3d de 50 0f be
       0.0733618 0.006770201 0.09087278 -0.13995692
0002f0 a9 60 97 bc 88 d5 53 bc 2e 63 4f bd 9a 1f 73 bd
       -0.018478708 -0.012929328 -0.050631694 -0.05935631
000300 71 42 72 3d 3a cb 31 be 2e a4 d0 bd 44 33 06 bd
       0.059145395 -0.17362681 -0.10187565 -0.032763734
000310 bb 52 44 bc 12 9f a0 bd 35 ae 35 3e 42 e3 15 be
       -0.011982615 -0.0784284 0.17742236 -0.14637473
000320 47 df cc be 39 ea 3c be 17 d9 94 bd 52 4a 8d 3d
       -0.40014097 -0.18448724 -0.07267969 0.06898941
000330 1d b7 1f 3e 41 53 46 be 8d f6 8b bc 26 cb d8 bd
       0.15597196 -0.19367696 -0.017085338 -0.105856225
000340 7a 82 49 bd a7 7c 10 bd 7e bf 2b 3d 8a 0e 83 bd
       -0.049196698 -0.035275128 0.041930668 -0.063992575
000350 14 69 ad 3d 26 d8 c7 bb 7e 0e 76 be 2e 70 ad 3b
       0.08467308 -0.006098765 -0.24028966 0.005292914
000360 5b d8 3c be 4e 91 b8 3d 3d 41 6a be 73 84 dd bd
       -0.18441908 0.0901209 -0.22876449 -0.10816278
000370 21 06 16 3c 0d 9e 63 3d 1e 64 2b be ae 28 c3 3d
       0.009156735 0.05557065 -0.1673741 0.095292434
000380 41 0c ef bc 6f 08 24 bc 92 ff 8e 3d c6 bf 74 3c
       -0.029180648 -0.010011776 0.0698234 0.0149383005
000390 55 83 c0 bd e7 66 72 3d 22 4f 1b bd 05 48 8f 3c
       -0.094000496 0.059180167 -0.037917264 0.017490396
0003a0 ff ad 5b bd 00 5e 86 3e f8 b2 6f bd aa d5 33 3d
       -0.053632732 0.2624359 -0.058520287 0.043904938
0003b0 ec 3f f1 3c a6 b0 f7 3c 5a 8e d1 be 9e 86 b1 3e
       0.029449426 0.0302356 -0.40928918 0.34673017
0003c0 7c e7 2f bc 27 26 0c 3e 26 a3 96 3e 18 00 2c 3d
       -0.0107363425 0.13686429 0.29421347 0.041992277
0003d0 ee 24 c9 bd 34 97 0b 3e d7 1c 95 be ce 1e 99 bd
       -0.09821497 0.13631898 -0.29123566 -0.07476579
0003e0 d7 d5 92 bd c9 6a 7b bd ae e4 18 3d 63 2d a5 3c
       -0.07169693 -0.061381135 0.03732746 0.020163244
0003f0 ff a8 7f be 23 fb f6 3d 95 fe b6 be 7f 09 42 bd
       -0.2496681 0.12059619 -0.35741106 -0.047372337

fc2.bias f4 [27]
000000 db c2 5a 3c d9 8a dd bb 65 8d 8c 3d 27 23 19 3b
       0.013352121 -0.0067609367 0.06862906 0.00233669
000010 a2 8d 86 3c e1 00 dd bc 2b 7c 18 bd 5e d2 a9 3d
       0.016424958 -0.026977958 -0.03722779 0.082920775
000020 d5 d3 1a 3d c4 d7 61 3d e9 83 8c bd 1d 4f 05 3e
       0.037799675 0.05513741 -0.06861097 0.1301846
000030 dc 6c a7 bd 64 f2 29 3d 56 75 d1 bd 55 75 04 be
       -0.0817506 0.041490927 -0.10227458 -0.12935384
000040 06 e0 6f 3d fc e6 b1 3d 39 ef 71 bd 93 c9 cc bd
       0.058563255 0.08686635 -0.05906603 -0.09999385
000050 c5 3b 45 be 97 e3 d5 bc f6 d2 82 3d d4 cc 17 3d
       -0.19261082 -0.0261095 0.06387894 0.037060574
000060 59 01 db 3b 53 49 67 3d c9 dc 74 3d
       0.0066835103 0.05646641 0.05978087
