Interface/LeNet_4.pth (torch, 206523 bytes, 8 tensors)

conv1.weight f4 [4, 1, 5, 5]
-0.45007777 -0.02572002 0.43858305 0.4655246 0.34419826 -0.13598701 0.5316073 0.3906923
0.32356808 -0.06971966 0.2325495 0.45849833 0.18637939 -0.02466659 -0.4610271 0.21264254
0.35315704 -0.15214555 -0.49454644 -0.6158496 0.05549955 -0.24617372 -0.4176958 -0.2193053
-0.17482772 -0.01842879 -0.049051963 0.11930435 -0.08349839 -0.44094643 0.09407287 0.1233487
0.19141431 -0.37709692 -0.6858307 0.2715926 0.4525324 0.4756304 -0.03559148 -0.3376737
0.12645091 0.24073373 0.31624058 0.22345136 0.1533156 0.0005050049 0.18049784 -0.059339866
0.098050036 -0.08825393 0.04745368 -0.23227084 0.0074217916 0.0046006585 0.039806485 -0.44546524
-0.22482458 0.051282406 -0.03593655 -0.081641205 -0.4589395 -0.19352645 0.21074083 0.12026126
-0.11805585 0.1226509 0.16108605 0.37099707 0.23980817 0.14670724 0.23034346 0.28982034
0.3511208 0.32443738 0.15553375 0.09051728 0.14978608 -0.25368163 -0.2919038 -0.0077892505
-0.23595536 0.106169455 -0.1958034 0.13550514 -0.22588192 -0.0509128 0.18995565 0.43358818
0.26344463 0.096681744 -0.12055072 0.45462623 0.44110018 0.3412633 0.22318003 -0.62162584
0.0705198 0.2952008 0.31734568 -0.052204788
00000000: 9870 e6be cbb2 d2bc f58d e03e 3e59 ee3e
00000010: c13a b03e 2e40 0bbe 6a17 083f d208 c83e
00000020: b7aa a53e 2ec9 8ebd 7521 6e3e 4bc0 ea3e
00000030: 3dda 3e3e 9711 cabc be0b ecbe f7be 593e
00000040: 00d1 b43e 0bcc 1bbe 3135 fdbe 52a8 1dbf
00000050: 7f53 633d f714 7cbe 39dc d5be 9291 60be
00000060: 0a06 33be f9f7 96bc b6ea 48bd d755 f43d
00000070: 3401 abbd bbc3 e1be 47a9 c03d 3e9e fc3d
00000080: 1d02 443e d912 c1be 9a92 2fbf 2f0e 8b3e
00000090: 54b2 e73e d485 f33e 5fc8 11bd 91e3 acbe
000000a0: 597c 013e e782 763e 49ea a13e 6fd0 643e
000000b0: c4fe 1c3e 4e62 043a 6dd4 383e 5c0e 73bd
000000c0: 75ce c83d 7abe b4bd ca5e 423d 68d8 6dbe
000000d0: 8032 f33b 1fc1 963b 200c 233d 0514 e4be
000000e0: 6a38 66be 800d 523d 3432 13bd 8133 a7bd
000000f0: 1efa eabe cc2b 46be 72cc 573e 894b f63d
00000100: 44c7 f1bd 6530 fb3d bef3 243e 54f3 bd3e
00000110: 4690 753e 6c3a 163e 28df 6b3e 5563 943e
00000120: 1bc6 b33e a81c a63e 3d44 1f3e 2061 b93d
00000130: 8661 193e 8fe2 81be 6a74 95be f83c ffbb
00000140: 489e 71be 5f6f d93d b080 48be dcc1 0a3e
00000150: 974d 67be f189 50bd bc83 423e 45ff dd3e
00000160: 37e2 863e 1401 c63d 4ce3 f6bd c5c4 e83e
00000170: e2d7 e13e 10ba ae3e 4e89 643e df22 1fbf
00000180: af6c 903d 8f24 973e 227b a23e b0d4 55bd

conv1.bias f4 [4]
0.13839947 0.4598134 0.43239483 0.62737125
00000000: 97b8 0d3e a96c eb3e db62 dd3e 679b 203f

conv2.weight f4 [16, 4, 5, 5]
0.12543401 0.07731184 0.015729398 -0.27760088 -0.25725612 -0.050664302 -0.032224234 -0.17844805
-0.6925042 -0.050350033 0.05790647 0.12582892 -0.017591184 -0.7911807 0.15059808 0.10511276
0.18771678 -0.24685653 -0.19636974 0.16287115 -0.18129727 -0.083915904 -0.3139676 0.0759203
0.25976908 0.095975995 0.039429247 -0.023470948 -0.30664048 -0.15658693 0.144503 0.054729372
-0.07098175 -0.4274898 -0.07931213 0.06438873 -0.025839614 -0.05334424 -0.31528622 0.10041143
-0.0443469 0.09207221 -0.17683035 -0.24746503 0.18009487 -0.1394526 0.06558567 -0.11153922
-0.120548174 0.039789397 0.071751624 0.04195617 -0.34108692 -0.32900596 0.0418999 -0.030843198
-0.018208008 -0.38651603 -0.15014826 -0.02075861 0.031968858 -0.031637706 -0.2867973 -0.08034213
0.1256846 -0.03521533 0.05778507 -0.18159737 0.03606747 0.16608083 0.16564086 0.10797131
-0.00070875767 0.19346674 -0.0022421007 0.07105599 0.11804276 -0.3166645 -0.37869576 -0.079944015
0.083839424 0.17461038 -0.43832082 -0.23767777 -0.046118595 0.06503681 0.059976865 -0.3510107
-0.05049365 0.14994644 -0.05129784 -0.121038355 -0.19615933 0.11145643 0.020895476 0.09733414
0.058300205 0.07322756 0.06761523 0.06424587 0.023001004 0.12429178 -0.04629695 0.18940124
0.28459796 -0.05552216 -0.071332365 -0.07195842 -0.020539226 0.10093468 -0.2947617 -0.12530936
-0.22978064 -0.07939191 0.18209347 -0.23289703 -0.2788879 -0.3108752 -0.4328918 -0.2372502
-0.35300535 -0.13544261 -0.14223634 -0.07954546 0.07517997 -0.017691763 0.038583733 -0.17555034
-0.025378155 -0.11544964 0.10056077 0.11500427 -0.12932861 0.015904736 0.04879891 0.0017499771
0.14508985 -0.06684035 -0.23389122 -0.23061758 0.0020913526 0.10439205 0.072659716 -0.10507002
-0.17838939 -0.07246515 -0.016792577 0.13164578 0.18152031 0.15335678 0.14427249 -0.060449764
-0.05260674 0.09183798 0.1649682 0.0026454695 0.00583159 -0.20455591 -0.0066831615 0.072010815
0.030386275 0.051724304 -0.18537825 -0.20393199 -0.41458568 -0.07860325 0.01626251 -0.021605482
0.061155956 -0.014631202 -0.008804295 0.16006066 0.13350031 0.0078019905 0.035736747 0.13648087
0.07961726 -0.0038141112 -0.04311726 0.14147383 0.1524815 -0.056880813 -0.250773 0.11412907
0.2029725 0.082243875 0.12865281 -0.14432965 -0.1904586 -0.17656028 -0.0067307195 0.15689063
0.081028186 -0.13514458 -0.12865657 -0.029117761 0.16635871 0.06072004 0.15057057 0.029577777
-0.022064386 -0.009875179 0.11933509 0.085651346 -0.040513013 -0.18359062 -0.14544909 -0.07882933
-0.03836681 0.014180651 -0.18029849 -0.14067405 -0.23323068 -0.21661319 -0.019468853 0.06695275
0.15582484 0.18004401 -0.076284215 -0.16440411 -0.08582482 -0.07761288 -0.08330065 0.04868242
0.08936934 -0.017092207 0.04062469 -0.005290803 -0.08430365 0.018240368 -0.08641434 -0.010369673
-0.10351911 0.07424742 -0.017166654 0.089743435 0.20196885 0.116286725 0.17377113 0.05277961
-0.008796374 -0.1046516 0.014703597 0.12430455 0.2768948 -0.107711 -0.10095936 -0.27226904
-0.24088565 -0.19506514 0.108998775 0.069760256 -0.045267943 -0.010799196 -0.07191363 0.09358586
00000000: c671 003e ac55 9e3d f0da 803c b421 8ebe
00000010: 13b7 83be 5f85 4fbd 8ffd 03bd 16bb 36be
00000020: f547 31bf d63b 4ebd 562f 6d3d 4cd9 003e
00000030: 631b 90bc d18a 4abf 6236 1a3e 5c45 d73d
00000040: d438 403e f5c7 7cbe 2615 49be b2c7 263e
00000050: fea5 39be 1adc abbd 5cc0 a0be 1a7c 9b3d
00000060: 7400 853e 108f c43d 9080 213d 2546 c0bc
00000070: fbff 9cbe 5358 20be 98f8 133e e82b 603d
00000080: e15e 91bd f1df dabe 666e a2bd 3dde 833d
00000090: 99ad d3bc 7d7f 5abd 326d a1be 82a4 cd3d
000000a0: 18a5 35bd 5b90 bc3d 0413 35be 7967 7dbe
000000b0: ca6a 383e aacc 0ebe c851 863d ad6e e4bd
000000c0: f6e1 f6bd 35fa 223d 84f2 923d 3cda 2b3d
000000d0: f2a2 aebe 7873 a8be 3b9f 2b3d e0aa fcbc
000000e0: f628 95bc 6ee5 c5be 77c0 19be f60d aabc
000000f0: c7f1 023d 8a96 01bd 19d7 92be 6a8a a4bd
00000100: 77b3 003e f33d 10bd 0ab0 6c3d a9f4 39be
00000110: 7cbb 133d 1811 2a3e c29d 293e 1020 dd3d
00000120: eccb 39ba 251c 463e 35f0 12bb ce85 913d
00000130: 67c0 f13d d921 a2be 69e4 c1be b0b9 a3bd
00000140: 01b4 ab3d 10cd 323e 966b e0be cd61 73be
00000150: dae6 3cbd 0532 853d 4daa 753d adb7 b3be
00000160: 6ed2 4ebd 8f8b 193e af1d 52bd f5e2 f7bd
00000170: fedd 48be 4543 e43d fd2c ab3c 1f57 c73d
00000180: 32cc 6e3d 55f8 953d db79 8a3d 5793 833d
00000190: 9a6c bc3c b08c fe3d dfa1 3dbd 66f2 413e
000001a0: d3b6 913e 346b 63bd b416 92bd f05e 93bd
000001b0: e141 a8bc d7b6 ce3d 01eb 96be 1951 00be
000001c0: 9e4b 6bbe 3a98 a2bd b676 3a3e 8f7c 6ebe
000001d0: 65ca 8ebe 092b 9fbe fea3 ddbe b7f1 72be
000001e0: 1ebd b4be 78b1 0abe 67a6 11be bbe8 a2bd
000001f0: f5f7 993d 51ee 90bc fa09 1e3d 78c3 33be
00000200: d9e5 cfbc dc70 ecbd cef2 cd3d 5c87 eb3d
00000210: b86e 04be a64a 823c 5ee1 473d 7d5f e53a
00000220: 6f92 143e 98e3 88bd 2e81 6fbe 0427 6cbe
00000230: 130f 093b 80cb d53d 9ece 943d f32e d7bd
00000240: b5ab 36be 9c68 94bd 9690 89bc 27ce 063e
00000250: 76e0 393e 8f09 1d3e 2bbc 133e 2c9a 77bd
00000260: 2a7a 57bd 8d15 bc3d 6ced 283e 9d5f 2d3b
00000270: ec16 bf3b 1b77 51be 6cfe dabb 687a 933d
00000280: a3ec f83c dddc 533d ccd3 3dbe 8cd3 50be
00000290: 9344 d4be befa a0bd f538 853c fbfd b0bc
000002a0: ab7e 7a3d b6b7 6fbc e43f 10bc f1e6 233e
000002b0: 4eb4 083e d7a7 ff3b b260 123d a4c1 0b3e
000002c0: 600e a33d 2bf6 79bb b99b 30bd 84de 103e
000002d0: 1c24 1c3e dbfb 68bd 5265 80be 80bc e93d
000002e0: 06d8 4f3e 7a6f a83d 90bd 033e 27cb 13be
000002f0: 9407 43be 38cc 34be 5e8d dcbb f0a7 203e
00000300: 1bf2 a53d 5763 0abe 8cbe 03be 5f88 eebc
00000310: f059 2a3e 94b5 783d 2c2f 1a3e 184d f23c
00000320: 5fc0 b4bc 81cb 21bc f565 f43d f969 af3d
00000330: f9f0 25bd 2eff 3bbe 9bf0 14be 4671 a1bd
00000340: 8426 1dbd f655 683c 2ba0 38be dc0c 10be
00000350: 06d4 6ebe d9cf 5dbe 257d 9fbc 861e 893d
00000360: 8c90 1f3e 755d 383e e63a 9cbd 8d59 28be
00000370: ecc4 afbd 80f3 9ebd 8899 aabd 3867 473d
00000380: 4607 b73d f504 8cbc 1366 263d 795e adbb
00000390: 64a7 acbd d36c 953c 00fa b0bd 90e5 29bc
000003a0: d401 d4bd 080f 983d 15a1 8cbc 68cb b73d
000003b0: ecd0 4e3e bc27 ee3d 0ff1 313e 6f2f 583d
000003c0: ab1e 10bc 9453 d6bd 5be7 703c 6293 fe3d
000003d0: 28c5 8d3e 9697 dcbd c8c3 cebd d966 8bbe
000003e0: baaa 76be 28bf 47be c03a df3d 77de 8e3d
000003f0: e16a 39bd 1cef 30bc 7447 93bd f2a9 bf3d

conv2.bias f4 [16]
0.08127577 0.010361626 0.09275101 0.085468575 0.15354626 -0.084210455 -0.0031189232 -0.01824082
0.0892097 0.10354432 -0.16133095 -0.0051011313 -0.0816398 0.09352337 0.023815354 0.072298236
00000000: e973 a63d cfc3 293c 3ef4 bd3d 260a af3d
00000010: 3b3b 1d3e 8876 acbd d966 4cbb c66d 95bc
00000020: 93b3 b63d 0b0f d43d f133 25be 6427 a7bb
00000030: c432 a7bd 2e89 bf3d 6b18 c33c 1911 943d

fc1.weight f4 [120, 400]
-0.023939222 -0.08216896 0.00881776 0.024142953 0.081313804 -0.015787872 0.010993432 0.01954539
-0.10742665 0.062892765 0.118485495 -0.07502825 -0.0949467 -0.19751492 -0.025619857 0.018463735
-0.0803049 0.007489204 -0.042013686 0.0116383415 -0.031740595 -0.039063074 -0.023511495 0.08749768
0.060521003 0.032866836 0.07213625 0.077417836 -0.04156379 -0.060763236 0.33088112 0.019490505
0.034880612 -0.17802846 0.13960221 0.11916351 0.024913576 0.106661074 -0.088279046 -0.0014529768
0.112034515 0.031995676 0.014962531 0.1356632 0.020121172 -0.027194383 -0.005491419 -0.08340978
-0.068258785 0.07070239 0.259027 -0.040644042 -0.010793326 -0.10100839 -0.015606418 0.08198762
-0.12539698 -0.020710245 -0.057447523 0.10735237 0.062714905 0.1667683 0.008543975 0.104000896
0.01154605 0.06537814 -0.014960239 0.0149457045 -0.047451306 -0.023182387 0.11666721 0.04675162
0.020240106 -0.048408665 -0.03889974 -0.03307877 -0.022275666 -0.05578408 -0.2575518 0.10276616
0.21820815 -0.09602898 -0.020935902 -0.034748778 0.12063573 0.24798822 -0.07543944 0.05873472
-0.024728319 0.14364132 0.0659051 -0.086300336 -0.0026267068 0.056230716 -0.0059614214 -0.052544262
0.06737814 -0.02489574 0.027182665 0.0855939 0.0109616835 0.0081926 0.09573966 0.016346216
0.055010177 0.049033377 0.03906432 0.057683583 -0.034938928 -0.073430814 0.16409442 -0.0107833985
0.05856982 -0.10509767 0.004255351 -0.09005117 -0.045318443 0.08166463 -0.06545779 -0.01577207
-0.13516007 0.017890884 0.10379327 -0.0043548835 0.0042487937 0.00321284 -0.09955049 -0.09737388
-0.08808259 0.0019388251 -0.041782014 -0.028314702 0.049188256 -0.023654124 0.017525407 -0.011066804
0.099263154 -0.0017450387 0.084084824 -0.01892421 0.123678364 -0.0029868633 -0.036628403 -0.008616604
0.08460699 0.010403562 -0.040901497 0.03287048 0.03989707 -0.009001484 -0.027376316 -0.06122799
-0.104835145 -0.05975002 0.26327324 -0.014237042 -0.009712073 -0.11110404 -0.10692587 0.08883193
0.12010902 0.03510834 0.004144935 -0.30134737 -0.12059235 0.02734786 -0.044613104 -0.1208641
0.15732038 -0.23110743 -0.061841086 -0.062085733 0.0061632176 0.0645138 0.07082575 -0.005607744
0.08690954 0.035761766 -0.048160627 0.0059527257 0.17574395 0.058177106 0.02817816 -0.1871
0.05358145 0.25358403 -0.07276686 0.09434559 -0.02842121 0.13395675 0.093030505 0.07425643
0.09084077 0.018056177 0.09426933 -0.07671288 0.09349318 -0.019897172 -0.095700935 0.018497461
0.07719669 0.19995745 0.04418469 0.071127206 0.032414883 0.0003439461 0.03131299 -0.042165145
-0.06420118 0.02868399 0.024294063 0.04433411 -0.066547245 0.14557955 0.24946436 -0.02302354
-0.029659541 -0.014914461 0.00494102 0.093013205 0.140689 0.06771699 -0.059185114 -0.07930673
0.033260524 -0.040302478 -0.04946208 -0.119652 -0.04317939 0.007998744 -0.08190111 0.0054799286
-0.07101309 0.018685503 0.16706449 0.05764726 0.21125305 -0.044243403 -0.10806549 -0.010002937
0.08814781 0.0628518 -0.04198542 -0.27253792 -0.11184374 0.03017556 0.042654548 -0.06904329
-0.017415581 0.010878639 0.05804157 -0.107287616 0.016252946 0.088298425 -0.0006046907 -0.095708616
00000000: 301c c4bc 3348 a8bd 5e78 103c 71c7 c53c
00000010: da87 a63d 9155 81bc cc1d 343c a71d a03c
00000020: 8102 dcbd eccd 803d 86a8 f23d 69a8 99bd
00000030: 6a73 c2bd 5a41 4abe bce0 d1bc 4241 973c
00000040: e576 a4bd ff67 f53b 8b16 2cbd beae 3e3c
00000050: 6d02 02bd 9a00 20bd 2e9b c0bc fc31 b33d
00000060: dfe4 773d 609f 063d 2cbc 933d 3e8d 9e3d
00000070: cb3e 2abd dfe2 78bd 4069 a93e 8daa 9f3c
00000080: f9de 0e3d 184d 36be e2f3 0e3e 000c f43d
00000090: 8e17 cc3c 1f71 da3d a5cb b4bd d071 beba
000000a0: 5a72 e53d e60d 033d 6725 753c 4beb 0a3e
000000b0: 28d5 a43c c1c6 debc 5df1 b3bb bfd2 aabd
000000c0: 43cb 8bbd 6acc 903d 309f 843e 5e7a 26bd
000000d0: 7ed6 30bc 7ddd cebd 10b2 7fbc 20e9 a73d
000000e0: 1168 00be 88a8 a9bc 184e 6bbd 8fdb db3d
000000f0: ac70 803d 4fc5 2a3e 07fc 0b3c 6cfe d43d
00000100: a52b 3d3c f9e4 853d ca1b 75bc d4de 743c
00000110: 4d5c 42bd fde8 bdbc 38ef ee3d a07e 3f3d
00000120: 94ce a53c 2a48 46bd 5555 1fbd 9b7d 07bd
00000130: 757b b6bc d97d 64bd d4dd 83be 1177 d23d
00000140: f571 5f3e d8aa c4bd c581 abbc bc54 0ebd
00000150: de0f f73d a0f0 7d3e fe7f 9abd d193 703d
00000160: 0b93 cabc b616 133e 41f9 863d 3bbe b0bd
00000170: d424 2cbb 2e52 663d 0758 c3bb a738 57bd
00000180: 8dfd 893d 27f2 cbbc 2eae de3c db4b af3d
00000190: a298 333c 413a 063c 2813 c43d 80e8 853c
000001a0: 5a52 613d 39d7 483d e901 203d 9f45 6c3d
000001b0: 1f1c 0fbd e562 96bd 5e08 283e daac 30bc
000001c0: e8e6 6f3d 723d d7bd 7970 8b3b bf6c b8bd
000001d0: d59f 39bd c93f a73d bc0e 86bd 6e34 81bc
000001e0: 6767 0abe e78f 923c 9191 d43d 69b3 8ebb
000001f0: 7739 8b3b 838e 523b 21e1 cbbd f56b c7bd
00000200: a564 b4bd 2d20 fe3a 9e23 2bbd 3cf4 e7bc
00000210: a079 493d 4bc6 c1bc 7191 8f3c 8a51 35bc
00000220: 7b4a cb3d c8b9 e4ba aa34 ac3d f206 9bbc
00000230: 154b fd3d 40bf 43bb aa07 16bd a82c 0dbc
00000240: 6e46 ad3d b473 2a3c 5488 27bd 32a3 063d
00000250: 1c6b 233d f67a 13bc 4c44 e0bc 33ca 7abd
00000260: cfb3 d6bd 70bc 74bd c0cb 863e 7b42 69bc
00000270: 631f 1fbc 848a e3bd f3fb dabd 84ed b53d
00000280: b8fb f53d c3cd 0f3d 3cd2 873b 344a 9abe
00000290: 1ff9 f6bd 9f08 e03c 3bbc 36bd 9987 f7bd
000002a0: 9818 213e 6da7 6cbe 144d 7dbd 9c4d 7ebd
000002b0: d1f4 c93b d01f 843d 170d 913d 2bc1 b7bb
000002c0: a1fd b13d ee7a 123d 1444 45bd 150f c33b
000002d0: 39f6 333e 1e4b 6e3d e2d5 e63c 2497 3fbe
000002e0: 3978 5b3d c4d5 813e cb06 95bd 4338 c13d
000002f0: 99d3 e8bc f52b 093e c786 be3d c113 983d
00000300: ba0a ba3d 8cea 933c 4710 c13d a41b 9dbd
00000310: 5a79 bf3d 65ff a2bc dafe c3bd fd87 973c
00000320: 4c19 9e3d a5c1 4c3e 01fb 343d 24ab 913d
00000330: 78c5 043d aa53 b439 0d42 003d 5cb5 2cbd
00000340: e97b 83bd b0fa ea3c 5804 c73c af97 353d
00000350: ec49 88bd ce12 153e 9673 7f3e dd9b bcbc
00000360: 91f8 f2bc c95b 74bc 48e8 a13b b57d be3d
00000370: c710 103e 35af 8a3d 176c 72bd 916b a2bd
00000380: 303c 083d 3614 25bd c098 4abd 1c0c f5bd
00000390: dfdc 30bd 2a0d 033c c5bb a7bd f990 b33b
000003a0: 506f 91bd 5712 993c f412 2b3e 891f 6c3d
000003b0: b852 583e 9238 35bd 7151 ddbd 5ce3 23bc
000003c0: d786 b43d 72b8 803d e7f8 2bbd 178a 8bbe
000003d0: 550e e5bd bc32 f73c 89b6 2e3d 9266 8dbd
000003e0: 1fab 8ebc 523c 323c ffbc 6d3d 9cb9 dbbd
000003f0: e624 853c ced5 b43d 1b84 1eba e102 c4bd

fc1.bias f4 [120]
0.049196705 0.03749385 -0.07898515 -0.09177345 0.0069576716 -0.059289552 -0.034106888 0.11532306
0.081373364 -0.0070005828 0.0644455 0.10413605 0.095074505 0.11073098 -0.07278336 -0.0060853036
0.04425301 0.06508572 0.043553956 -0.1375724 -0.06090155 0.01890132 0.011759942 0.12639354
0.0044453624 -0.0012194692 -0.0744435 -0.026994715 -0.086058676 0.018165436 0.094714604 -0.04532275
-0.02672125 -0.059689123 -0.0068858033 -0.008763425 0.17404716 0.006369831 0.060279615 0.0010613714
-0.038247105 0.058549225 -0.080765404 0.09926468 0.01829431 -0.05046509 0.057489574 -0.020757038
-0.013950109 -0.07336884 -0.039819863 -0.042330384 -0.044457052 0.025408912 0.025319498 -0.001204179
-0.04108134 0.05823717 -0.07973066 0.014227423 0.11487681 0.07810018 -0.06858491 0.058897067
-0.04537953 0.12941556 -0.050297786 0.032811325 0.087214306 -0.02039322 -0.009842276 0.083430685
-0.07424614 0.044504926 -0.0049425242 0.014257044 0.019919816 0.026262682 0.007185924 0.15512565
0.04230701 -0.056090806 -0.029997367 -0.06263869 0.15301898 0.11568139 -0.043508176 -0.045407817
0.020840624 0.12767601 0.16584592 -0.06717019 -0.035951216 0.070371464 0.087429784 0.0031459024
-0.053915538 -0.063650176 -0.05624101 0.007998129 0.03911247 -0.088141635 -0.047791623 -0.0030287583
-0.057092465 0.08129662 -0.057575762 0.13319184 -0.028375598 -0.016588956 0.029945713 -0.022814969
-0.047833547 -0.056082517 0.084429204 0.12662672 0.13635375 -0.0073839054 -0.027240256 -0.0061922865
00000000: 7c82 493d 2793 193d f7c2 a1bd b8f3 bbbd
00000010: 2efd e33b 9ad9 72bd aab3 0bbd 7f2e ec3d
00000020: 14a7 a63d 2565 e5bb 01fc 833d 4845 d53d
00000030: 6cb6 c23d edc6 e23d 710f 95bd 3a67 c7bb
00000040: a542 353d a94b 853d a265 323d c7df 0cbe
00000050: e773 79bd f1d6 9a3c c6ac 403c 4f6d 013e
00000060: 67aa 913b 99d6 9fba d575 98bd 0524 ddbc
00000070: 883f b0bd aecf 943c bbf9 c13d 59a4 39bd
00000080: 86e6 dabc 957c 74bd 4ea2 e1bb 7894 0fbc
00000090: 6b39 323e 04ba d03b c2e7 763d b71d 8b3a
000000a0: ffa8 1cbd 50d1 6f3d 5568 a5bd 484b cb3d
000000b0: f3dd 953c 7bb4 4ebd 307a 6b3d aa0a aabc
000000c0: ff8e 64bc 6742 96bd 271a 23bd a062 2dbd
000000d0: 9918 36bd 5a26 d03c d66a cf3c 8bd5 9dba
000000e0: e844 28bd 198a 6e3d d449 a3bd 231a 693c
000000f0: 8844 eb3d fdf2 9f3d 3f76 8cbd 0d3e 713d
00000100: e3df 39bd 8385 043e 0d05 4ebd 2b65 063d
00000110: 6a9d b23d af0f a7bc 7f41 21bc b5dd aa3d
00000120: 5c0e 98bd cc4a 363d e6f4 a1bb 6096 693c
00000130: e22e a33c d624 d73c e677 eb3b 42d9 1e3e
00000140: 1e4a 2d3d 79bf 65bd 0abd f5bc b748 80bd
00000150: 02b1 1c3e 5dea ec3d a135 32bd 8cfd 39bd
00000160: f5b9 aa3c 80bd 023e 83d3 293e 8690 89bd
00000170: 9541 13bd ea1e 903d 630e b33d 7c2b 4e3b
00000180: 8ad6 5cbd 065b 82bd f95c 66bd 960a 033c
00000190: 6634 203d 9a83 b4bd 26c1 43bd 227e 46bb
000001a0: cad9 69bd d87e a63d 90d4 6bbd 7163 083e
000001b0: f173 e8bc 90e5 87bc b650 f53c 75e6 babc
000001c0: 1ced 43bd c8b6 65bd 38e9 ac3d 6faa 013e
000001d0: 51a0 0b3e b0f4 f1bb f526 dfbc aae8 cabb

fc2.weight f4 [10, 120]
-0.10011717 -0.17889385 0.08785828 0.07098535 -0.03541281 -0.035335865 0.11674532 -0.27278408
0.07290981 -0.023839591 0.06788232 0.1323544 -0.028714705 -0.20747341 0.15256533 -0.06250609
-0.10098621 0.02926596 -0.10391448 0.06898341 0.18439728 0.057688236 0.099215545 0.10975878
0.025856683 0.17939463 0.086619936 -0.010103937 -0.07290464 -0.033725154 -0.08388907 -0.013060579
0.049063046 0.08156249 0.030940214 -0.2032347 -0.015230346 -0.1797281 -0.24917158 -0.048141126
-0.2112664 0.09523856 -0.08293563 0.059824176 -0.12400232 -0.016590042 0.14473547 -0.029950103
0.096905984 -0.041478965 -0.028173808 0.050110362 0.07684193 -0.037880827 -0.005435633 -0.117244266
0.007711732 0.112914704 -0.19477351 -0.031082219 0.021611666 -0.19003266 0.06499025 0.021091165
-0.16095823 -0.038412835 0.05239681 0.12938437 -0.13436872 0.07600999 0.13251087 -0.22443622
0.13448392 0.044985563 -0.011936338 0.1245398 -0.2283033 0.14558724 -0.27355495 -0.17338179
0.026339224 0.0023622322 -0.077487774 -0.11220356 -0.24527763 -0.033987753 -0.013173593 -0.102656394
0.10432976 0.06637479 -0.12984562 0.24354562 -0.07126923 0.045067847 0.15082367 -0.14393246
-0.22874276 -0.0052774446 -0.033338536 0.06633181 -0.28183064 -0.033115458 0.006417576 0.19676456
-0.12942243 0.0008564703 0.039447024 -0.0657395 -0.120271765 -0.0064682937 0.04337295 0.0228618
-0.18894114 0.004058261 -0.11295927 -0.06496052 0.3499589 0.19478571 0.09628883 -0.056074962
-0.050950866 0.14703184 0.03402543 -0.035834946 -0.003456667 0.027907275 -0.09307112 0.067664355
-0.16743074 0.033111583 -0.023332948 -0.09799085 -0.13235334 -0.013665957 0.033021115 0.008114885
-0.18686482 -0.051165383 0.05307701 0.14806922 0.11681966 -0.21069379 -0.024061894 -0.13098758
-0.04277812 0.18863676 0.1513236 0.0031923228 -0.07017447 -0.013346549 -0.13430206 0.059450682
0.13308628 0.009916045 0.08070576 -0.031691384 -0.10153557 -0.036126245 0.08175003 -0.17487407
0.031987704 -0.35534337 -0.006611104 -0.05109218 0.20250538 0.0600515 -0.10739767 -0.11785516
-0.048699014 0.023384558 -0.19101137 -0.06748744 -0.005577528 -0.14578325 0.068861954 -0.09831008
-0.0011590725 0.1160801 0.11122071 0.097440176 -0.024374394 -0.28667906 -0.098760545 -0.22746772
-0.026335957 -0.03554313 0.04168827 -0.15606134 -0.13922818 -0.028546318 -0.038864557 0.0884213
0.11516892 -0.12826875 0.009717119 -0.05852879 0.0472226 0.18623836 0.111053914 0.10839905
-0.13074648 0.23424907 -0.015217291 0.14335807 -0.11657783 -0.123296365 -0.055717982 0.14114414
-0.24603444 -0.07494806 -0.025541503 -0.24009693 0.070461795 -0.1337738 -0.01400745 0.0286801
-0.13065289 -0.041050658 0.00949621 -0.058357377 0.15622345 0.16476883 0.0048723365 0.20993379
0.115640216 -0.09556092 -0.08964498 -0.034803946 0.1608827 -0.01114706 -0.10294494 0.02352191
0.010026992 0.06511468 -0.35299528 -0.007002816 0.052384567 -0.22505482 -0.1545045 0.017302614
0.022629216 -0.14425643 -0.013682431 -0.14096545 0.011659559 -0.3571013 0.1341714 -0.09301606
-0.08584657 -0.09376288 -0.0545014 0.08631125 -0.079441674 -0.13899426 -0.0858913 0.045282766
00000000: 3b0a cdbd f32f 37be 0bef b33d c460 913d
00000010: 060d 11bd 57bc 10bd 2c18 ef3d 5baa 8bbe
00000020: bd51 953d 3f4b c3bc e305 8b3d e987 073e
00000030: 1a3b ebbc e973 54be 163a 1c3e 3103 80bd
00000040: dcd1 cebd 2bbf ef3c 1dd1 d4bd 2d47 8d3d
00000050: a4d2 3c3e 804a 6c3d 8531 cb3d 36c9 e03d
00000060: 65d1 d33c 3ab3 373e cb65 b13d fc8a 25bc
00000070: 074f 95bd 6323 0abd 08ce abbd 0afc 55bc
00000080: 55f6 483d 3c0a a73d 5576 fd3c c21c 50be
00000090: b388 79bc a50a 38be d626 7fbe a12f 45bd
000000a0: 3856 58be 6f0c c33d 28da a9bd 320a 753d
000000b0: eef4 fdbd d7e7 87bc 8935 143e eb59 f5bc
000000c0: a576 c63d d9e5 29bd c2cc e6bc 8640 4d3d
000000d0: 4d5f 9d3d ed28 1bbd 651d b2bb c31d f0bd
000000e0: b2b2 fc3b d33f e73d b572 47be 23a0 febc
000000f0: f30a b13c ec97 42be 9c19 853d 61c7 ac3c
00000100: 3cd2 24be c756 1dbd 0a9e 563d 567d 043e
00000110: f497 09be 20ab 9b3d eeb0 073e 9cd2 65be
00000120: 27b6 093e c842 383d a190 43bc b90e ff3d
00000130: 57c8 69be d214 153e 650f 8cbe ff8a 31be
00000140: 5bc5 d73c aecf 1a3b e9b1 9ebd fbca e5bd
00000150: 0f2a 7bbe be36 0bbd 0ed6 57bc 843d d2bd
00000160: d7aa d53d 82ef 873d 40f6 04be 0664 793e
00000170: 9af5 91bd 1099 383d 8571 1a3e 0863 13be
00000180: 8b3b 6abe 6aee acbb fd8d 08bd f9d8 873d
00000190: 1b4c 90be 13a4 07bd 884a d23b a67c 493e
000001a0: 5087 04be c084 603a 3493 213d 6ea2 86bd
000001b0: 0b51 f6bd fbf3 d3bb d6a7 313d ab48 bb3c
000001c0: c979 41be 29fb 843b 3157 e7bd 050a 85bd
000001d0: d02d b33e e875 473e 1433 c53d dcae 65bd
000001e0: dbb1 50bd 848f 163e 405e 0b3d aac7 12bd
000001f0: 4089 62bb cc9d e43c 129c bebd 9c93 8a3d
00000200: f772 2bbe 03a0 073d bd24 bfbc 6daf c8bd
00000210: a287 07be 2ee7 5fbc 2641 073d 4bf4 043c
00000220: 7e59 3fbe cb92 51bd 4767 593d 759f 173e
00000230: 253f ef3d 1dc0 57be 731d c5bc 9c21 06be
00000240: 1c38 2fbd ff29 413e 93f4 1a3e 4a36 513b
00000250: a2b7 8fbd 7cab 5abc 7b86 09be 8f82 733d
00000260: c547 083e e876 223c 1049 a53d d3ce 01bd
00000270: e2f1 cfbd 1df9 13bd 8f6c a73d 3012 33be
00000280: 8a05 033d 91ef b5be f6a1 d8bb 0946 51bd
00000290: 925d 4f3e 90f8 753d 4ff3 dbbd 0c5e f1bd
000002a0: 9e78 47bd f990 bf3c 7c98 43be db36 8abd
000002b0: b2c3 b6bb 3448 15be 7f07 8d3d cc56 c9bd
000002c0: 05ec 97ba 67bb ed3d afc7 e33d b78e c73d
000002d0: cfac c7bc 99c7 92be f842 cabd 4ced 68be
000002e0: 81be d7bc ac95 11bd 52c1 2a3d 8bce 1fbe
000002f0: d591 0ebe f8d9 e9bc 7130 1fbd 3a16 b53d
00000300: afdd eb3d e258 03be 8d34 1f3c e2bb 6fbd
00000310: 7c6c 413d 45b5 3e3e 3c70 e33d 5200 de3d
00000320: 68e2 05be fdde 6f3e f251 79bc 75cc 123e
00000330: 5bc0 eebd ce82 fcbd 8a38 64bd 1788 103e
00000340: 74f0 7bbe 5e7e 99bd 6a3c d1bc f8db 75be
00000350: 464e 903d 00fc 08be 817f 65bc 87f2 ea3c
00000360: dfc9 05be bc24 28bd fe95 1b3c 2508 6fbd
00000370: 0af9 1f3e 29b9 283e 1fa8 9f3b e2f8 563e
00000380: c7d4 ec3d 72b5 c3bd ca97 b7bd 958e 0ebd
00000390: 6fbe 243e 29a2 36bc ccd4 d2bd 05b1 c03c
000003a0: 4148 243c d85a 853d ccbb b4be e177 e5bb
000003b0: 3391 563d c574 66be 6d36 1ebe 36be 8d3c
000003c0: e860 b93c f5b7 13be 462c 60bc 3f59 10be
000003d0: bc07 3f3c fbd5 b6be 3a64 093e 347f bebd
000003e0: 54d0 afbd c106 c0bd dc3c 5fbd f4c3 b03d
000003f0: 51b2 a2bd 8354 0ebe c7e7 afbd 6c7a 393d

fc2.bias f4 [10]
-0.07070911 -0.056756437 -0.07524543 -0.009253062 -0.12273024 -0.054907817 0.009698617 -0.07939458
0.108123146 0.040748525
00000000: f0cf 90bd 7079 68bd 471a 9abd 289a 17bc
00000010: fe59 fbbd 05e7 60bd f3e6 1e3c a099 a2bd
00000020: ab6f dd3d ede7 263d
