Interface/LeNet_1.pth (torch, 14919 bytes, 6 tensors)

conv1.weight f4 [4, 1, 5, 5]
-0.02696486 0.07820399 0.067594856 0.17855266 0.15349936 0.16759223 0.34526968 0.6596128
0.24277702 0.114922546 0.22211295 0.31678906 0.1431906 0.31654772 0.4373344 -0.59149337
-0.55977803 -0.49820745 -0.33956644 0.221139 -0.3091055 -0.44044653 -0.5078498 -0.3246555
-0.30613625 -0.29533884 -0.18438272 0.01333727 -0.14275417 -0.38160312 -0.19923222 -0.17556469
-0.36505267 -0.36429167 -0.34033543 -0.26942176 -0.37175426 -0.37030694 -0.25358027 -0.3095859
-0.5156747 -0.20935018 -0.2644259 -0.24869439 -0.05251895 -0.056212198 -0.15695423 -0.003452415
0.1286643 0.1931432 0.14342624 0.053913556 0.36826357 0.38806972 0.3029165 0.45585206
0.50535023 0.40791258 0.3656063 -0.018791975 0.36505163 0.43443212 -0.039972708 -0.35170683
-0.47497967 0.3441802 -0.30952403 -0.5231779 -0.4702686 -0.30251965 0.003211668 -0.40799668
-0.31557357 -0.14413707 0.07638156 -0.1744535 0.1760361 0.060106788 -0.25080556 0.11044674
0.24812448 0.22028902 0.3101187 -0.17061482 -0.23335165 0.26292694 0.18057625 0.24362704
-0.12687446 -0.23050496 0.40784445 0.36832407 0.5059995 0.0054279114 -0.32725728 0.30746374
0.28423876 0.07175902 0.01942252 -0.03999753
00000000: 69e5 dcbc 6a29 a03d 2c6f 8a3d 82d6 363e
00000010: f02e 1d3e 4c9d 2b3e 30c7 b03e 62dc 283f
00000020: 8a9a 783e 835c eb3d 9471 633e 2d32 a23e
00000030: 8fa0 123e 8b12 a23e 4bea df3e 1c6c 17bf
00000040: 9d4d 0fbf 0c15 ffbe a7db adbe 4372 623e
00000050: 1343 9ebe 3582 e1be 7202 02bf 3f39 a6be
00000060: e4bd 9cbe a736 97be d3ce 3cbe 9184 5a3c
00000070: 262e 12be 7c61 c3be 8803 4cbe 3bc7 33be
00000080: 2fe8 babe 7084 babe 7240 aebe a6f1 89be
00000090: 9356 bebe df98 bdbe 46d5 81be 0b82 9ebe
000000a0: 4203 04bf e55f 56be d562 87be bea9 7ebe
000000b0: 1c1e 57bd c33e 66bd 9cb8 20be ea41 62bb
000000c0: 93c0 033e 55c7 453e 54de 123e 76d4 5c3d
000000d0: 0b8d bc3e 13b1 c63e df17 9b3e 7165 e93e
000000e0: a25e 013f ebd9 d03e c030 bb3e a1f1 99bc
000000f0: 0ce8 ba3e e36d de3e 6cba 23bd eb12 b4be
00000100: 8930 f3be 6338 b03e ef79 9ebe fdee 05bf
00000110: 0cc7 f0be dbe3 9abe d97a 523b f1e4 d0be
00000120: dc92 a1be ab98 13be ef6d 9c3d f0a3 32be
00000130: cf42 343e 8932 763d 9669 80be e731 e23d
00000140: 5814 7e3e 7293 613e e1c7 9e3e a7b5 2ebe
00000150: bcf3 6ebe 5c9e 863e fbe8 383e 5e79 793e
00000160: 61eb 01be 7e09 6cbe fdd0 d03e f994 bc3e
00000170: 2f89 013f 9fdc b13b 448e a7be e36b 9d3e
00000180: be87 913e 65f6 923d fa1b 9f3c 73d4 23bd

conv1.bias f4 [4]
0.22365017 0.363576 0.30092692 0.3982662
00000000: 8d04 653e a226 ba3e 1813 9a3e 8ce9 cb3e

conv2.weight f4 [12, 4, 5, 5]
0.067643546 0.077636085 0.16891456 0.37370437 0.33422145 0.22262737 -0.041653086 0.08706724
0.22379237 0.19526844 0.5721523 0.36464882 0.23823568 0.38632035 0.20489466 0.2146904
0.31840292 0.24354416 0.05730595 -0.0065965494 -0.31118262 0.04578433 0.2071791 0.12395603
-0.09710323 0.053486772 -0.11892272 0.07984703 0.14021191 0.02617938 -0.017430885 0.051346496
-0.021259245 0.070264935 0.10985889 0.11447138 0.044120632 0.114472575 0.163235 0.1161554
0.23049182 0.056115273 0.21726282 0.2004098 0.073919885 -0.077431105 -0.09677329 0.018293872
0.07612598 0.0012041013 -0.110803485 0.021418218 -0.022863556 -0.09119676 0.11567002 -0.017641827
-0.0983929 -0.034869015 0.07039901 0.15823993 0.05337598 0.11479702 0.2387088 0.21650726
0.133019 -0.104623795 0.048656046 0.22109878 0.2354356 0.103524044 -0.5864513 -0.48271674
-0.27362815 -0.09314112 -0.04168458 -0.012443858 -0.06789748 -0.22156566 -0.20035587 -0.25201157
-0.07093682 -0.01933216 -0.20905279 -0.26628417 -0.18887118 -0.38373244 -0.5232669 -0.33253163
-0.41202283 -0.26352468 -0.3031866 -0.5659598 -0.38694835 -0.3660452 -0.1165626 0.25752932
0.22769235 0.012554575 -0.08650129 0.23708352 0.054681037 0.30307814 0.5952841 0.31332284
0.12911673 0.03033595 -0.056017555 -0.023062887 -0.3075656 -0.2511483 0.307374 0.084581584
0.0682975 0.37445202 0.1927454 -0.05586211 0.03812091 0.14699851 0.22152075 0.17126814
0.0865803 0.012404399 -0.0035098877 -0.10341699 -0.08179585 -0.008580067 -0.1094076 -0.05988024
0.06290558 0.26961944 0.02047372 0.20721228 0.19748235 0.40794677 0.17276281 0.005779085
0.03518944 0.11350221 -0.05014736 0.08939414 -0.27051723 -0.44183367 -0.31294483 -0.07725142
0.009309057 -0.25535455 -0.34974018 -0.06989335 0.14295179 0.0848924 0.085151084 0.17926583
0.27734724 0.14650363 0.041126657 -0.035913263 -0.16957982 -0.21519238 -0.43252036 -0.2650505
-0.04700117 -0.264267 -0.040560003 0.044986464 0.089303896 0.111715734 0.2565458 0.22099736
0.06901543 0.09859366 0.14604108 0.020618537 -0.03557477 -0.044752315 0.076664105 -0.11737125
-0.25954166 -0.24928011 -0.29797763 -0.24731532 -0.004786703 0.04841406 -0.06290771 -0.00883263
-0.09167409 0.057303496 0.14214641 0.028651876 0.05037808 0.033593092 -0.074977644 -0.016443714
0.070409924 -0.04125188 0.097300425 -0.17880341 -0.21768801 -0.15237623 0.03290958 0.11229217
0.25301722 0.33316967 0.33294266 -0.05566062 -0.14352934 0.13737258 0.33853248 0.25479487
0.14928128 -0.24246582 0.095731065 0.13810271 0.21101554 0.19983952 -0.15686506 -0.11164224
-0.063605994 -0.04116585 -0.015841514 0.006714381 0.08259848 0.18045078 0.015053281 0.10518549
0.017506456 -0.15072556 -0.06530535 -0.08367287 -0.084922746 0.037830897 -0.019008366 -0.17241703
-0.17746384 0.027862862 0.075380206 -0.02583727 -0.31757697 -0.4267451 -0.055052273 0.031388965
-0.056374773 -0.24117619 -0.20133445 -0.140212 0.056794368 -0.08975609 -0.21555 -0.21536808
0.018741231 0.07817887 -0.10900979 -0.14848365 -0.38496992 -0.22585687 -0.3008471 0.009264465
00000000: b388 8a3d abff 9e3d f0f7 2c3e 2e56 bf3e
00000010: 131f ab3e 6ef8 633e 6d9c 2abd 4f50 b23d
00000020: d429 653e 73f4 473e 9378 123f 40b3 ba3e
00000030: 0ef4 733e c8cb c53e e8cf 513e cdd7 5b3e
00000040: b505 a33e a463 793e a5b9 6a3d de27 d8bb
00000050: 5453 9fbe 5a88 3b3d c226 543e a9dc fd3d
00000060: 0fde c6bd f214 5b3d c18d f3bd d786 a33d
00000070: b693 0f3e 2476 d63c 37cb 8ebc b450 523d
00000080: de27 aebc 10e7 8f3d b3fd e03d f96f ea3d
00000090: d6b7 343d 9970 ea3d 1327 273e e2e2 ed3d
000000a0: 0c06 6c3e 21d9 653d 257a 5e3e 3a38 4d3e
000000b0: 4f63 973d 3394 9ebd 1331 c6bd 08dd 953c
000000c0: f0e7 9b3d efd2 9d3a f0ec e2bd 4275 af3c
000000d0: 5a4c bbbc 5ec5 babd 67e4 ec3d 9885 90bc
000000e0: 3782 c9bd d0d2 0ebd 5b2d 903d a609 223e
000000f0: c6a0 5a3d b31a eb3d 1470 743e 14b4 5d3e
00000100: 2236 083e 0045 d6bd 904b 473d b867 623e
00000110: 0816 713e 6a04 d43d ac21 16bf a626 f7be
00000120: fd18 8cbe c6c0 bebd 73bd 2abd 53e1 4bbc
00000130: d60d 8bbd 1ce2 62be 172a 4dbe a907 81be
00000140: 5347 91bd 7a5e 9ebc ef11 56be 6656 88be
00000150: 7267 41be 9478 c4be d2f4 05bf 9641 aabe
00000160: a8f4 d2be b5ec 86be 463b 9bbe bee2 10bf
00000170: 181e c6be 476a bbbe 5fb8 eebd e2da 833e
00000180: 2f28 693e b4b1 4d3c 9727 b1bd 06c6 723e
00000190: 39f9 5f3d 0f2d 9b3e 8a64 183f da6b a03e
000001a0: 2d37 043e 1983 f83c aa72 65bd 61ee bcbc
000001b0: 3d79 9dbe 8396 80be 2060 9d3e 1c39 ad3d
000001c0: 8fdf 8b3d 2db8 bf3e 0d5f 453e abcf 64bd
000001d0: ac24 1c3d c786 163e 56d6 623e ea60 2f3e
000001e0: 0351 b13d d23b 4b3c 2506 66bb 49cc d3bd
000001f0: 9584 a7bd 6993 0cbc 1711 e0bd fc44 75bd
00000200: a4d4 803d 8f0b 8a3e 81b8 a73c 752f 543e
00000210: d038 4a3e 66de d03e bce8 303e 7b5e bd3b
00000220: cd22 103d d973 e83d 5167 4dbd 4614 b73d
00000230: 3c81 8abe 0638 e2be 4e3a a0be fe35 9ebd
00000240: 0485 183c d5bd 82be 2511 b3be 3f24 8fbd
00000250: f461 123e 11dc ad3d b163 ae3d 7691 373e
00000260: 7500 8e3e 0c05 163e 6d74 283d c919 13bd
00000270: 55a6 2dbe 645b 5cbe 4f73 ddbe b3b4 87be
00000280: 4d84 40bd 014e 87be 3f22 26bd ba43 383d
00000290: f6e4 b63d 38cb e43d f959 833e 224d 623e
000002a0: f657 8d3d 79eb c93d cb8b 153e 35e8 a83c
000002b0: dab6 11bd 344e 37bd 1202 9d3d 5760 f0bd
000002c0: a5e2 84be 4943 7fbe 8690 98be 3a40 7dbe
000002d0: c6d9 9cbb d24d 463d c2d5 80bd bcb6 10bc
000002e0: a0bf bbbd 12b7 6a3d d48e 113e 57b7 ea3c
000002f0: 3f59 4e3d e998 093d e18d 99bd f8b4 86bc
00000300: 1433 903d bbf7 28bd 7245 c73d 3e18 37be
00000310: 9be9 5ebe 8408 1cbe 32cc 063d 70f9 e53d
00000320: 798b 813e 3795 aa3e 7677 aa3e 64fc 63bd
00000330: 5bf9 12be 66ab 0c3e 2154 ad3e 7974 823e
00000340: 31dd 183e f648 78be a60e c43d cc6a 0d3e
00000350: 7514 583e bba2 4c3e 3ca1 20be b0a4 e4bd
00000360: dc43 82bd 869d 28bd 10c6 81bc 4f04 dc3b
00000370: 6429 a93d 17c8 383e 09a2 763c 7d6b d73d
00000380: b369 8f3c cd57 1abe d0be 85bd af5c abbd
00000390: faeb adbd 92f4 1a3d 6fb7 9bbc 178e 30be
000003a0: 15b9 35be a840 e43c f060 9a3d afa8 d3bc
000003b0: 7399 a2be 557e dabe 7e7e 61bd b791 003d
000003c0: 3ce9 66bd e4f6 76be 9e2a 4ebe bc93 0fbe
000003d0: 36a1 683d 0ad2 b7bd 24b9 5cbe 7389 5cbe
000003e0: 3687 993c 3e1c a03d 8640 dfbd 190c 18be
000003f0: c71a c5be 0647 67be a208 9abe fcc9 173c

conv2.bias f4 [12]
0.0033167554 -0.048444252 -0.003669704 0.08944336 0.15023935 -0.054746952 0.12056969 -0.06313491
-0.09717181 -0.022372553 0.02866757 0.001064365
00000000: ec5d 593b 7b6d 46bd 6b7f 70bb 152e b73d
00000010: 58d8 193e 573e 60bd 3eed f63d e04c 81bd
00000020: 0402 c7bd a546 b7bc 40d8 ea3c 2a82 8b3a

fc.weight f4 [10, 192]
-0.014328738 -0.030155761 0.13857272 -0.054932 -0.11753349 -0.27798098 0.16869277 -0.0024798086
-0.08240648 -0.29615474 0.07561137 -0.275156 0.019232024 -0.07592829 0.28614464 0.38051128
0.040581644 -0.04234607 -3.5860023e-05 0.08764682 0.06959821 -0.20215692 -0.26153898 -0.09030939
-0.16947599 -0.17798369 -0.08392658 -0.07438531 -0.028751759 0.054382134 -0.0011584967 0.051184446
0.12030058 -0.019654939 0.00010378222 0.13899356 -0.019344324 -0.08514502 0.039627686 0.11650334
0.0070912987 -0.0707056 -0.020942157 -0.008064174 -0.08323531 0.14128117 0.032920904 -0.0898136
-0.096078746 -0.010974666 0.07877866 -0.08056039 0.13269073 0.1239522 -0.08088472 0.02162131
0.17129946 0.074707404 -0.18781134 -0.0061220094 0.1909474 -0.0019035351 -0.06237194 -0.10187823
-0.08701324 0.042247698 0.082350016 -0.028998973 -0.22224824 -0.39760754 -0.2682479 0.24946447
0.0458038 -0.08072811 -0.026986916 -0.21998185 0.027683027 0.114628695 0.16260909 -0.076862834
0.07559101 -0.002228572 -0.024526708 0.054352075 0.017997092 0.096661404 -0.250337 0.03214766
-0.20709294 0.06288137 0.05653332 -0.062017612 -0.21425535 0.15333787 0.26744622 0.0077281343
-0.07677936 -0.104865246 -0.093761615 0.17509833 0.04659727 0.0054556387 -0.031307314 0.09059058
0.08689467 -0.06246456 -0.018560397 -0.09433011 0.012783883 0.005639817 -0.021201814 -0.23850751
-0.039268713 0.008081791 0.10797112 -0.19477408 -0.027944064 -0.0066307937 -0.01585476 -0.21977682
-0.05359189 -0.14197917 -0.10317573 0.033996657 -0.07815304 -0.12994803 0.042365037 0.19271033
0.060104918 0.17295593 -0.13464582 -0.2034367 -0.007656005 0.12653767 -0.079478346 -0.056010827
-0.043223582 0.045918204 -0.047024384 -0.105387524 -0.2248071 -0.05313993 -0.08034108 0.2016596
0.15691619 0.14440133 -0.05865155 -0.012105798 -0.07434173 0.038047597 0.04022893 -0.18697733
0.20840776 0.060066033 -0.014825546 -0.1577304 -0.28881627 -0.030664494 -0.016952433 0.048367184
-0.06359445 0.06744826 0.093575515 0.04657178 -0.14694278 -0.090171784 -0.1586893 -0.26018497
-0.1594412 -0.014737773 -0.13869432 -0.19462954 0.15165462 0.06996391 -0.026470171 -0.20254727
0.047758847 0.03248501 0.038495813 -0.20769969 0.055038646 0.04520689 -0.092178866 -0.10137337
0.08471832 -0.14935228 0.0018277458 0.161615 0.13036484 -0.1319366 0.10558214 0.22579752
-0.048730236 0.11798488 0.032165162 0.2504398 -0.085459635 0.21848783 -0.22539417 -0.10717901
0.047287013 0.15395285 -0.25553152 0.09098477 0.048165184 0.0659023 0.23315033 0.025259718
-0.005678113 -0.09704431 -0.049038786 -0.3908009 0.16459458 0.08244197 -0.123212665 -0.37223825
0.066109404 0.021231284 -0.16883013 -0.32049894 0.20744371 0.025802197 0.07492985 0.18410857
0.021061681 -0.12262973 -0.21961944 -0.17699929 -0.044670038 0.029524436 -0.14555947 -0.10637501
-0.17505984 0.025896145 -0.119305 0.07318585 -0.07189652 -0.008849748 0.036990315 0.09656458
-0.050179023 -0.14470895 0.26502377 -0.008322204 -0.112888336 -0.15615891 0.05249082 0.07919593
0.12208289 0.24886666 0.071241125 -0.06169887 0.17926718 0.062761284 0.123728566 0.043842785
00000000: 15c3 6abc 3709 f7bc 02e6 0d3e 6000 61bd
00000010: 66b5 f0bd 8653 8ebe ccbd 2c3e 4984 22bb
00000020: bbc4 a8bd 98a1 97be 22da 9a3d 3fe1 8cbe
00000030: 7a8c 9d3c 4b80 9bbd 8d81 923e 60d2 c23e
00000040: f038 263d 1373 2dbd 6868 16b8 2d80 b33d
00000050: 8289 8e3d 3902 4fbe 70e8 85be 21f4 b8bd
00000060: 1d8b 2dbe 5b41 36be b3e1 abbd 5357 98bd
00000070: cf88 ebbc cdbf 5e3d b3d8 97ba c8a6 513d
00000080: 2760 f63d 6503 a1bc a8a5 d938 5454 0e3e
00000090: fd77 9ebc 8360 aebd a450 223d 4e99 ee3d
000000a0: 205e e83b 19ce 90bd e38e abbc 991f 04bc
000000b0: 4677 aabd 03ac 103e 12d8 063d 31f0 b7bd
000000c0: efc4 c4bd 16cf 33bc b556 a13d d9fc a4bd
000000d0: 14e0 073e a7da fd3d e3a6 a5bd 2c1f b13c
000000e0: 2069 2f3e 3200 993d 9e51 40be 239b c8bb
000000f0: b787 433e 0a80 f9ba b879 7fbd 89a5 d0bd
00000100: ff33 b2bd ec0b 2d3d 20a7 a83d 418f edbc
00000110: 0b95 63be 3793 cbbe ca57 89be 9d73 7f3e
00000120: c49c 3b3d c854 a5bd aa13 ddbc ec42 61be
00000130: 84c7 e23c 73c2 ea3d ff82 263e 436a 9dbd
00000140: 76cf 9a3d 3c0d 12bb 3cec c8bc 48a0 5e3d
00000150: a36e 933c 6af6 c53d 2c2c 80be 44ad 033d
00000160: 2c10 54be f3c7 803d 7c8f 673d 2e06 7ebd
00000170: c165 5bbe 9a04 1d3e b6ee 883e 4a3c fd3b
00000180: 7f3e 9dbd 97c3 d6bd 1706 c0bd fa4c 333e
00000190: c7dc 3e3d 37c5 b23b 193c 00bd 8e87 b93d
000001a0: d5f5 b13d d7da 7fbd f90b 98bc 2530 c1bd
000001b0: 7e73 513c 37ce b83b 6daf adbc 503b 74be
000001c0: 3bd8 20bd 7d69 043c f61f dd3d db72 47be
000001d0: f3ea e4bc 2147 d9bb d7e1 81bc 2d0d 61be
000001e0: 2b83 5bbd fd62 11be cc4d d3bd 1440 0b3d
000001f0: b30e a0bd 1911 05be f686 2d3d db55 453e
00000200: 9330 763d 5c1b 313e 98e0 09be b651 50be
00000210: 3adf fabb 1793 013e 8bc5 a2bd 9c6b 65bd
00000220: 360b 31bd ba14 3c3d a49c 40bd 6ad5 d7bd
00000230: d533 66be 41a9 59bd dd89 a4bd db7f 4e3e
00000240: a3ae 203e f1dd 133e 9c3c 70bd 6657 46bc
00000250: 7a40 98bd ccd7 1b3d 17c7 243d fc76 3fbe
00000260: d868 553e cd07 763d d9e6 72bc 1484 21be
00000270: badf 93be 1b34 fbbc d4df 8abc ab1c 463d
00000280: cf3d 82bd 5022 8a3d 85a4 bf3d 0dc2 3e3d
00000290: 2b78 16be fcab b8bd 737f 22be f736 85be
000002a0: 8e44 23be b376 71bc e205 0ebe f74c 47be
000002b0: 594b 1b3e 3d49 8f3d f9d7 d8bc 8d68 4fbe
000002c0: c89e 433d 000f 053d c9ad 1d3d 3aaf 54be
000002d0: 3470 613d dc2a 393d 46c8 bcbd d79c cfbd
000002e0: cc80 ad3d ceef 18be f990 ef3a 677e 253e
000002f0: 5c7e 053e 631a 07be 733b d83d 7737 673e
00000300: 5b99 47bd 0fa2 f13d 9ebf 033d a539 803e
00000310: 7605 afbd 46bb 5f3e bbcd 66be ab80 dbbd
00000320: 07b0 413d d1a5 1d3e 07d5 82be 3956 ba3d
00000330: db48 453d c9f7 863d f6be 6e3e 78ed ce3c
00000340: 770f babb 2bbf c6bd e5dc 48bd 0e17 c8be
00000350: 7b8b 283e 56d7 a83d ec56 fcbd 0396 bebe
00000360: 5e64 873d 3bed ad3c cee1 2cbe 7018 a4be
00000370: 206c 543e 215f d33c d274 993d f586 3c3e
00000380: 8c89 ac3c 4c25 fbbd ebe3 60be 4d3f 35be
00000390: eef7 36bd 3bdd f13c 8b0d 15be 24db d9bd
000003a0: e342 33be 2724 d43c 2e56 f4bd 77e2 953d
000003b0: 7c3e 93bd 89fe 10bc 2883 173d a7c3 c53d
000003c0: 8588 4dbd 952e 14be 32b1 873e db59 08bc
000003d0: 0032 e7bd 1fe8 1fbe 9d00 573d 7a31 a23d
000003e0: 9806 fa3d e7d6 7e3e dee6 913d f4b7 7cbd
000003f0: d191 373e fd88 803d 6765 fd3d 7e94 333d

fc.bias f4 [10]
0.019409627 -0.14190061 -0.04641328 -0.023832157 0.121806026 -0.04122003 0.08248639 -0.1109503
0.13967593 -0.031718507
00000000: f000 9f3c 654e 11be da1b 3ebd a83b c3bc
00000010: 7075 f93d 56d6 28bd a0ee a83d e939 e3bd
00000020: 3507 0f3e 44eb 01bd
