Alphabet_Recognition/LeNet5/Boosted_LeNet4_models/model0.pth (torch, 214789 bytes, 8 tensors)

conv1.weight f4 [4, 1, 5, 5]
0.48807147 -0.25323656 -0.072543815 0.107927956 0.04935817 0.18103524 -0.76400065 -0.59533536
0.11131512 0.28935897 -0.36772004 -0.7149935 0.036807198 0.51674753 0.35128635 -0.3372132
-0.08805593 0.1451801 0.3878942 0.29716328 -0.11447807 0.22877152 0.39051542 0.035597928
-0.103233166 -0.049512852 0.012251969 -0.20741725 -0.37031698 -0.61169666 0.050266445 0.06452646
0.31904045 0.05323866 -0.0077090813 0.039744373 0.39782986 0.45606977 0.3727123 0.00664256
-0.31754315 0.27357966 0.21989414 -0.00023211978 0.054826517 -0.16056798 -0.023103755 0.2438705
-0.12786166 0.04677242 0.21082494 0.084621236 0.2627525 -0.13224295 -0.014259071 0.0008161405
0.46608785 0.27890685 -0.09843185 -0.3250334 0.40562546 0.42533916 -0.092332706 -0.6226234
-0.4188985 0.47459754 0.29289988 -0.07393027 -0.49051854 -0.4699387 0.36285037 0.10749107
0.036638495 -0.36955494 -0.043327834 0.1634782 0.17718412 0.36285254 0.10032582 0.1248997
0.046966612 0.13093407 0.4928795 0.392517 0.3409182 -0.021567423 0.15345572 0.2676171
0.17557499 0.44877043 -0.22213387 -0.27018753 -0.35755917 -0.34122863 -0.09950048 -0.45603573
-0.2014134 -0.3692583 -0.37156802 -0.09654329
00000000: 81e4 f93e 39a8 81be da91 94bd 5509 dd3d
00000010: cb2b 4a3d 4d61 393e 8c95 43bf e667 18bf
00000020: 2ef9 e33d dc26 943e cd45 bcbe d009 37bf
00000030: 25c3 163d 9149 043f cedb b33e 35a7 acbe
00000040: ab56 b4bd 18aa 143e 129a c63e c925 983e
00000050: 7a73 eabd 1543 6a3e a3f1 c73e 22cf 113d
00000060: e96b d3bd fdcd 4abd 7cbc 483c 3065 54be
00000070: 309a bdbe 2798 1cbf 30e4 4d3d 7326 843d
00000080: 4559 a33e c810 5a3d 769c fcbb ffca 223d
00000090: 5bb0 cb3e fa81 e93e 26d4 be3e d5a9 d93b
000000a0: 0495 a2be a212 8c3e ee2b 613e 2e65 73b9
000000b0: c591 603d ef6b 24be 1644 bdbc 30b9 793e
000000c0: 2bee 02be 7094 3f3d 7ee2 573e e64d ad3d
000000d0: 7f87 863e b26a 07be e19e 69bc 43f2 553a
000000e0: 11a3 ee3e e1cc 8e3e a396 c9bd c76a a6be
000000f0: 24ae cf3e 0ec6 d93e ee18 bdbd 3f64 1fbf
00000100: dd79 d6be 73fe f23e f9f6 953e c168 97bd
00000110: 3f25 fbbe ce9b f0be 86c7 b93e 4724 dc3d
00000120: 3f12 163d 4e36 bdbe 8778 31bd d466 273e
00000130: c16f 353e cfc7 b93e a077 cd3d 6acb ff3d
00000140: 1060 403d 9513 063e b45a fc3e fdf7 c83e
00000150: d58c ae3e 2aae b0bc 7f23 1d3e 1c05 893e
00000160: eec9 333e 3dc5 e53e 1077 63be 0556 8abe
00000170: ff11 b7be 85b5 aebe e8c6 cbbd 847d e9be
00000180: 503f 4ebe 6d0f bdbe 2a3e bebe 7db8 c5bd

conv1.bias f4 [4]
0.011507838 0.27716568 0.36317757 0.35933584
00000000: 5f8b 3c3c a9e8 8d3e 69f2 b93e defa b73e

conv2.weight f4 [16, 4, 5, 5]
-0.026703645 -0.08437219 0.09160442 0.037503455 -0.04289061 0.011053534 0.16289628 0.10804317
-0.18086855 0.0023502547 0.13793275 0.085557155 -0.2250883 -0.020280218 0.12756239 0.06054957
-0.26591018 -0.05834192 0.33063242 -0.07751099 -0.02663869 -0.37204924 0.16063072 0.03907102
-0.08699283 0.14104344 -0.0044350224 -0.048434917 0.13640365 0.19207479 0.00024211583 0.08262315
0.11951144 0.16691595 -0.0031785115 -0.08527659 0.04234899 -0.079073414 -0.06392357 -0.12709409
-0.11664793 -0.07548231 -0.083727516 0.02230029 -0.08888194 -0.026175564 0.05791624 -0.09345106
0.037994888 -0.01689609 -0.12699045 0.098230936 0.0146694435 -0.1167298 0.15482038 0.055500172
0.06530714 0.17036526 0.15035658 0.016975712 -0.07518613 0.111280456 0.2563164 -0.033071123
-0.09566848 -0.17586833 0.21655498 -0.047239408 -0.16828167 0.13053519 -0.1535452 -0.060048282
-0.13393798 0.22297345 0.07241549 0.034122843 0.049076203 -0.15739898 0.0053615863 0.023669848
-0.05909509 -0.13263303 -0.18859744 0.09083719 -0.0402834 -0.06336586 -0.09603052 -0.115206115
-0.16594405 -0.109599814 -0.11158156 -0.05748524 -0.06656804 -0.13518532 0.062150553 -0.06069729
-0.05461164 -0.0014373208 0.1279394 -0.026172353 -0.1399132 -0.38401484 -0.4026321 -0.007095499
0.07563875 -0.103058435 0.05078741 0.09636614 0.15247026 0.15428713 -0.09867577 0.1382898
0.109772615 -0.018792909 -0.17755134 -0.05450719 0.10496105 -0.12922503 -0.24367487 -0.31163788
-0.015610718 -0.1833131 -0.40310302 -0.17109203 -0.14130405 -0.017125342 -0.24227464 -0.6215311
-0.5342806 -0.3573646 0.14410608 -0.05909508 -0.01889209 -0.11707698 0.004918886 0.1489591
0.06749681 0.2209255 0.08124818 0.16445097 0.14720736 0.11588869 0.16056693 0.14228752
-0.040777896 0.186501 0.29916975 0.101030745 0.036124248 0.08251471 0.08743346 -0.055383813
-0.12833919 -0.34404644 -0.40785566 0.12700093 -0.22284517 -0.58969975 -0.33756337 -0.36706248
-0.054619174 -0.32140636 -0.13845056 0.09273665 -0.0068858606 -0.0696039 0.07775597 0.2276977
0.0017082451 0.041774232 -0.05715702 0.04853156 0.00376137 -0.046303894 0.113843285 0.012895396
0.0996813 -0.15954328 -0.35104316 -0.122485675 -0.4530518 -0.8188953 -1.0742341 -0.569191
-0.15066828 -0.17976591 -0.068814866 0.067409664 0.19711441 0.17059085 0.10831934 0.0071709114
0.18994784 0.07306553 -0.0029374943 0.062727325 0.09681903 0.0418268 0.16462411 0.030925222
0.012693418 0.1363048 0.20891419 0.11217915 -0.008321014 -0.037765123 0.12708597 0.11685433
0.11436135 -0.0061774296 0.09009558 -0.05754273 0.26263192 0.33542398 0.037283443 0.21062
-0.18190843 0.04284364 0.18598595 0.0806368 0.11528388 -0.036014546 0.006372548 0.05133648
-0.16395262 -0.109418996 -0.07583324 0.030341078 0.0876881 0.043826833 0.03425423 -0.043935727
-0.063305415 0.027985225 -0.1069546 0.15680365 0.013771274 -0.20359153 -0.015148688 -0.034860507
0.08088995 0.111982994 -0.22630572 0.041654717 0.0127672795 0.08622455 0.058876995 -0.0718307
0.03845231 0.05621265 0.19907916 -0.20655918 -0.11622816 0.031075133 0.045545246 0.1334798
00000000: 9ac1 dabc 54cb acbd 199b bb3d 399d 193d
00000010: 10ae 2fbd e219 353c 48ce 263e bd45 dd3d
00000020: 9b35 39be bb06 1a3b 3e3e 0d3e 9738 af3d
00000030: 8c7d 66be b322 a6bc b79f 023e d302 783d
00000040: 6125 88be f0f7 6ebd a748 a93e 15be 9ebd
00000050: 6239 dabc 3d7d bebe 617c 243e ef08 203d
00000060: 4c29 b2bd b16d 103e aa53 91bb b163 46bd
00000070: 66ad 0b3e 41af 443e 79e0 7d39 5336 a93d
00000080: 6ac2 f43d 04ec 2a3e 934e 50bb 7ea5 aebd
00000090: 2276 2d3d 3ef1 a1bd 5cea 82bd f424 02be
000000a0: 1ce5 eebd 7896 9abd 5579 abbd 19af b63c
000000b0: bc07 b6bd 236e d6bc 9439 6d3d 4563 bfbd
000000c0: 87a0 1b3d ab69 8abc c909 02be 4d2d c93d
000000d0: 1b58 703c 0910 efbd 3c89 1e3e 2654 633d
000000e0: c0bf 853d 3b74 2e3e 13f7 193e a610 8b3c
000000f0: 30fb 99bd 02e7 e33d e73b 833e 9675 07bd
00000100: d6ed c3bd d416 34be 97c0 5d3e 1c7e 41bd
00000110: 0852 2cbe 04ab 053e f43a 1dbe 30f5 75bd
00000120: 0a27 09be 2753 643e 934e 943d 65c4 0b3d
00000130: 2104 493d 332d 21be 3fb0 af3b 45e7 c13c
00000140: b10d 72bd f4d0 07be b01f 41be d908 ba3d
00000150: 3500 25bd f6c5 81bd a6ab c4bd 2ff1 ebbd
00000160: 3ded 29be de75 e0bd df84 e4bd a575 6bbd
00000170: d354 88bd 056e 0abe 9491 7e3d b99d 78bd
00000180: 74b0 5fbd 7c64 bcba 8c02 033e 6767 d6bc
00000190: 6845 0fbe 989d c4be cb25 cebe 5c81 e8bb
000001a0: 7de8 9a3d 4d10 d3bd 7606 503d 9c5b c53d
000001b0: 2a21 1c3e 72fd 1d3e 8616 cabd d79b 0d3e
000001c0: 77d0 e03d 96f3 99bc 05d0 35be ee42 5fbd
000001d0: d2f5 d63d 9153 04be e885 79be 008f 9fbe
000001e0: 19c4 7fbc 6eb6 3bbe 8563 cebe c032 2fbe
000001f0: 02b2 10be 724a 8cbc d816 78be aa1c 1fbf
00000200: 9dc6 08bf 7ef8 b6be 8b90 133e af0d 72bd
00000210: 96c3 9abc 0ec6 efbd 9b2e a13b bc88 183e
00000220: c43b 8a3d 4b3a 623e 7265 a63d d665 283e
00000230: 87bd 163e 0d57 ed3d a86b 243e d2b3 113e
00000240: b906 27bd 1efa 3e3e c72c 993e 35e9 ce3d
00000250: 05f7 133d 79fd a83d 5010 b33d 23da 62bd
00000260: 596b 03be db26 b0be 75d2 d0be 880c 023e
00000270: 8631 64be 90f6 16bf 1bd5 acbe 9def bbbe
00000280: 5bb8 5fbd 608f a4be fcc5 0dbe b6ec bd3d
00000290: c9a2 e1bb 7d8c 8ebd 863e 9f3d 9629 693e
000002a0: 32e7 df3a 751b 2b3d 7b1d 6abd 07c9 463d
000002b0: 5181 763b 27a9 3dbd ab26 e93d 3647 533c
000002c0: b625 cc3d 505f 23be eebb b3be c5d9 fabd
000002d0: 68f6 e7be 1fa3 51bf 8180 89bf 80b6 11bf
000002e0: c948 1abe 8e14 38be cfee 8cbd 140e 8a3d
000002f0: 5cd8 493e 5eaf 2e3e 88d6 dd3d f7f9 ea3b
00000300: b081 423e 61a3 953d fa82 40bb 2f77 803d
00000310: 0e49 c63d 9452 2b3d 3993 283e e456 fd3c
00000320: 0ef8 4f3c 7c93 0b3e 9aed 553e 2fbe e53d
00000330: dd54 08bc 9aaf 1abd d322 023e 5351 ef3d
00000340: 4936 ea3d 096c cabb 0884 b83d edb1 6bbd
00000350: b177 863e b1bc ab3e 86b6 183d c5ac 573e
00000360: 3446 3abe d07c 2f3d 1a73 3e3e e824 a53d
00000370: f419 ec3d fd83 13bd cfd0 d03b 3346 523d
00000380: 32e3 27be 1117 e0bd 754e 9bbd da8d f83c
00000390: d295 b33d c483 333d 2a4e 0c3d f3f5 33bd
000003a0: 45a6 81bd 4541 e53c 030b dbbd 2391 203e
000003b0: e9a0 613c 4c7a 50be 3432 78bc e4c9 0ebd
000003c0: a1a9 a53d 5757 e53d b0bc 67be 239e 2a3d
000003d0: da2d 513c 7f96 b03d 0129 713d f91b 93bd
000003e0: 2b80 1d3d 3c3f 663d 68db 4b3e 4084 53be
000003f0: 0809 eebd 4791 fe3c a78d 3a3d eeae 083e

conv2.bias f4 [16]
-0.18979976 0.04036049 -0.15647684 0.31165722 -0.16889149 -0.16317052 0.042620324 -0.21020481
-0.13803492 0.023106424 -0.19165672 -0.2913786 -0.06890369 0.1710188 -0.35466242 0.34184995
00000000: de5a 42be 0b51 253d 773b 20be 8991 9f3e
00000010: e4f1 2cbe 2c16 27be a692 2e3d ee3f 57be
00000020: 0759 0dbe af49 bd3c a941 44be 932f 95be
00000030: 611d 8dbd 8d1f 2f3e 5096 b5be f506 af3e

fc1.weight f4 [120, 400]
-0.03620672 0.006733294 -0.053835507 -0.04832455 -0.050011683 -0.0025042668 -0.063432455 -0.0783019
-0.02424545 -0.022387963 -0.035549104 -0.004973019 -0.062383603 -0.007225012 -0.04547322 0.010583275
0.0014183271 -0.00013219612 -0.062932655 -0.0106474385 -0.059574246 -0.0678063 -0.023335146 -0.02827302
-0.044608913 -0.03487567 0.011667498 -0.013471364 0.02027991 -0.07102799 -0.0015598444 -0.046849445
-0.009930169 -0.032689784 0.039470304 -0.026882753 -0.004510516 -0.047542054 0.0062260022 -0.059389506
0.012086713 -0.06648397 -0.019310957 -0.0721526 -0.018695474 -0.06952086 0.003958329 -0.022421822
-0.04824747 -0.05403715 -0.03921908 0.015280444 -0.0359224 -0.031194234 0.022237405 0.007101299
-0.05259047 -0.066427805 0.0074913455 -0.0165673 -0.05582316 -0.011128303 0.0076469756 -0.008534528
-0.042930715 -0.010626135 -0.03442805 -0.010961126 -0.024599355 -0.06452718 -0.0251072 -0.05276071
0.004858767 -0.04410549 0.030498346 -0.028233128 -0.010200225 -0.009143848 -0.022791179 -0.06418896
-0.058430564 -0.045661166 0.011079464 -0.02766855 -0.050514366 -0.01529676 0.029538289 -0.026578192
-0.05556525 -0.028260024 0.0067373645 -0.0532748 0.031042702 -0.02422857 -0.01565422 0.015045419
0.0205639 -0.0604894 0.02199229 -0.026834868 0.0051258164 0.012835406 0.018804533 0.038122732
0.005871036 -0.05422958 -0.062785126 0.02108329 -0.02954102 -0.0040091802 0.02426606 -0.046935704
-0.07266029 -0.03684592 -0.011542921 -0.050575163 0.023679422 -0.018336004 0.026999826 0.0027495415
-0.0467047 -0.035175927 -0.04523017 -0.053915903 -0.0024418933 -0.03159862 -0.004487273 0.034058634
-0.05638624 0.023392458 -0.017535944 -0.039426733 -0.01318109 -0.0028223642 -0.009371624 -0.033081904
-0.032981176 0.00962204 -0.0005987044 -0.0065982454 -0.007441353 -0.052010026 -0.044319957 -0.046113394
-0.004117187 -0.062804475 -0.005246882 -0.006018658 0.01564951 -0.0039405297 -0.03406932 -0.01632757
-0.04473971 -0.0005333436 -0.07517303 -0.018846285 -0.053717494 -0.03303455 0.007372523 -0.03635869
0.008783752 -0.011675285 -0.022032732 -0.030950096 -0.024225315 0.013874427 -0.018523071 -0.026782092
-0.00986896 -0.0077522486 0.0050958884 -0.05709316 0.018628245 0.012798839 0.000274309 0.01664503
0.0084917275 -0.025317753 -0.052192293 -0.026107505 -0.061823606 -0.0024502466 -0.018362932 0.0154501535
-0.055116568 -0.050644718 -0.031185156 -0.013000082 -0.036642972 -0.030856011 -0.058656897 0.00464263
-0.068772495 -0.011510898 -0.033077653 -0.060218032 -0.0003767949 -0.04181834 0.0045959046 -0.027672337
0.037669607 -0.0058416184 -0.047458578 -0.023586769 -0.045267962 0.01372829 -0.011193148 0.016939495
-0.015340467 0.009624922 -0.034609653 0.021665258 0.03280408 -0.036454182 0.024575684 -0.029406743
-0.057499386 0.0189964 -0.0019757333 -0.015266863 0.03202293 -0.0059851045 -0.035986654 0.023377055
0.037482463 0.0056620836 0.020431183 0.0055028927 0.007656914 -0.008020424 -0.02392639 0.009455719
0.019800114 0.0028688593 -0.015604832 -0.04689221 -0.031835973 -0.05245647 -0.026811857 -0.029044444
-0.06353792 -0.018659282 0.02045111 -0.054518223 -0.06286634 -0.029303716 -0.0008459866 -0.036951948
-0.01151056 -0.048308715 -0.06544155 -0.0366877 -0.01841523 -0.022826852 -0.04195445 0.019321466
00000000: 7f4d 14bd f7a2 dc3b 9f82 5cbd f7ef 45bd
00000010: 0dd9 4cbd a01e 24bb e0e8 81bd bf5c a0bd
00000020: 659e c6bc f666 b7bc f09b 11bd b5f4 a2bb
00000030: f385 7fbd cbbf ecbb 2142 3abd 7965 2d3c
00000040: 29e7 b93a 209e 0ab9 d6e2 80bd 9872 2ebc
00000050: 2004 74bd 08de 8abd 5929 bfbc d29c e7bc
00000060: d6b7 36bd cad9 0ebd 0929 3f3c ffb6 5cbc
00000070: 0e22 a63c 1f77 91bd b173 ccba 34e5 3fbd
00000080: 26b2 22bc b9e5 05bd 9dab 213d 3839 dcbc
00000090: f3cc 93bb 75bb 42bd 7e03 cc3b 6942 73bd
000000a0: 5907 463c bf28 88bd 0332 9ebc bec4 93bd
000000b0: 4027 99bc f460 8ebd dfb4 813b f8ad b7bc
000000c0: 249f 45bd 0f56 5dbd 30a4 20bd d45a 7a3c
000000d0: 5e23 13bd 0d8b ffbc 382b b63c 03b2 e83b
000000e0: 1b69 57bd 4d0b 88bd f679 f53b 25b8 87bc
000000f0: d3a6 64bd 7c53 36bc 7b93 fa3b 68d4 0bbc
00000100: 1ed8 2fbd 3e19 2ebc 6d04 0dbd 4b96 33bc
00000110: 9684 c9bc d326 84bd 9dad cdbc 9d1b 58bd
00000120: 4b36 9f3b f5a7 34bd abd7 f93c 2949 e7bc
00000130: d81e 27bc 14d0 15bc 91b4 babc 8075 83bd
00000140: e354 6fbd 3407 3bbd a486 353c 28a9 e2bc
00000150: 27e8 4ebd 439f 7abc 48fa f13c 82ba d9bc
00000160: 6398 63bd 9181 e7bc 1cc5 dc3b ad36 5abd
00000170: 444d fe3c fe7a c6bc 473d 80bc 1081 763c
00000180: a075 a83c bcc3 77bd 2d29 b43c ccd4 dbbc
00000190: 77f6 a73b 984b 523c f70b 9a3c 9526 1c3d
000001a0: d261 c03b d61f 5ebd 7d95 80bd ddb6 ac3c
000001b0: 0200 f2bc 715f 83bb 9ec9 c63c a73f 40bd
000001c0: ebce 94bd bfeb 16bd 851e 3dbc e727 4fbd
000001d0: 59fb c13c 6335 96bc bd2e dd3c a731 343b
000001e0: 6d4d 3fbd a214 10bd 4543 39bd ecd6 5cbd
000001f0: 2c08 20bb 8e6d 01bd f909 93bb 1181 0b3d
00000200: 42f5 66bd 8aa1 bf3c 8aa7 8fbc ed7d 21bd
00000210: 80f5 57bc 6af7 38bb 718b 19bc e480 07bd
00000220: 4517 07bd c3a5 1d3c 5ff2 1cba 1836 d8bb
00000230: 98d6 f3bb 7708 55bd d888 35bd 66e1 3cbd
00000240: 78e9 86bb a29f 80bd 09ee abbb 2a38 c5bb
00000250: 6733 803c 8f1f 81bb 458c 0bbd 65c1 85bc
00000260: fc40 37bd 15d0 0bba 51f4 99bd 8663 9abc
00000270: e006 5cbd 3c4f 07bd 3595 f13b daec 14bd
00000280: bae9 0f3c b249 3fbc fd7d b4bc 0e8b fdbc
00000290: 2b74 c6bc 9151 633c b2bd 97bc 1e66 dbbc
000002a0: 6bb1 21bc 9306 febb 69fb a63b 84da 69bd
000002b0: 439a 983c 39b2 513c 21d1 8f39 285b 883c
000002c0: e320 0b3c 2d67 cfbc 96c7 55bd 68df d5bc
000002d0: c03a 7dbd 5194 20bb dc6d 96bc a422 7d3c
000002e0: e9c1 61bd d670 4fbd 0378 ffbc 4cfe 54bc
000002f0: f116 16bd bfc5 fcbc 3742 70bd 3421 983b
00000300: 98d8 8cbd 3598 3cbc 6f7c 07bd 2fa7 76bd
00000310: 8e8c c5b9 b549 2bbd 3e99 963b 19b1 e2bc
00000320: 724b 1a3d 0c6b bfbb ed63 42bd 0a39 c1bc
00000330: e66a 39bd 9fec 603c 7763 37bc b2c4 8a3c
00000340: 9556 7bbc d9b1 1d3c dac2 0dbd 577b b13c
00000350: 925d 063d fb50 15bd f252 c93c 69e6 f0bc
00000360: 7a84 6bbd 579e 9b3c 4e7b 01bb dd21 7abc
00000370: 7a2a 033d b21e c4bb be66 13bd 3d81 bf3c
00000380: 3687 193d 0089 b93b 4c5f a73c 9c51 b43b
00000390: dae6 fa3b 1968 03bc 4701 c4bc 29ec 1a3c
000003a0: d933 a23c 7903 3c3b 69ab 7fbc 0c12 40bd
000003b0: 7066 02bd 98dc 56bd 8aa4 dbbc 9dee edbc
000003c0: 2b20 82bd 5adb 98bc 1689 a73c 804e 5fbd
000003d0: 11c0 80bd 590e f0bc 33c5 5dba ed5a 17bd
000003e0: ca96 3cbc 5cdf 45bd 3806 86bd d745 16bd
000003f0: 89db 96bc 61ff babc 6ed8 2bbd 0d48 9e3c

fc1.bias f4 [120]
0.0031392237 0.0033853783 0.023938434 0.20705862 0.07526998 0.024864815 0.0021075613 -0.098850615
0.0063300286 -0.07854715 -0.10015591 0.008527312 -0.02448318 -0.0469281 -0.10598107 0.26605797
0.031889312 -0.04029267 0.024456298 -0.057450145 -0.054922692 -0.10094308 0.07175623 0.00971408
-0.065573804 -0.05652855 -0.062411018 0.016870957 0.051525585 0.047460724 -0.09121415 -0.082775414
-0.08900115 -0.002737985 -0.005595629 8.987195e-05 -0.034937993 0.09428554 0.05815936 0.0020501302
0.046028107 0.07418844 -0.05113435 0.048377715 0.14161555 -0.114712566 0.013913037 0.17737018
-0.00043583065 0.041499667 0.082273774 -0.09026858 0.006074053 0.012859734 -0.05777151 -0.2457233
-0.07620707 0.013304342 0.04650043 -0.038045265 -0.08576612 -0.059004676 0.054072604 -0.0013554436
-0.0032152855 -0.14496121 -0.028263837 0.14889385 -0.045445472 0.0012882485 0.23012395 -0.02781969
-0.04299415 -0.16424653 -0.08422304 0.008572674 -0.050682705 0.11152244 0.04080931 -0.013319643
-0.082725756 0.027969109 -0.0065441253 0.028431114 -0.13900921 0.013385245 0.10419032 0.065314874
0.1152789 -0.042223155 0.043877415 -0.075059585 0.017926352 -0.0050931205 0.113082886 0.07280207
0.052361976 0.039754253 0.022385499 -0.046747018 0.047811273 0.025725722 0.019299958 -0.04135221
-0.019383054 0.017155789 0.023609461 -0.14737931 0.08307867 -0.009819327 -0.046495494 0.05261079
0.04065396 0.058141883 -0.03879708 -0.006187061 0.13425648 0.1755203 -0.08286681 0.046622407
00000000: 6fbb 4d3b 39dd 5d3b 891a c43c 2d07 543e
00000010: 2627 9a3d 4cb1 cb3c 031f 0a3b 3172 cabd
00000020: 216c cf3b 54dd a0bd 8b1e cdbd 24b6 0b3c
00000030: f390 c8bc ae37 40bd 9a0c d9bd c038 883e
00000040: 5e9e 023d ed09 25bd 9358 c83c d850 6bbd
00000050: 9ef6 60bd 3fbb cebd eef4 923d ce27 1f3c
00000060: 8f4b 86bd 7b8a 67bd b2a2 7fbd f634 8a3c
00000070: 7e0c 533d 2d66 423d 7cce babd 2886 a9bd
00000080: 3c46 b6bd c46f 33bb 8a5b b7bb a379 bc38
00000090: 241b 0fbd c718 c13d 8238 6e3d 7a5b 063b
000000a0: f887 3c3d 1cf0 973d 4172 51bd b627 463d
000000b0: ab03 113e 6cee eabd 82f3 633c 87a0 353e
000000c0: 3380 e4b9 8efb 293d 277f a83d bcde b8bd
000000d0: d908 c73b a2b1 523c d2a1 6cbd e49e 7bbe
000000e0: 7412 9cbd 74fa 593c 3c77 3e3d 5ad5 1bbd
000000f0: 26a6 afbd e3ae 71bd 3c7b 5d3d 24a9 b1ba
00000100: 8ab7 52bb b670 14be 9089 e7bc a177 183e
00000110: 0825 3abd 72da a83a 9da5 6b3e 1ee6 e3bc
00000120: a21a 30bd 3e30 28be 217d acbd 6774 0c3c
00000130: ab98 4fbd e165 e43d aa27 273d a23a 5abc
00000140: 1f6c a9bd 791f e53c 1a70 d6bb 5ee8 e83c
00000150: 6e58 0ebe c94d 5b3c bc61 d53d cec3 853d
00000160: 5817 ec3d 30f2 2cbd ceb8 333d d7b8 99bd
00000170: 49da 923c 31e4 a6bb 0098 e73d 4019 953d
00000180: 8379 563d 5bd5 223d cb61 b73c cd79 3fbd
00000190: c1d5 433d c0be d23c f21a 9e3c ef60 29bd
000001a0: 36c9 9ebc 4c8a 8c3c a168 c13c 9aea 16be
000001b0: 2625 aa3d 3ee1 20bc 0f72 3ebd 697e 573d
000001c0: c484 263d 2f26 6e3d b0e9 1ebd d4bc cabb
000001d0: 887a 093e 98bb 333e 13b6 a9bd 23f7 3e3d

fc2.weight f4 [27, 120]
0.05473368 -0.17032377 -0.13698363 -0.12578547 -0.16245967 0.028247492 -0.08606008 -0.08539899
-0.12171899 -0.04717179 -0.08294826 -0.11121983 -0.0628843 -0.1669277 -0.0029761053 -0.16468816
-0.16241404 0.05289065 -0.07476066 0.032392893 -0.29723918 -0.08579817 -0.090915576 -0.12466481
-0.16259594 -0.07666834 -0.014031359 -0.11574988 -0.21643905 -0.12822498 -0.039678965 -0.037707567
-0.048116483 -0.19287175 0.08075078 -0.052883707 -0.12815356 -0.100621074 -0.14710659 -0.61039066
-0.10235957 -0.22446255 0.06455252 -0.09700029 -0.20921782 -0.09158386 -0.08405509 -0.16823483
0.07187969 -0.06049286 -0.05235662 -0.11755825 -0.15055287 -0.0943375 -0.037977636 -0.19296712
-0.043111354 -0.0926878 -0.18356337 -0.081038505 -0.21775311 -0.10430154 -0.14393173 -0.13716727
0.042808615 -0.034159824 -0.22423068 -0.07185189 -0.054883767 -0.1062389 -0.11707506 -0.011715409
-0.088249736 -0.769241 -0.16250576 -0.17632988 0.0015602314 -0.21352497 -0.12324039 -0.1843397
-0.12215712 -0.1358754 -0.11683678 -0.014523362 -0.19844358 -0.13107735 -0.07832323 -0.34917837
-1.1129036 -0.10069613 -0.077155255 -0.050703146 -0.07039353 -0.023485947 -0.1551396 -0.1453635
-0.14974605 -0.12082574 -0.074780926 -0.026848735 -0.121651664 -0.1309156 -0.07961838 -0.13893174
0.079785585 -0.18926851 -0.0003099176 -0.18539901 -0.14715773 -0.05097675 -0.08696253 -0.07654917
-0.12348855 -0.84805155 -0.15983276 -0.13041097 -0.28522623 -0.16022794 -0.049907457 -0.08997688
0.051277068 0.18910636 -0.13836746 0.033486027 -0.51123476 -0.047004476 0.1623275 -0.26038074
-0.13442259 0.07273343 -0.025064075 0.072585285 -0.12235115 -0.124008276 -0.20131141 -0.12881637
0.019406563 0.049555402 -0.03628154 0.0049237465 0.05614552 0.013523398 0.05717493 0.054744538
-0.107716106 0.0014133918 -0.100435816 0.12494387 -0.00682241 -0.15669839 -0.15330711 0.046385583
-0.050731774 -0.12030937 -0.01652653 0.040737923 0.021955691 -0.13902652 0.066514395 0.14277598
-0.22971387 -0.017498152 -0.08455938 -0.31532934 -0.21808155 -0.05717557 0.031250365 0.051663727
-0.009670515 -0.088054016 -0.1718452 0.035939075 0.08343631 0.045302097 0.0136579955 -0.022034653
-0.06777916 0.3482937 0.17550503 0.122689374 0.068947375 -0.28646126 0.121438734 0.043836858
0.028278233 -0.20384625 -0.22191146 -0.24767435 -0.3210434 0.0048425007 -0.13347669 0.14653835
0.12938009 -0.23945585 0.13227992 0.15264569 -0.0499984 -0.34179786 -0.37906992 0.026097136
0.19946758 0.1251547 0.082039095 -0.032607432 0.016050782 0.060799096 -0.2669963 -0.056301825
-0.18408172 -0.08612433 -0.067560226 0.02877145 0.16134354 0.054285668 -0.021530174 0.109820075
-0.16728203 0.028362831 0.09778651 -0.0077949776 -0.0823806 -0.13791162 -0.07524057 0.0872866
0.074928336 -0.16361183 -0.048980583 0.04544383 0.06780801 -0.14179869 -0.21602845 -0.15360475
0.13698211 -0.0956596 0.091943994 0.02652571 -0.10837586 0.041941162 0.10900974 0.027269013
0.059302606 -0.2519589 0.22409995 -0.10477686 -0.028460408 -0.06844321 0.0038167662 0.10745819
0.22370763 0.15342824 -0.071858376 -0.11022309 -0.30624372 -0.05309124 -0.05306735 0.11213748
00000000: 6c30 603d 5b69 2ebe 7045 0cbe e8cd 00be
00000010: d45b 26be 4967 e73c 4440 b0bd aae5 aebd
00000020: ce47 f9bd 3537 41bd c7e0 a9bd 39c7 e3bd
00000030: 7cc9 80bd 18ef 2abe c30a 43bb 03a4 28be
00000040: de4f 26be dea3 583d 1e1c 99bd 69ae 043d
00000050: bc2f 98be f3b6 afbd f231 babd 4450 ffbd
00000060: 8d7f 26be 4a04 9dbd c9e3 65bc 460e edbd
00000070: 33a2 5dbe 694d 03be 6986 22bd 4073 1abd
00000080: ca15 45bd 2c80 45be aa60 a53d 969c 58bd
00000090: b03a 03be 6c12 cebd 1ca3 16be 9042 1cbf
000000a0: e5a1 d1bd 83d9 65be 1d34 843d 17a8 c6bd
000000b0: 323d 56be 5290 bbbd 1325 acbd c045 2cbe
000000c0: a935 933d 5cc7 77bd e573 56bd 61c2 f0bd
000000d0: 882a 1abe 0534 c1bd 708e 1bbd 2c99 45be
000000e0: 8895 30bd 1ad3 bdbd 09f8 3bbe 84f7 a5bd
000000f0: acfa 5ebe 0c9c d5bd d762 13be 9475 0cbe
00000100: 1658 2f3d 2ceb 0bbd ba9c 65be 1527 93bd
00000110: cdcd 60bd c893 d9bd 0dc5 efbd fdf1 3fbc
00000120: 47bc b4bd faec 44bf e967 26be d28f 34be
00000130: ae80 cc3a 4aa6 5abe 7565 fcbd 8cc3 3cbe
00000140: 832d fabd ec22 0bbe 1f48 efbd 65f3 6dbc
00000150: cb34 4bbe 2439 06be ee67 a0bd 82c7 b2be
00000160: a073 8ebf c639 cebd 9303 9ebd 1aae 4fbd
00000170: 7c2a 90bd 9a65 c0bc eadc 1ebe 2bda 14be
00000180: 0757 19be 7c73 f7bd be26 99bd e1f1 dbbc
00000190: 8224 f9bd bd0e 06be f60e a3bd 1f44 0ebe
000001a0: a066 a33d 9bcf 41be 707c a2b9 3dd9 3dbe
000001b0: 84b0 16be ffcc 50bd 6919 b2bd d0c5 9cbd
000001c0: 91e7 fcbd e819 59bf 33ab 23be 748a 05be
000001d0: 2c09 92be cb12 24be c36b 4cbd cc45 b8bd
000001e0: e707 523d 19a5 413e 33b0 0dbe a528 093d
000001f0: 48e0 02bf c487 40bd 2e39 263e a050 85be
00000200: 13a6 09be 44f5 943d 2d53 cdbc 98a7 943d
00000210: 3d93 fabd 0df8 fdbd 9424 4ebe 70e8 03be
00000220: 83fa 9e3c 9bfa 4a3d f49b 14bd 6157 a13b
00000230: d8f8 653d 3e91 5d3c 4230 6a3d cf3b 603d
00000240: 439a dcbd 8f41 b93a 4bb1 cdbd 92e2 ff3d
00000250: 868e dfbb 8b75 20be 8afc 1cbe cffe 3d3d
00000260: 1fcc 4fbd c264 f6bd a562 87bc cfdc 263d
00000270: 6cdc b33c f85c 0ebe b338 883d de33 123e
00000280: 1d3a 6bbe 4958 8fbc 782d adbd d972 a1be
00000290: c550 5fbe ee30 6abd 6200 003d 589d 533d
000002a0: 1471 1ebc aa55 b4bd 30f8 2fbe da34 133d
000002b0: a8e0 aa3d b18e 393d c9c5 5f3c 0482 b4bc
000002c0: cdcf 8abd 8d53 b23e 97b7 333e 9144 fb3d
000002d0: 4834 8d3d 0dab 92be dfb4 f83d 478e 333d
000002e0: c1a7 e73c 12bd 50be c23c 63be 589e 7dbe
000002f0: cd5f a4be d7ad 9e3b 1dae 08be 260e 163e
00000300: 377c 043e ea33 75be 6374 073e 274f 1c3e
00000310: 1fcb 4cbd 2100 afbe 7415 c2be a9c9 d53c
00000320: 3b41 4c3e 8e28 003e 1d04 a83d 5f8f 05bd
00000330: ee7c 833c 7908 793d bdb3 88be be9c 66bd
00000340: eb7f 3cbe f461 b0bd 045d 8abd 1bb2 eb3c
00000350: 3e37 253e a65a 5e3d 0c60 b0bc 59e9 e03d
00000360: fb4b 2bbe 2b59 e83c 4b44 c83d 036d ffbb
00000370: 29b7 a8bd b438 0dbe ba17 9abd 51c3 b23d
00000380: 0774 993d dc89 27be dd9f 48bd 4f23 3a3d
00000390: edde 8a3d ad33 11be 9036 5dbe 904a 1dbe
000003a0: 0a45 0c3e 2ee9 c3bd 224d bc3d 724c d93c
000003b0: 2af4 ddbd 7fca 2b3d 8040 df3d 4463 df3c
000003c0: 4ae7 723d c200 81be 757a 653e 4095 d6bd
000003d0: cd25 e9bc f42b 8cbd b622 7a3b 0a13 dc3d
000003e0: 9d13 653e 4b1c 1d3e 7c2a 93bd a5bc e1bd
000003f0: facb 9cbe 3376 59bd 265d 59bd 56a8 e53d

fc2.bias f4 [27]
-0.12012449 -0.14567074 0.15625358 0.047976702 0.013063542 0.07359269 0.18335277 0.0187355
-0.043955896 -0.048485857 0.011918091 0.09762402 0.04121566 0.0054860306 -0.2107631 -0.062056374
0.077815585 0.13947426 -0.1500249 0.012252919 -0.14815187 0.05884926 0.042114224 0.13452312
-0.0068044076 -0.014037806 -0.097101316
00000000: d403 f6bd b62a 15be f000 203e 3883 443d
00000010: 7708 563c c4b7 963d d4c0 3b3e 317b 993c
00000020: 190b 34bd 1b99 46bd 1944 433c 1aef c73d
00000030: c0d1 283d 29c4 b33b 48d2 57be d32e 7ebd
00000040: c75d 9f3d 57d2 0e3e 21a0 19be 78c0 483c
00000050: 20b5 17be ec0b 713d f77f 2c3d 6ec0 093e
00000060: 82f7 debb d3fe 65bc 0edd c6bd
