Alphabet_Recognition/LeNet4/model.pth (torch, 214779 bytes, 8 tensors)

conv1.weight f4 [4, 1, 5, 5]
000000 39 b1 4b be 5e f9 66 3e c2 8c 60 3e 68 44 28 3d
       -0.19891824 0.22556064 0.21928695 0.041080862
000010 69 7e 71 be b7 4e 05 bf 35 9f a3 bc 10 f6 e2 3e
       -0.23583378 -0.52073234 -0.019973377 0.44328356
000020 2e 28 e8 3e e2 41 c3 3d 50 cc 18 bf 77 8d 06 be
       0.45343155 0.095340505 -0.59686756 -0.13139902
000030 e4 90 f4 3e f8 c3 05 3f 6f 3d ad 3e 2d bb f9 be
       0.47766793 0.5225215 0.33835933 -0.48775616
000040 e9 f2 12 3c e4 36 7a 3e b5 32 5a 3e ea b4 41 3e
       0.008969047 0.24435002 0.21308406 0.1891667
000050 4a 3a 0c bf 14 bf 8a be 1f 1e 8a 3d 62 2c a4 3e
       -0.5477644 -0.27098906 0.067440264 0.3206511
000060 7b 3b a4 3e 9c 2e fa be 76 d7 4e 3d 80 ee be 3d
       0.3207663 -0.48863685 0.05049845 0.09322834
000070 32 9a 71 3e bb 60 99 3c e8 f8 2a bd e6 5c cc 3d
       0.23593977 0.018722882 -0.04174128 0.099786565
000080 80 b3 ea 3e 81 ff ae 3e 15 40 01 3c 14 65 98 3c
       0.45840073 0.3417931 0.0078888135 0.018602885
000090 25 70 02 3f eb f1 17 3f cc c7 f0 3d 33 09 51 be
       0.5095237 0.5935351 0.11756858 -0.20413665
0000a0 de cf 97 3e 42 18 14 3e 02 90 91 bd b6 84 89 be
       0.29650778 0.14462379 -0.071075454 -0.26859063
0000b0 5b 54 a4 be c8 b4 8a bd 96 de 0c 3d 87 27 c9 be
       -0.32095608 -0.067727625 0.034391962 -0.3928797
0000c0 b9 c0 e7 be 54 bc 87 bd cb 1b f5 3d cf 42 65 3e
       -0.45264223 -0.066277176 0.11968192 0.22388767
0000d0 0b 00 d3 3e 96 f5 b5 bd 6b da 1a bf 0f 3c 82 3e
       0.4121097 -0.088847324 -0.6048953 0.25436446
0000e0 85 6a d1 3e 81 09 8d 3e 05 34 99 3c 09 76 ab be
       0.4090158 0.27546313 0.018701563 -0.3348849
0000f0 f4 52 42 3e 14 7f 1f 3e a0 c5 5d 3e bc 74 fe 3d
       0.18976957 0.1557582 0.21657419 0.12424609
000100 bc db 85 be 9d aa e0 bc 9b 73 fa 3d 9a 20 75 bc
       -0.26144207 -0.027425105 0.12229081 -0.014961386
000110 6b 9f 14 3e af df 80 3d 3e 97 10 3c 0d d1 f9 bd
       0.14513938 0.06292664 0.008825121 -0.121980764
000120 44 9d 55 bd 41 98 ef 3d c9 df e8 bd 89 af a9 3d
       -0.052151933 0.11698962 -0.11370809 0.08285434
000130 ff ce be 3e 66 c3 33 3e f3 5c 43 3d a6 66 3d 3e
       0.372673 0.17555007 0.047696065 0.18496189
000140 7d 50 69 3e 8f 77 93 3e f1 53 fd 3e f5 60 07 3f
       0.2278461 0.28802153 0.49478105 0.5288232
000150 01 10 0e 3f 71 e3 25 bd 6c 87 e3 bd eb ff 69 3c
       0.5549317 -0.04050011 -0.11109814 0.014282207
000160 ee fd 63 be 09 96 c0 3d b9 99 3f be 02 ac ce be
       -0.22264835 0.09403617 -0.18710984 -0.40365607
000170 f0 63 0f bf 1c eb 0f bf 9b a1 90 be b6 75 7b bd
       -0.5601187 -0.56218123 -0.28248295 -0.061391555
000180 eb 1e 23 be da df b3 3a 34 ff 91 bc 18 83 26 bd
       -0.15929763 0.0013723329 -0.017821886 -0.040652364

conv1.bias f4 [4]
000000 f5 86 24 3f dd 1d 53 3e 48 91 03 3f 9c ec ee bb
       0.6426843 0.2061686 0.51393557 -0.0072913896

conv2.weight f4 [16, 4, 5, 5]
000000 08 a7 a5 bc cb 7f 6b bd bb 9a 8e bd 6e d0 a5 bb
       -0.020221248 -0.05749492 -0.06963106 -0.005060247
000010 c4 26 aa 3d 14 f9 17 bd 67 56 cb bc a2 6b 55 bd
       0.08308175 -0.037102774 -0.024821473 -0.0521046
000020 b8 42 b2 3d a4 aa e1 3c 44 f2 de bd 5f 48 d3 be
       0.08704132 0.027547188 -0.10886052 -0.41266152
000030 87 c7 dc be b1 81 70 be ff 4a 43 bd 42 b7 b4 3c
       -0.43120977 -0.23486973 -0.047678944 0.02206004
000040 1f ba 61 bd dc 68 09 bd 92 16 7d bc 2a 1a b5 bb
       -0.05510914 -0.033547267 -0.015447276 -0.0055268006
000050 d9 86 85 3c da 61 02 3e 41 a6 77 3e d9 0d 29 3e
       0.016299652 0.1273264 0.24184515 0.16509189
000060 5f 5b cf bc 91 c3 3d 3d 5d 3d 4d be db eb fb bd
       -0.025312124 0.046329085 -0.2004294 -0.12300845
000070 75 99 04 3d b1 4a c0 bd a1 04 54 3b 3f 0a 0b 3e
       0.03237291 -0.09389246 0.0032351392 0.13578127
000080 9e 7d 74 3e e6 ff 5b 3e 25 95 1e bd fb 72 ba bd
       0.23876044 0.21484336 -0.038716454 -0.09103962
000090 7c 59 10 be 56 d5 04 bf 5c ba ff be 4f 86 21 be
       -0.14096636 -0.51888025 -0.49946868 -0.15773891
0000a0 a3 a7 d2 bd 57 ab 58 be 80 6f 74 bd 19 69 3e 3e
       -0.102858804 -0.21159111 -0.059676647 0.18594779
0000b0 e0 48 48 bd 96 c5 bb 3d 2f 2b 90 3e 2a df 7e 3e
       -0.048897624 0.09168546 0.28157946 0.24889818
0000c0 ec 40 aa 3d 68 c6 21 be 2c 9d a9 3d 52 31 c2 3d
       0.08313164 -0.15798342 0.08281931 0.09482063
0000d0 36 21 9c bd 83 10 fa bd 13 d1 82 bd a0 e5 8c bd
       -0.07623522 -0.122101806 -0.06387534 -0.06879735
0000e0 05 8f 45 3d b0 10 c1 3d 4d 72 2d 3e 4a 3e ac 3d
       0.048232097 0.09427011 0.16938134 0.08410318
0000f0 74 24 91 bc 55 b6 60 bd 06 e4 aa bc c8 e0 a9 be
       -0.017717578 -0.054861385 -0.020860683 -0.33179307
000100 e6 e2 b0 bd 9e 4a 5b 3c 3c 8d 22 be 1c b4 8c be
       -0.086370274 0.013384489 -0.15874189 -0.27481163
000110 2f 3a db bd 44 92 3f be a2 cb 0c bb c9 2b 01 3e
       -0.10704457 -0.1870814 -0.002148368 0.12614359
000120 38 26 24 3e 47 9a 44 3e 2b 29 84 bc 2e b0 89 3d
       0.16030204 0.19199477 -0.016132912 0.06723057
000130 b8 0a 5b bd ef da 42 bd bc 4c 25 be c8 92 2c bd
       -0.05347702 -0.047572073 -0.16142553 -0.04213217
000140 a4 a3 df bd 85 78 5a 3e 3d b9 c8 3e 8b de 77 3e
       -0.10919884 0.21335037 0.39203826 0.24205987
000150 1e 66 21 3c 97 d7 09 be 6d 7d 3e 3e 70 b4 cb 3e
       0.009851007 -0.13461147 0.18602534 0.397861
000160 36 87 70 3e 6d ab e0 3b b5 00 7e 3d 65 38 32 3e
       0.23489079 0.006856373 0.062012393 0.17404325
000170 31 f7 03 bc 06 3a 95 3e 26 ec 87 3d 18 17 16 3e
       -0.0080545405 0.2914583 0.066368386 0.14657247
000180 ed bb a9 3e 50 6d 08 3f 75 3d b3 3e dc ed 74 bc
       0.33151188 0.532918 0.35007825 -0.014949288
000190 fe f0 b5 be b4 2b 4d be 6c d0 5f 3e 15 b3 13 3e
       -0.35535425 -0.20036203 0.2185685 0.14423783
0001a0 fd a9 e2 bd 96 f4 aa be d2 58 0b be df 64 14 3e
       -0.11067579 -0.3338973 -0.13608101 0.14491604
0001b0 15 8b 92 3d c8 f7 c9 bd 42 08 de be af b7 72 be
       0.07155434 -0.09861714 -0.43365675 -0.23702882
0001c0 5f c5 11 3e 7f 3b d2 3d 31 f8 01 3d 43 53 cf be
       0.14235447 0.10265254 0.031730834 -0.4049321
0001d0 90 5f 75 be c3 46 c0 3b e5 d9 7c bb df b5 03 bd
       -0.23962235 0.0058678105 -0.0038582024 -0.032155868
0001e0 fd 1a 45 bd f8 76 73 be 49 cd c8 3d 6f 9f 8b 3d
       -0.04812144 -0.23775852 0.0980478 0.06817519
0001f0 de 6a 74 bd 59 ae c3 bc ec bc a7 bc 10 e5 8b 3e
       -0.05967223 -0.023886846 -0.020475827 0.27323198
000200 2e cd 25 3e 56 05 23 be d4 66 34 be d3 b9 9a be
       0.16191551 -0.15920004 -0.17617351 -0.30219898
000210 2f 3a 0f 3e 18 62 24 3e d9 e7 0c be ba 87 0f be
       0.13987039 0.16053045 -0.13760318 -0.1401662
000220 44 b6 05 bf 4c 47 00 3e cb c3 94 3d 64 2a 09 bd
       -0.5223124 0.12527198 0.07263907 -0.033487692
000230 1d c9 06 be d6 b3 2c bf 9b eb 51 bd 46 92 75 3c
       -0.13162656 -0.6746191 -0.05125008 0.014988488
000240 78 d8 d8 bd 5e 24 4a 3e 5e 7b a0 be c6 33 41 3d
       -0.10588163 0.19740435 -0.31344122 0.047168516
000250 50 a6 52 3e 4c 44 ef bd a1 f2 12 be b9 b4 60 be
       0.20571256 -0.116829485 -0.14350368 -0.2194394
000260 62 24 ae b9 f2 0b 85 3d 94 bf 69 bd 39 1f 9a bc
       -0.00033214974 0.06496419 -0.05706747 -0.018813716
000270 77 57 ba be 4d 20 2c be 4d a6 49 3d 9c e1 cc 3d
       -0.36394855 -0.16809197 0.049230862 0.10003969
000280 f2 39 cb bc 8e 04 fc be 95 b4 0e be 7a be 57 3e
       -0.024807904 -0.49222225 -0.13936074 0.21068755
000290 49 46 26 3e 3b 3b 32 3d ad 5f 9a be 7f 9b 61 be
       0.16237749 0.043513518 -0.3015112 -0.22031973
0002a0 d2 8f 3e 3e e6 48 f4 3d 53 98 87 3e c3 ab 2d be
       0.1860955 0.11927967 0.26483402 -0.16960053
0002b0 96 99 49 be fd 28 23 3e e1 bd 53 bc a6 51 8e 3c
       -0.19687495 0.15933605 -0.012923689 0.017372917
0002c0 4f ed 42 3d b9 8f 92 3e 89 f4 5d 3e 55 5e 39 be
       0.047589596 0.28625277 0.21675314 -0.18102391
0002d0 bb 4f 21 3d 8e d1 39 be 1a 1f ad 3d 61 28 47 3e
       0.039382678 -0.18146345 0.08453198 0.19448997
0002e0 cf 81 0d bd 68 25 08 3e b1 75 23 be 6d 1b 07 3e
       -0.034547623 0.1329552 -0.15962864 0.13194056
0002f0 f0 2c a1 3e 61 d1 fa 3d 8e 2d 3a bd fd 15 70 bd
       0.31479597 0.12246967 -0.0454536 -0.05861472
000300 aa df 21 3e de 5b 85 3e 12 1d bf 3c 92 cd 65 3e
       0.15807977 0.26046652 0.023329291 0.224417
000310 0c 65 d7 3d 10 d7 5e 3e 31 27 49 3d 3a aa 6a bd
       0.1051732 0.21761727 0.04910964 -0.057291247
000320 cd 82 ed bd 68 d1 8b bd 82 7d 58 be e2 a4 98 be
       -0.11597214 -0.068270504 -0.21141627 -0.29813296
000330 dc 8f 6b be 53 fa be 3c 9c 8c 72 bd 88 58 50 be
       -0.23004097 0.023312723 -0.059216127 -0.20346272
000340 04 62 19 be 8f 19 5e be 6c 65 69 bd 30 e1 1c 3d
       -0.14978796 -0.21689437 -0.05698149 0.038300693
000350 f5 3b 33 3c 49 16 09 3d 1e 07 73 bd 70 a3 ac be
       0.010939588 0.03346852 -0.05933296 -0.33718443
000360 e4 3a 32 bc 6a e9 ce bd 6c d2 4b 3d 45 37 50 3d
       -0.010878298 -0.10103114 0.04976122 0.05083396
000370 30 d6 99 bd 47 64 78 bd 12 e7 a6 bd 43 d4 39 bd
       -0.07511556 -0.060642507 -0.08149542 -0.045368444
000380 e8 49 0a 3e 96 b1 72 3c 7e bc 6a 3c c7 e9 2c be
       0.13504755 0.014812848 0.014327167 -0.16886054
000390 2f ff 92 bd 45 4a 86 bd 20 1d 9b bc 5e 40 28 be
       -0.07177579 -0.065571345 -0.018934786 -0.16430804
0003a0 23 41 b0 bd 91 ec 43 3d b8 eb 2e bd 15 1f 71 bc
       -0.08606174 0.04783303 -0.042705268 -0.014716883
0003b0 32 b4 ad bd 42 0a 98 3d 3c 3a 9a 3d 8e e8 11 3b
       -0.08481635 0.074238315 0.075306386 0.0022263858
0003c0 74 ef aa be d9 0f f3 3b d3 25 a5 3d d8 2e b1 3d
       -0.33385813 0.0074176607 0.08063855 0.08651513
0003d0 61 63 71 bc 81 40 31 bf db 10 04 bf db 28 18 bf
       -0.014733166 -0.6923905 -0.5158822 -0.5943734
0003e0 34 c4 80 be f2 db 2b 3e 2a 8e 4a 3d c3 b7 94 3c
       -0.2514969 0.16783121 0.049451984 0.01815403
0003f0 6c b8 fa bc 0c d1 62 be 9b 9a 3d be d1 8b 90 3c
       -0.030605517 -0.22150058 -0.18516009 0.017644795

conv2.bias f4 [16]
000000 58 fc 0b be 80 5d 1b 3e 5a 80 82 3e 77 a2 03 be
       -0.1367048 0.15172386 0.2548855 -0.12854944
000010 6e 19 53 be 5e f3 07 3e 17 83 e1 bd a8 4c 47 be
       -0.2061517 0.13276431 -0.110113315 -0.19462836
000020 e5 a9 f0 be 5a 9a e3 bd 48 59 44 3e dd c8 39 bd
       -0.4700462 -0.111134246 0.19174683 -0.045357574
000030 66 a8 d0 be 88 02 23 bd dc 66 f5 bc e0 32 90 be
       -0.40753478 -0.039797336 -0.029956274 -0.28163815

fc1.weight f4 [120, 400]
000000 fa 43 1d bd 2e af 53 be d0 97 0f be 82 9b 09 3d
       -0.038394906 -0.20672294 -0.14022756 0.03359557
000010 40 3f d0 bd 0d 0e 34 3d 41 94 54 be b4 95 42 be
       -0.10168314 0.043958712 -0.2075968 -0.1900242
000020 ad ca 7d be 99 15 94 be 7d bd aa 3d 0e 38 5b be
       -0.24784346 -0.28922728 0.08336923 -0.21408102
000030 7b 43 fe bd 0e 09 9d be 11 e4 e0 be 98 67 a4 bd
       -0.12415215 -0.3067097 -0.43924 -0.080275714
000040 b1 9a a9 3b 92 01 38 3d 27 10 8f 3b 39 80 67 be
       0.0051759114 0.044923373 0.004365939 -0.22607507
000050 80 f3 0e bd 3c ba 03 3e 21 66 72 3d f5 93 d0 bc
       -0.03490019 0.12864012 0.05917943 -0.025461176
000060 67 42 18 bc da b1 8a bd 9b 7d 24 be 66 d6 99 3e
       -0.009293175 -0.06772204 -0.1606354 0.30046386
000070 5f 92 71 3b 9d 6d 17 bd 63 a8 50 3d e9 fc 8c 3c
       0.0036860926 -0.03696977 0.050941836 0.01721044
000080 3b cf ed bc ab d7 31 3e c7 5d 1d 3e 9f 61 fe 3c
       -0.02902948 0.17367427 0.15367804 0.031052409
000090 15 9a c9 3d 6f 21 06 be 13 85 43 bb da a4 c1 3d
       0.09843842 -0.13098691 -0.0029833957 0.09455271
0000a0 34 27 74 3d f2 f8 a6 3d f2 13 a9 3d 06 b8 35 be
       0.0596077 0.08152951 0.082557574 -0.1774598
0000b0 e9 21 c0 3d 49 f1 13 3e 70 a4 8f 3d 24 dd d0 3c
       0.09381468 0.14447512 0.07013786 0.025496073
0000c0 b9 01 c2 bd 38 eb f5 bd 29 62 0a 3e c1 e7 eb bd
       -0.09472985 -0.12007755 0.13514008 -0.11518813
0000d0 d3 50 f3 bd 86 5b bb bd 79 80 c1 3d 8e 18 f7 3d
       -0.1188065 -0.09148316 0.09448332 0.1206523
0000e0 8b 87 c9 bc c4 3e de bc 15 3b 3e bd bf 5b 80 be
       -0.024600765 -0.027129538 -0.046443064 -0.25069997
0000f0 20 c4 cf bd 60 82 b8 bd 47 6f 91 bd 70 d4 63 bd
       -0.1014483 -0.09009242 -0.071013026 -0.055622518
000100 c3 75 aa be 43 dd 4e bd 57 52 d4 bc 05 34 ab 3d
       -0.3329297 -0.05050398 -0.025918169 0.08359531
000110 cf f7 ff bc f0 58 ac bd 2d 92 a3 bc a7 a4 39 3d
       -0.031246094 -0.08415401 -0.019967163 0.04532304
000120 52 35 29 3e a3 ef c5 3d c4 c4 f7 bc 0c c6 ea 3c
       0.16524246 0.09664848 -0.030245192 0.02865889
000130 a4 b0 09 bd 67 16 1e bd 1c ba b4 3c db 91 05 be
       -0.033615723 -0.038595583 0.0220614 -0.1304392
000140 30 14 38 3d 0d 45 d5 3d 17 78 6c bd 77 23 34 3e
       0.044941127 0.10413561 -0.057731714 0.17591654
000150 10 73 af 3d 06 1f 04 3e ac a4 89 3d 43 10 40 be
       0.08566868 0.1290246 0.06720862 -0.18756203
000160 83 bc 1c 3e 37 af c7 3d c3 96 1d 3e ef 93 19 bd
       0.15306287 0.097502165 0.15389542 -0.037494596
000170 e1 e5 b9 bd e2 6d ee bc 1e 0a 0e 3e 64 29 41 bd
       -0.09077049 -0.02910513 0.13871047 -0.047158614
000180 b8 d7 bf 3c 34 21 00 3d 98 62 0f bc 0e c0 1d 3e
       0.023418292 0.031281665 -0.008751534 0.15405294
000190 30 8c c0 3d b1 dd d9 3c 7e 4b 21 3d dc d4 5d bd
       0.09401739 0.026594969 0.039378636 -0.054158077
0001a0 23 f7 a7 bd 51 49 2c 3e ce 3c 65 3d ac 97 2d be
       -0.082014345 0.16824843 0.05596619 -0.1695239
0001b0 4d f3 a5 3d 05 4d f2 3c 8e 98 51 bc d0 5b 0f bd
       0.081030466 0.029577741 -0.0127927195 -0.03499967
0001c0 6d 3d 80 bd 4d 7d de 3d 8a 3a a1 3c 91 e0 bc 3d
       -0.06261716 0.10863743 0.019681234 0.0922252
0001d0 4a 4b 1c 3d c8 d9 f3 3c db 95 5f 3d 77 89 e8 3d
       0.03815774 0.029766932 0.054586273 0.11354344
0001e0 cf c5 01 3e 19 7e 0c 3e 72 30 a2 3c 02 b5 e8 3d
       0.12673114 0.13719977 0.019798491 0.113626495
0001f0 9a fd c6 3c 22 98 c5 3d 21 2c ad bd 5c 07 0c bd
       0.024290849 0.09648158 -0.084556825 -0.034186706
000200 c1 8e 8d bd 43 3e 1d bd 48 5c 60 3e 12 c7 1f 3e
       -0.06911994 -0.038389456 0.21910203 0.15603283
000210 b2 d2 4b be 33 90 94 bd dd 3b 8f 3b f0 d4 98 3e
       -0.19904593 -0.07254066 0.00437115 0.29849958
000220 f1 81 af 3d e7 94 30 3d 29 e9 ba 3d 56 76 36 3e
       0.08569706 0.043110754 0.09126503 0.17818579
000230 a6 3f 4e 3e b7 ac 6c 3d 7f d9 85 3d 1c 03 1e 3d
       0.20141467 0.0577819 0.06535625 0.038577184
000240 fc 43 ed 3d 14 16 15 3e fd 9c 4c 3e 8c 1a d8 bd
       0.115852326 0.14559203 0.19981761 -0.105519384
000250 66 ef 85 3d 88 c4 09 bd 4a dc 33 3c e9 2b 1f 3d
       0.06539802 -0.033634692 0.010977814 0.038860235
000260 de 6a 01 bd c7 a6 98 3d a3 96 a9 3a b6 b0 9b bc
       -0.031596057 0.07453685 0.001293857 -0.01900516
000270 70 4d f6 bc 20 cc 10 3e 2a 0b c7 3d 8f 14 78 3d
       -0.030066222 0.14140368 0.09718926 0.06056648
000280 a3 00 ef bc b0 3f 98 3c 52 b9 07 3e 15 19 85 bb
       -0.029175108 0.018585056 0.13254288 -0.004061828
000290 e8 98 fe bc f6 1a a5 bd 8c 62 52 3d a5 e3 9c 3e
       -0.03107877 -0.08061783 0.051363513 0.3064243
0002a0 86 0d 1f 3e 90 eb 98 bc 4c b1 ce 3d 6d 7e 84 3d
       0.15532503 -0.018667012 0.100924104 0.06469426
0002b0 d0 a8 4a 3e da 0a 98 bc 11 3d e2 3b 5e 66 8e 3e
       0.1979096 -0.018559862 0.0069042523 0.27812475
0002c0 a1 b4 ba 3e 74 7d 84 3e f9 2d 74 be b2 8d eb bd
       0.36465934 0.25876963 -0.23845662 -0.115016356
0002d0 4c 57 9d 3e 77 0d 68 3e 3d 32 08 3d 9d be 8f bd
       0.30730665 0.22661386 0.033251036 -0.070187785
0002e0 f9 21 ab bc 2c cf 0e 3e a9 f1 96 3d b6 cc ca bd
       -0.020890223 0.13946217 0.07370312 -0.09902327
0002f0 03 68 90 bd 1b 42 c7 3d 0e 9e 39 3e 28 c6 86 3c
       -0.07051089 0.097294055 0.181267 0.01645191
000300 74 a1 32 bd 49 fc 01 3e d3 27 4e 3e 49 4d 3f 3d
       -0.043611005 0.12693895 0.20132379 0.046704564
000310 7c 3b f9 3c 73 69 0e bd f4 9b aa 3b e2 a4 04 3e
       0.030423872 -0.034768533 0.0052065793 0.12953523
000320 f8 6c ef bc da 9e 1d be 7c 45 7b be cd 99 9e be
       -0.029226765 -0.15392628 -0.24538225 -0.30976716
000330 eb 94 b6 be 2a a4 10 3e 67 0c 94 bd d5 ce 1d 3d
       -0.3566049 0.14125124 -0.07228928 0.03852733
000340 3c 23 c5 bd 20 a1 13 be fb ea 97 3c 97 78 f7 bd
       -0.09625861 -0.14416933 0.018544665 -0.120835476
000350 ea 2a e7 bd b2 ca 09 be 46 91 b7 be 37 63 85 3d
       -0.11287482 -0.13456228 -0.35853022 0.06513064
000360 c0 0f ac bd a5 94 2d bd 44 18 7d bd 86 38 64 be
       -0.084014416 -0.042378087 -0.06179072 -0.22287187
000370 34 66 bf 3d 84 cb 73 bd 49 ef e5 3d 5a 24 96 3e
       0.093456656 -0.05952026 0.11227281 0.2932461
000380 cc 37 3b 3e f4 66 11 bd 42 df 91 bd f9 19 0d 3d
       0.18283004 -0.035498574 -0.07122661 0.034448598
000390 59 97 b5 bd 40 3a 90 3e 24 6a cf bb 7f b2 bb 3d
       -0.08866758 0.2816944 -0.0063297916 0.09164905
0003a0 16 8f cb bd 64 67 b1 3a 5f d6 51 bd f5 c7 60 3e
       -0.09939401 0.0013534841 -0.05122983 0.21951278
0003b0 09 5c cc 3d 2b 02 02 3e 56 85 05 3e 39 03 0c 3d
       0.09978492 0.1269614 0.13039145 0.03418276
0003c0 f0 23 19 3d c3 43 01 be 55 e1 a4 bd 52 3b e0 3d
       0.03738779 -0.12623505 -0.08050791 0.109488145
0003d0 d4 a4 0d bd ab b7 bd 3d c7 1f bd bd 49 aa 2c be
       -0.03458102 0.092635475 -0.09234577 -0.16861834
0003e0 c1 d5 00 3d 3f 92 36 be 19 59 6b bd fe 71 e7 bc
       0.03145385 -0.17829226 -0.057458017 -0.028252598
0003f0 88 64 fc 3b b6 a6 07 3e 69 69 8f bb a5 29 8a bd
       0.007702414 0.13247189 -0.0043765795 -0.06746224

fc1.bias f4 [120]
000000 46 36 c2 3d 53 c7 c0 3c 76 b2 a1 bc c0 71 ec 3d
       0.09483008 0.023532545 -0.019738417 0.115451336
000010 96 07 b6 bd d8 f7 17 3e 7c 4c ea bc e5 c5 4f 3d
       -0.08888166 0.14840639 -0.028600924 0.050725836
000020 c8 c6 61 3e 8e 81 3b be 8c 27 ac 3c 0e f0 59 3d
       0.22048485 -0.1831114 0.021014951 0.05320745
000030 91 e3 8b be 24 42 3a be a1 da 3e bd f8 86 19 be
       -0.27322057 -0.18189293 -0.04659522 -0.14992893
000040 79 28 8c bc 0b 6a 31 bd 38 ed 1b bd 54 91 e0 3b
       -0.017109143 -0.04331402 -0.038068026 0.006853262
000050 90 f5 0b 3c 35 ae 8d bd f2 5d 6a bd 4e 2d ba bb
       0.008542433 -0.06917993 -0.0572185 -0.0056816703
000060 f6 19 9e 3c 58 dc b2 3c c6 14 9b bc 1e e2 32 bd
       0.019299489 0.021833584 -0.018930804 -0.043672673
000070 7b 03 2a bd 33 bd ef 3d fa b5 b5 3d 68 82 66 3a
       -0.041507225 0.11706009 0.088726 0.0008793236
000080 2e fb c5 3d ed 1c f0 3d bd 08 2b bd f3 5b 04 be
       0.09667049 0.11724267 -0.04175638 -0.12925701
000090 4d f2 fb bc 7b 4d b5 bd 7a 5a 99 bd f2 79 78 bd
       -0.030755186 -0.08852669 -0.0748796 -0.06066317
0000a0 bb 08 0a 3d 40 d1 72 3c 69 ab 0b be 5f 2d 7a bd
       0.033699732 0.014820397 -0.13639607 -0.061078425
0000b0 f2 b4 68 3c 75 92 47 be 1b 3a 49 be 39 2f 82 3b
       0.014203297 -0.19489463 -0.19651072 0.0039729145
0000c0 40 a2 42 be 03 f4 1c 3b 06 79 09 be e7 a0 26 be
       -0.19007206 0.0023949153 -0.13425073 -0.16272317
0000d0 29 07 99 3c e5 cf 89 bd 54 2e 6f 3c 07 34 45 3e
       0.018680172 -0.06729106 0.014598448 0.19258128
0000e0 9a d9 ba bc 6d b5 bd bd a4 7e bb 3b 29 5b 28 be
       -0.022808839 -0.0926312 0.005721884 -0.16441025
0000f0 da 0d 0b 3e 38 00 77 bd 20 8e b9 bc 4e c0 75 3d
       0.13579503 -0.060302943 -0.022650778 0.05999785
000100 3b fa 96 3e da 36 06 be 1c 31 40 3d 8f 33 5b b9
       0.29487786 -0.13106862 0.046921834 -0.00020904675
000110 21 57 a4 bd e8 56 4d 3e ca 95 16 3d c5 05 29 3d
       -0.08024431 0.20052683 0.036763944 0.041265268
000120 62 7b a6 3d ad 5f 80 3d dd 4a de bd 57 bf 3d bb
       0.08129002 0.06268249 -0.10854123 -0.0028953159
000130 fb 52 a8 bd 53 e9 ed bd c1 e5 a5 3d 8c 39 d3 bc
       -0.08218952 -0.11616769 0.08100463 -0.025784276
000140 24 cb 2a bc af ce 95 bc 17 29 98 bd 14 0f e8 bc
       -0.010424409 -0.018287031 -0.07429712 -0.028327502
000150 8e e6 2f be 91 10 d0 ba ea 67 48 3e 47 75 67 3d
       -0.17177793 -0.0015874078 0.1957089 0.05650833
000160 98 a2 38 bd 08 11 45 3b 57 2a c4 bc c5 0d 00 3e
       -0.045076936 0.0030069966 -0.02394597 0.12505253
000170 5b 6d d7 bd 54 e7 e8 3d c2 51 83 bc 30 1c 0e 3e
       -0.10518905 0.11372247 -0.016030196 0.1387794
000180 30 00 70 3e 1f 7b 66 3e da a5 4e 3d 4a 1d dc 39
       0.23437572 0.22507904 0.050451137 0.00041983492
000190 11 96 23 3c a1 a2 b1 bd 91 c8 23 3d 15 42 34 bd
       0.009984509 -0.08673597 0.039986197 -0.044008333
0001a0 7d 2b 34 be 39 cb 8c bc a1 90 9c bd c3 d5 c5 3d
       -0.17594714 -0.017186748 -0.07644773 0.096599124
0001b0 0c 90 3e bd 80 73 8a bc 1e 6c 9e 3d d7 65 b4 bc
       -0.046524093 -0.016900778 0.077354655 -0.022021217
0001c0 ac ec 86 bd 68 4d 13 bd 9e f2 31 3c e4 e9 aa bd
       -0.0658811 -0.035962492 0.010861067 -0.08345392
0001d0 ac 27 9c 3d 12 2e 98 3b 6e 19 62 bd cd 5d d0 bc
       0.07624754 0.004644164 -0.055200033 -0.025435353

fc2.weight f4 [27, 120]
000000 10 f5 1a be 9e 55 83 bd 7b 89 e2 3c 1e 4f 01 be
       -0.15132546 -0.064128146 0.027653446 -0.12627837
000010 60 a3 a0 bc c5 b2 21 be 05 99 15 be ee f7 09 be
       -0.019609153 -0.15790851 -0.14609154 -0.13473484
000020 cc 69 90 bd 68 cd e1 be 41 ca 23 3d 09 6a be bd
       -0.07051429 -0.44102025 0.039987806 -0.09297568
000030 d9 fc 0f be 76 3d 45 bc 7c 60 50 3b da 72 d5 bd
       -0.14061297 -0.012038579 0.003179579 -0.10422297
000040 81 7e a7 3d d6 68 cf bd 44 d7 1a bc 03 39 8c 3d
       0.081784256 -0.10127418 -0.009450737 0.068468116
000050 c0 a1 ab bd 7a 7a 1b bf 27 8c 92 bd c6 cb 6b 3d
       -0.08380461 -0.6073376 -0.07155638 0.05756738
000060 33 72 22 be ff 8f b5 bd 61 16 e5 bd 3c 48 e9 bd
       -0.15863876 -0.08865356 -0.11185909 -0.11390731
000070 32 f9 07 bd 75 fb 49 be f6 6e ba bd 0f 40 9a be
       -0.033196636 -0.1972483 -0.09103195 -0.30126998
000080 6c 50 12 be b5 e5 1a be 11 40 e6 3c 03 76 9e be
       -0.14288491 -0.15126689 0.028106721 -0.3094941
000090 4a 9b fe bd 83 1c 49 be ab e1 4a bd bf 74 52 be
       -0.12431963 -0.19639783 -0.04953162 -0.20552348
0000a0 55 5e ad bd 67 e0 65 be 75 e5 16 be 4a c4 9a bd
       -0.08465258 -0.22448884 -0.14735968 -0.075569704
0000b0 4b a8 f8 bd 86 6a 32 be a9 88 6e be 79 69 bf bd
       -0.12141474 -0.17423448 -0.23294319 -0.09346289
0000c0 a2 56 b7 bc b8 34 9c bd 47 dd f0 be 9e 04 23 bd
       -0.022380177 -0.07627243 -0.4704382 -0.039799325
0000d0 34 eb 48 be 4d 19 8a 3c 9e a2 02 be ec 41 08 be
       -0.19620973 0.016857767 -0.12757346 -0.13306397
0000e0 c0 a4 66 be e5 c3 2c be be bd 25 be 5a 3b 45 bd
       -0.22523785 -0.16871603 -0.16185662 -0.048152305
0000f0 9b c9 3e be fd 49 c3 bd d4 2e fe bd fa d7 e1 be
       -0.18631594 -0.095355965 -0.124112755 -0.4411009
000100 18 66 6c be 06 12 c3 be cd 70 8f bd 54 9d 9d bd
       -0.2308582 -0.38099688 -0.07003937 -0.076960236
000110 45 39 76 3d 1f 24 26 be 73 7e c1 be 3e e2 d5 bd
       0.06011321 -0.16224717 -0.37791786 -0.10443543
000120 87 69 3d bc 3b 74 14 be 94 bb 6b be d9 0b 13 be
       -0.011560804 -0.14497463 -0.23020774 -0.14359988
000130 45 6e fe 3c f3 44 83 bd 74 14 cf bd 26 86 2f be
       0.03105844 -0.064096354 -0.10111323 -0.17141017
000140 af ae 81 be 73 f3 2d 3c 1d f6 e3 3c c1 dd b4 bd
       -0.25328586 0.010617125 0.027827317 -0.08831359
000150 36 b3 13 bd 49 8b 84 bb 71 94 74 bd 70 ad 14 be
       -0.03605958 -0.0040449244 -0.059711877 -0.14519286
000160 79 ca 27 be ec f6 33 3d 92 b2 77 3d a3 e3 16 be
       -0.16385831 0.043936655 0.060473032 -0.14735274
000170 28 6b e4 bc 99 7e f6 bd 8d d4 08 be 9c 82 ef bd
       -0.027883127 -0.12035865 -0.13362332 -0.11694834
000180 ab e4 04 be a6 d6 ee bd 6c d1 4a be 47 a9 b8 bd
       -0.12977855 -0.11662035 -0.1980645 -0.09016662
000190 1e 6d cc bd a5 3b e1 bd 4b 21 ad bd a5 8b a1 3d
       -0.0998175 -0.109977044 -0.08453616 0.07887963
0001a0 30 33 f7 bd 1c 67 ce bb 4f 31 0c be aa df 51 bd
       -0.1207031 -0.0062989127 -0.13690685 -0.051238693
0001b0 a0 97 7d 3d 52 09 bb bd e1 fc e3 bd 07 45 22 bd
       0.06191218 -0.09132637 -0.11132217 -0.03961661
0001c0 1f 77 c8 be 1d 3b 9e bc b9 eb 44 be 03 3f c2 bd
       -0.39153382 -0.019315297 -0.19230546 -0.09484675
0001d0 ab 36 e8 bd ef 17 85 bd 78 d7 18 bd 05 f5 6a bd
       -0.11338552 -0.064987056 -0.037314862 -0.057362575
0001e0 1a 1c 85 3d 45 ca e2 bc 24 3f 36 3d 32 aa 2f be
       0.064995006 -0.02768434 0.04449381 -0.17154768
0001f0 44 1c ba bd 87 f0 b5 bc c1 fb c6 3d 17 64 e0 be
       -0.090874225 -0.022209419 0.09715987 -0.43826362
000200 50 36 49 3d 04 9c 94 bd 1c e5 cd bd 99 61 89 bd
       0.049124062 -0.0725632 -0.10053465 -0.067080684
000210 cf 0e a6 3d 0e 99 5a bc 42 d0 76 bb a5 63 af bd
       0.08108293 -0.013342155 -0.0037660752 -0.085639276
000220 8d de 87 bc 72 f4 5d be e1 c6 83 bb ab c8 c7 bd
       -0.016585613 -0.2167528 -0.004021511 -0.09755071
000230 04 c2 be bd db 50 05 bc 1b d3 7b bd 8f 5a 13 bd
       -0.09314349 -0.008136953 -0.061480623 -0.035975035
000240 46 7f 45 3d 61 ff 60 be c3 17 c2 bd 1b d2 92 be
       0.04821708 -0.2197242 -0.094771884 -0.28675923
000250 28 b5 86 3e 02 eb 90 bb ea 1f 10 3d 9f f8 f8 be
       0.26310086 -0.0044225464 0.035186686 -0.48627183
000260 e7 e2 37 be 75 de 4d bc 76 a6 71 bd ba 03 67 bd
       -0.1795765 -0.012565245 -0.05899664 -0.05640004
000270 58 9f b7 3e ff 23 85 3e ca 8c 18 3e 23 0c 97 3d
       0.35863757 0.26004025 0.14897457 0.07375362
000280 cc f8 a3 3d 67 64 da 3d 90 2e c4 bd 67 d1 29 bc
       0.080064386 0.106636815 -0.095791936 -0.010364867
000290 97 2e 35 be 67 21 5c 3e 86 ef 6a bd ee 49 1c bd
       -0.17693554 0.21497117 -0.057357334 -0.038156442
0002a0 db b0 b4 bc c5 6c 82 3c b0 1e 1a 3e df 1b ad 3c
       -0.022056988 0.015921006 0.15050769 0.021131454
0002b0 fa df 3d 3d cc 17 19 3d 5d 4a 92 be 1f 7f 80 3d
       0.04635618 0.03737621 -0.2857236 0.062742464
0002c0 22 d1 84 be 7d 61 e6 3c 13 86 7d bc c6 75 56 bd
       -0.25940806 0.028122658 -0.01547386 -0.05235841
0002d0 d0 96 f1 3d 8e 61 0d be a6 84 9f 3c f9 1f 51 be
       0.11796343 -0.13806745 0.019472431 -0.20422353
0002e0 67 21 84 bd bd 49 8d 3d a7 4c 2b 3e c6 b0 06 bb
       -0.064516835 0.0689883 0.1672846 -0.0020552143
0002f0 d6 33 b5 bc 6e 61 83 bd 92 b6 17 be 44 c6 31 3e
       -0.022119444 -0.064150676 -0.14815739 0.17360789
000300 53 cb 36 be bd aa 9b 3c 60 1c dc bd df f2 a9 be
       -0.17851 0.019002313 -0.107475996 -0.33193108
000310 04 73 90 bd 71 f5 06 3e 35 a9 58 be 7e 36 40 bb
       -0.070531875 0.13179566 -0.21158297 -0.0029329355
000320 35 0e a4 bd b8 d3 a2 bd 86 c3 09 be 9f 34 0d 3e
       -0.08010522 -0.079505384 -0.13453493 0.13789605
000330 de 50 95 be f1 f4 ae 3d 0e e1 64 3d a7 43 91 b9
       -0.2916326 0.085428126 0.05587869 -0.0002770696
000340 89 56 7a bd d3 eb 0a 3d 16 f1 09 bd 6f ef 83 3d
       -0.061117683 0.033916306 -0.033677183 0.06442153
000350 9c 2a 89 bd b0 45 ba 3d 4e e3 52 be ce 14 fc bd
       -0.0669758 0.09095323 -0.20594522 -0.12308656
000360 64 48 ad bd c0 0a 76 3d a4 84 64 be dc 2e e1 3d
       -0.08461073 0.060068846 -0.22316223 0.10995266
000370 f4 0f 0a 3e b7 97 be 3d 2f 9d 5a bd b8 1a 93 3d
       0.13482648 0.09306281 -0.05337256 0.071828306
000380 65 fc 98 3d 1a 81 86 be 30 25 39 3d 54 1d 1f be
       0.074700154 -0.26270372 0.04520148 -0.15538532
000390 b5 bf cf bc bd ae 58 3c 6d b0 83 3e 09 4e e7 bb
       -0.025359968 0.013225255 0.2572054 -0.007058863
0003a0 c9 94 9c be 77 f8 83 bd 3a c4 18 be c3 c5 2d be
       -0.30582264 -0.06443875 -0.14918604 -0.16969971
0003b0 c0 99 ca bd 6e b7 3f 3d 34 20 db bc da 14 1d bd
       -0.09892607 0.04680579 -0.026748754 -0.038349964
0003c0 5a c4 5e 3d 1d 3c 59 be 5f 3e bb 3d 10 ea 42 3e
       0.054386474 -0.21214338 0.09142756 0.190346
0003d0 88 b8 c5 bd 25 ff 55 bd 1d 7d 6f 3e 4a e6 13 3e
       -0.09654337 -0.052245278 0.2338757 0.14443317
0003e0 56 ce 76 be 90 85 95 bd d7 d6 c0 3c c4 ca 04 3e
       -0.24102148 -0.07300866 0.023539944 0.12967974
0003f0 aa 63 cb be 77 63 11 bd c0 b3 72 3d 4b c1 13 bc
       -0.39724475 -0.035495248 0.059253454 -0.009018253

fc2.bias f4 [27]
000000 88 96 05 3d 58 33 01 3d 6a 52 6b 3d 0a 1d db bd
       0.03261426 0.031543106 0.057451643 -0.10698898
000010 c0 cd 93 bc 7c 53 7d 3c 23 5e 1b 3e 8f 67 93 3d
       -0.018042445 0.015461799 0.15172629 0.071974866
000020 5b 5c 71 bd eb 96 b3 bd fb 76 d3 bc 0e 00 0a 3e
       -0.058925968 -0.0876902 -0.02581357 0.13476583
000030 4a 7f 86 bd 57 ad 1e 3e 9c 39 39 be 8e 48 77 bd
       -0.06567247 0.15495811 -0.18088382 -0.060371928
000040 68 26 f2 3d 3e bf ee 3d 8c 7e 25 be c8 48 3b 3c
       0.11823732 0.1165757 -0.16161555 0.011430927
000050 69 92 3c be d8 33 0b bd 7f 9b d5 bd ed b9 13 3d
       -0.18415226 -0.03398499 -0.10430049 0.036065985
000060 ff 86 58 bd 2a 47 83 3c 3f 70 16 3e
       -0.052863117 0.016025145 0.14691256
