Alphabet Recognition/LeNet5/model.pth (torch, 255407 bytes, 10 tensors)

conv1.weight f4 [6, 1, 5, 5]
000000 92 ec 30 be 9f c4 6c be cf 61 56 be e1 60 30 be
       -0.17277744 -0.2312188 -0.20935749 -0.17224456
000010 46 9d 60 be ba 2a 58 be 36 ee 2f be 2d f7 80 be
       -0.21934995 -0.21110049 -0.17180714 -0.2518858
000020 2f 44 b1 be 6a dd b9 be ac d4 96 be 69 25 92 be
       -0.34622332 -0.36301738 -0.2945913 -0.28544167
000030 66 f4 b5 bd 74 0f 2d be 5b 7c f1 be 7b 9d 91 bd
       -0.08884506 -0.16900426 -0.47165188 -0.07110115
000040 a3 11 03 be f6 96 4f be 31 8a 98 be 2d e2 34 bd
       -0.12799697 -0.20272431 -0.29792932 -0.04416101
000050 70 f9 9b bd a3 07 a4 be 60 39 bb be 4b 51 94 be
       -0.07615936 -0.32037076 -0.3656721 -0.28968272
000060 57 81 2e 3c 76 46 be 3b c1 e6 d7 3c 9d a9 e2 bd
       0.010650954 0.0058067394 0.02635515 -0.110675074
000070 90 18 04 be ec 39 11 be d0 c6 77 3d 3e 6b 2e 3e
       -0.12899995 -0.14182252 0.060492337 0.17033097
000080 28 17 c2 be a5 e5 ac be 7a 21 86 3d 65 09 ae bd
       -0.37908292 -0.33768955 0.06549354 -0.084978856
000090 cd b8 96 3d 59 fd ad 3e 69 93 b3 3e 48 49 99 bc
       0.07359467 0.3398235 0.35073403 -0.018711701
0000a0 00 a1 0e be f2 31 2d 3d c3 6a b3 3e 41 47 9c 3e
       -0.13928604 0.04228396 0.3504239 0.30523112
0000b0 a8 51 52 3e c1 c6 37 bc e0 58 52 bd 02 b2 ab be
       0.20538962 -0.01121682 -0.05135429 -0.33534247
0000c0 54 44 c2 be eb 01 22 be 00 05 a2 3e e1 48 51 3d
       -0.37942755 -0.15821044 0.3164444 0.051094893
0000d0 6f 6c c8 bb f4 cc 56 be 4b 5e 4a be 68 f1 29 be
       -0.006116442 -0.20976621 -0.19762532 -0.16595995
0000e0 2e 3e c8 be 11 68 fb be e8 ca 8f be 05 6b ee bd
       -0.3910994 -0.49102834 -0.28084493 -0.11641506
0000f0 54 a3 21 bd 43 77 19 be 3e e5 aa bd 30 fc 93 3d
       -0.039462402 -0.14986901 -0.08344506 0.07225835
000100 94 98 f4 3d f3 ca 8f bd 76 c6 5f 3e 55 14 8e 3e
       0.119431645 -0.07021131 0.2185305 0.27749887
000110 39 b1 02 3e 9c dd 80 3d 89 c8 4e 3d aa f9 2f 3e
       0.12762918 0.06292269 0.050484214 0.17185083
000120 74 37 8c 3e d4 97 cb 3d 98 e7 27 3e 1b ea 5e 3e
       0.27386057 0.09941068 0.1639694 0.21768992
000130 b5 bb dc bc 52 6c 61 3d 02 ef 17 3c 41 51 8e bc
       -0.026944974 0.055034943 0.0092732925 -0.01737273
000140 b4 36 40 bd 05 0e b1 3a a1 17 c9 3d 21 9a 50 3e
       -0.04692717 0.0013508206 0.0981896 0.20371296
000150 92 a0 69 be ca 9d 0f 3e dc 40 13 3e 69 7f ba 3d
       -0.22815159 0.14025036 0.1438021 0.09106333
000160 48 75 5d 3c a1 c3 98 be 2b ca ec 3d 9c 71 37 3e
       0.013516732 -0.29836753 0.11561998 0.17914432
000170 e1 55 33 3e 24 35 c3 bd 5c ad a8 be 44 5c aa 3d
       0.17513229 -0.0953162 -0.32944763 0.083183795
000180 21 c4 d0 3d c8 ed 3f 3e 58 5e 22 be 61 9d 90 be
       0.101936586 0.1874305 -0.15856302 -0.2824507
000190 fd de 66 3e 53 6e 5b be 97 11 a5 be 13 c8 8c be
       0.22546001 -0.21428804 -0.32239982 -0.27496395
0001a0 f7 1e 8a 3e 91 b8 86 3e 55 58 19 be a1 31 cf be
       0.2697675 0.26312688 -0.14975102 -0.4046755
0001b0 fd 77 71 be c1 41 a9 3e cb d3 c8 3e 23 02 47 be
       -0.23580928 0.3305798 0.39224085 -0.19434409
0001c0 b2 8b c7 be 2c 3f 71 3d dd 62 6a 3e d7 76 b3 3e
       -0.38973767 0.058898136 0.22889276 0.35051605
0001d0 39 bd 28 3d 2f 42 1c 3e c3 7d 2c bd ea c7 20 be
       0.04119608 0.15259622 -0.042112123 -0.15701261
0001e0 87 bc 99 3c d0 9e fe 3d 04 bb b4 3c a9 ae 8e 3d
       0.018766655 0.12432635 0.022061832 0.069669075
0001f0 cb fc 80 bd 4a 89 07 be ac ce 8c 3d 9c a9 c5 bd
       -0.062982164 -0.13235965 0.06875357 -0.09651491
000200 f6 bb 35 3e 77 2b 98 3e 8a a3 0c be dd 84 e8 be
       0.17747483 0.2972066 -0.1373426 -0.45413867
000210 97 04 29 be 87 26 9e 3e 0a 29 12 3d 6e 24 b9 be
       -0.16505657 0.3088877 0.03568367 -0.36160606
000220 8c 71 85 be be 83 a6 3d f8 20 75 3e 84 68 26 3e
       -0.26063192 0.081305966 0.23938358 0.16250807
000230 52 f2 58 be 73 29 ae be 03 49 e0 3d 3f 23 bc 3e
       -0.21186188 -0.34015998 0.10951426 0.3674564
000240 b1 2f 00 bd 91 f7 8a bc 2a db 1b be 1f b8 cd 3e
       -0.031295482 -0.016963752 -0.15220323 0.40179536
000250 65 8e 3a 3e e7 3e f4 bd
       0.18218382 -0.1192606

conv1.bias f4 [6]
000000 f1 fe d1 3d f6 b2 bf 3c 1a 4a 8e bc ba 90 26 be
       0.10253704 0.023400765 -0.017369319 -0.16266146
000010 de 21 4c bd f3 e3 bc bd
       -0.049836986 -0.09223165

conv2.weight f4 [16, 6, 5, 5]
000000 cb fb 01 3d d8 53 31 3e 8f c5 f4 bd ee ce 45 be
       0.03173427 0.1731714 -0.11951744 -0.19317219
000010 ed 45 2d be 33 16 30 be f5 02 af 3d 9c ed b1 3c
       -0.16921206 -0.17195968 0.08545486 0.021719746
000020 01 f7 de 3d 46 3a 2b be 4c 56 53 3d 97 82 e1 3d
       0.10886956 -0.16721448 0.05159597 0.11011236
000030 c1 79 d0 be c0 e2 34 be 8c ac d3 bc 65 a9 e3 bd
       -0.4071789 -0.17664623 -0.025839113 -0.11116294
000040 12 60 00 be 05 36 c8 be cb 80 9b bd 3b d1 c0 3c
       -0.12536648 -0.39103714 -0.07592925 0.023537269
000050 36 f1 a8 3d 58 7a ea bd f1 52 04 be 3a e8 7e 3d
       0.08249132 -0.114491165 -0.12922265 0.062233187
000060 26 e4 4b 3d e4 1d b4 3d a6 3c 2e 3c f1 38 70 3d
       0.049778126 0.08794764 0.010634577 0.058648054
000070 05 f0 41 3e b1 fd 28 3e 7b 0d 2a 3e b9 24 8b bc
       0.18939216 0.16503026 0.16606705 -0.016985284
000080 bb be a9 bd 73 8f 46 bd b5 6f a8 3c 47 d4 8b 3d
       -0.08288332 -0.048476648 0.020561079 0.06827598
000090 a8 0a 54 be 8d f9 a4 bb ef f0 03 3d c5 8d ec 3d
       -0.2070719 -0.0050346316 0.032212194 0.11550478
0000a0 e8 80 4e be 02 16 fa bd af 29 b4 bd 05 57 0c be
       -0.20166361 -0.12211229 -0.08797013 -0.1370507
0000b0 a8 d5 88 bd 5f aa b7 bd f6 c6 11 be 29 2b 38 3c
       -0.06681377 -0.089680426 -0.14236054 0.011240759
0000c0 3a c3 c1 bd 4b 58 83 be 6e 46 dc 3d b9 41 f3 3d
       -0.09461065 -0.256533 0.10755621 0.1187777
0000d0 a0 e2 fc 3c eb d4 2f bd 56 d2 5f 3e bf cb 90 3d
       0.030869782 -0.042927664 0.2185758 0.070701115
0000e0 76 99 fb bc 85 8b 6f be 53 18 56 be 27 b3 a4 3d
       -0.030712824 -0.23393066 -0.20907716 0.08041983
0000f0 2e 76 84 be 9e 39 56 be 3a 57 c7 be c3 75 17 bf
       -0.25871414 -0.20920417 -0.38933736 -0.59164065
000100 35 79 63 be 6c a8 23 be 1d b0 1e be eb ba b9 be
       -0.22214206 -0.15982217 -0.1549687 -0.3627542
000110 02 c6 51 be 57 9a 2a be fe 05 6a be f5 c4 be be
       -0.2048569 -0.16660438 -0.22853848 -0.3725964
000120 28 a3 95 be 5f 15 e7 bd 85 ec 0f be 06 6e 25 be
       -0.2922604 -0.11283373 -0.14055069 -0.16155252
000130 9b 56 c7 3c 5d 9e 35 3e 2e a6 27 3e d6 47 5d 3d
       0.024333289 0.17736192 0.16371986 0.054023586
000140 5a 8d 37 3d 3f 20 f1 3d 31 88 43 3e f0 6a 3e 3e
       0.044812538 0.117737286 0.19094922 0.18595481
000150 03 39 a0 3d f0 14 1e 39 13 2d 7f 3d db 41 3e 3e
       0.07823374 0.00015075854 0.062298845 0.1857981
000160 6b 2d 84 3e dc af 45 bd 24 64 83 bd e8 73 bc 3b
       0.258159 -0.048263416 -0.06415585 0.005751122
000170 5a 33 f2 3d 96 17 07 3e 93 c4 72 bd de 6b 67 bc
       0.11826201 0.13192591 -0.0592695 -0.014124839
000180 7a 06 bf 3c 36 79 74 be b5 17 92 bd 22 59 80 bd
       0.023318518 -0.23874363 -0.07133428 -0.06267001
000190 1b 94 63 3d 83 d7 38 bd d0 5d 0b be 18 82 98 3d
       0.055561166 -0.045127403 -0.13610005 0.074466884
0001a0 7e 61 8f 3e 90 da 80 3d 40 df 85 be bf 83 a0 be
       0.28004068 0.062916875 -0.2614689 -0.31350514
0001b0 04 02 c8 bd 95 41 26 3d ae 02 90 be 0a cb c9 be
       -0.097660094 0.040589888 -0.28127044 -0.3941272
0001c0 84 c8 ee bd 43 dc 73 bc 7e 78 fd 3c 29 a0 0a bb
       -0.11659339 -0.014884057 0.030941244 -0.0021152592
0001d0 7d 60 b1 bd c8 24 c4 3a d2 19 83 bc ed 1b 9f 3d
       -0.08660982 0.0014964575 -0.016003523 0.07768998
0001e0 bb 41 47 3d de 59 ad bb 2b 4c e3 3d ad b2 0e be
       0.04864667 -0.005290254 0.11098512 -0.13935347
0001f0 56 4a e9 3d 5c 56 be 3b f0 74 ab bd 17 68 3f 3a
       0.113911316 0.0058086347 -0.083719134 0.00073015824
000200 59 8b 15 be 6f 80 f8 be c9 e2 af bd 44 df 13 be
       -0.14603938 -0.48535487 -0.08588178 -0.14440638
000210 fe ba 5e 3d 6a 2b 58 3c 74 35 36 be ee 55 28 be
       0.05437755 0.0131939445 -0.17793828 -0.1643903
000220 14 2f e9 3d 80 c8 0b 3e 09 0d dc bc 22 4b d6 bd
       0.113859326 0.13650703 -0.026861684 -0.10463549
000230 82 e1 4c bd 19 d4 93 3e bd 78 12 3e c1 d9 b9 bd
       -0.05001975 0.28872755 0.1430387 -0.090747364
000240 a7 67 56 bb 80 38 e8 3d a7 1c b7 3d 15 5c 67 bd
       -0.003271559 0.113389015 0.08941012 -0.0564843
000250 ed f8 88 be 60 25 c1 bd 5c 94 6e 3d 4a 24 10 3c
       -0.26752415 -0.09430957 0.058246955 0.0087977145
000260 c2 74 54 be 1d 7d 9e be fe 1d 33 be f5 c1 2c be
       -0.20747665 -0.3095483 -0.1749191 -0.16870864
000270 a3 52 45 be 7a 47 48 be 25 1a 75 be f3 bc 45 be
       -0.19269805 -0.19558516 -0.23935755 -0.1931036
000280 45 c4 83 3c 13 af 0e 3c a1 bd 3d bd 0b 0d 44 3d
       0.0160848 0.008708733 -0.046323422 0.047864
000290 d2 81 49 3d 4a 42 5f 3e 65 c5 ae 3d 53 a7 68 3d
       0.049196072 0.21802631 0.08533744 0.056800198
0002a0 b5 bb 64 3d 57 12 03 3e 12 fb 84 3d df 05 12 3d
       0.055843074 0.12799965 0.064932 0.03565013
0002b0 ad dd 23 be 31 95 5c be 4f 9f 8f bc ae 6d 22 3e
       -0.16002531 -0.21541287 -0.017532019 0.15862152
0002c0 66 a5 22 3d 1f 97 b4 3d 35 22 38 3e 04 27 b0 3d
       0.039708517 0.088178866 0.17981799 0.08601192
0002d0 83 3b 8a 3d 89 b7 5a bd c9 c9 86 3d c7 e9 42 3e
       0.06749632 -0.05339769 0.06581456 0.19034491
0002e0 c2 4c 2f 3e eb ed 9f bd 6b d6 9f bd f4 bf e6 3d
       0.17119125 -0.07809051 -0.07804569 0.11267081
0002f0 90 d3 58 be e4 28 f7 bd 96 78 30 3e fd f8 b6 3d
       -0.21174455 -0.12068346 0.172335 0.089342095
000300 c1 26 ef 3d 8f 92 61 3e 04 00 dc bc 5f 0d 01 3d
       0.116773136 0.22028564 -0.026855476 0.031506892
000310 63 be 17 bd 1c 76 d1 3d f4 fe 0f 3e 98 59 fc 3a
       -0.0370468 0.10227606 0.140621 0.0019252775
000320 fe 89 80 bc ee 08 a3 3d e3 a1 58 3e ab 29 de 3d
       -0.0156908 0.079606876 0.21155505 0.10847791
000330 bd d1 30 3e b7 73 44 3d 2e 8b f1 3c 02 51 e7 bd
       0.17267509 0.047961917 0.029485311 -0.11294748
000340 1e ce 2a bd 48 a7 46 38 a6 5b 2a bc e2 a3 07 be
       -0.041700475 4.736267e-05 -0.010397827 -0.1324611
000350 e5 66 a4 bd f4 22 1d 3e bb 52 82 3d be f1 b2 bb
       -0.08027438 0.15345365 0.06363436 -0.005460947
000360 cc 8c 1d 3e 50 57 46 3e b4 61 97 3e cd 11 f9 3d
       0.15385741 0.19369245 0.2956673 0.12161598
000370 44 66 93 3d 11 12 a8 3d 96 02 9e 3d 6c c8 ba 3d
       0.0719724 0.08206571 0.07715337 0.09120259
000380 3f cf 14 3d 86 f4 58 bd 8b aa 91 bc 30 45 71 3d
       0.036330458 -0.05296757 -0.017781517 0.058903873
000390 2e b1 28 3e 84 d0 d2 3c 36 f5 c2 bd ef e5 66 bd
       0.16473839 0.025734194 -0.095194265 -0.056371626
0003a0 b7 f3 1a 3e b6 2c fd 3d 0c 23 fc bd 75 fb 1b be
       0.15132032 0.123620436 -0.12311372 -0.15232642
0003b0 e3 02 75 bc 69 92 26 3e 68 59 a2 3d f7 98 30 be
       -0.0149543015 0.16266789 0.07927209 -0.17245851
0003c0 c8 d0 8a bd 9e d7 3f be 94 94 bf bd ae a5 51 bd
       -0.06778103 -0.18734595 -0.09354511 -0.051183395
0003d0 c3 52 8c bc e3 53 54 bd fa 93 15 bd 55 b9 be 3c
       -0.017129308 -0.051837813 -0.036518075 0.023281733
0003e0 f9 f9 00 3d 89 e8 91 3d 85 fe a6 bd f8 58 cd bd
       0.031488393 0.07124431 -0.081540145 -0.10026735
0003f0 82 2a d7 3d d7 21 ad 3d 9a 75 12 3e a8 60 af bd
       0.105061546 0.0845372 0.14302674 -0.085633576

conv2.bias f4 [16]
000000 b3 6d b3 3d a0 22 ef bb 32 31 bf bc 5b 70 97 3c
       0.08761158 -0.007297829 -0.023338888 0.018486192
000010 ed 0c a9 bc 55 2a bc 3d d9 bf 02 bd 8e cf bc bd
       -0.020636046 0.09187762 -0.03192124 -0.092192754
000020 e1 f7 c8 3b 9a d8 e2 bd 0f be 78 bd 5c 27 35 3d
       0.006133065 -0.1107647 -0.06072813 0.04422699
000030 86 f9 1e bd d5 ee b7 bc 2d b3 8c 3d 0e 6a d3 3c
       -0.038812183 -0.022452751 0.068701126 0.025807407

fc1.weight f4 [120, 400]
000000 dd a8 1f 3d f0 e1 68 3e cf 3e 8e 3e 99 ab 29 3d
       0.0389794 0.22742438 0.27782294 0.041423414
000010 78 d2 ae bc a2 a8 1a bd fe e9 a3 3d 63 c5 db bd
       -0.021340594 -0.037758477 0.08003615 -0.10731008
000020 c6 87 03 bd 90 72 36 bc c2 2f 9c bc a6 f1 29 3d
       -0.032111906 -0.011135712 -0.019065741 0.04149022
000030 d2 75 a3 3b c3 f1 4c 3e fb af 9c 3d 4c f5 bc 3c
       0.0049884105 0.200141 0.07650753 0.023066185
000040 ac 2f d2 bc c9 70 e7 be 82 82 0e 3d a3 91 1a be
       -0.025657497 -0.45203236 0.03479243 -0.15094618
000050 b9 ef fd 3d 1e f1 e4 bd e5 ac 08 be d9 61 97 be
       0.12399239 -0.11178802 -0.13347204 -0.2956684
000060 fe 72 30 be d9 2d 0b bd 6a 08 62 3c 71 f3 16 be
       -0.17231366 -0.03397927 0.013795951 -0.14741303
000070 57 c6 d2 bb 40 94 23 bd 2a 2d 79 bd 89 13 00 be
       -0.0064323354 -0.039936304 -0.060834087 -0.12507452
000080 5c 3b 12 3d 1e 9b 02 3d cb ef a9 bd 6a 3d 28 bd
       0.03570114 0.031886213 -0.0829769 -0.041074194
000090 c7 d1 c0 3b 31 91 c6 3b 9f f7 b8 bb e6 2a 22 3e
       0.0058843824 0.0060597886 -0.005644753 0.15836677
0000a0 66 8d b0 bd 8b 60 c5 3c 20 88 b3 bc a2 c9 13 be
       -0.086207196 0.024093887 -0.021915495 -0.14432386
0000b0 b8 66 31 bd 11 d1 9c 3d ae 23 b4 3d 2f 3c 86 bd
       -0.04331085 0.07657064 0.08795868 -0.06554448
0000c0 13 06 a4 be dc b5 ba be 7f 77 40 bd 97 c7 24 3d
       -0.32035884 -0.36466873 -0.04698896 0.040229406
0000d0 c9 1a ab 3d 05 02 23 3c 6a 43 69 bd 8b 7d 7b 3d
       0.08354718 0.009949212 -0.056949057 0.061399024
0000e0 29 f3 95 3d 0b c1 c7 3d 96 b7 13 bd 95 2e 1e be
       0.0732177 0.09753617 -0.036063753 -0.15447457
0000f0 a0 4e 22 bd d2 c1 95 3d fb 73 0a bd 38 df 54 be
       -0.039625764 0.07312359 -0.033802014 -0.20788276
000100 15 f6 44 bd 88 44 cb 3d 7b c4 af 3d 5e f2 0b 3a
       -0.048086245 0.09925181 0.085823976 0.0005338545
000110 25 5b 20 be ac 1b 9d be 88 e7 61 3e e5 6b 4a 3e
       -0.15659769 -0.30685174 0.22060978 0.19767721
000120 ec 7b a7 bd 09 e5 e3 bd 9a 3b 3d be 7d 77 6c be
       -0.08177933 -0.11127669 -0.18479767 -0.23092456
000130 8c fd ae bc ca cf 04 3e 96 13 23 be 1c 34 30 be
       -0.021361135 0.1296989 -0.1592544 -0.17207378
000140 06 4a 73 3e fe c8 45 3e 69 ad 1b 3e 7d 16 b3 be
       0.23758706 0.19314954 0.1520287 -0.34978095
000150 4a 9a 96 be 1a 23 15 3e ab 30 04 3e df d9 fd bd
       -0.29414588 0.14564171 0.1290919 -0.12395071
000160 11 67 21 be bf bf 17 be 7f 15 00 3e 14 3f d6 bc
       -0.15761973 -0.14819239 0.125082 -0.026153125
000170 59 e5 b7 bd 6e ec 75 bd 1c da 87 be 64 87 48 3d
       -0.089792915 -0.06003993 -0.26533592 0.048957244
000180 9d 28 4e bd ba 4c 9c bd 2c ca 70 be 75 62 88 be
       -0.0503317 -0.07631822 -0.23514622 -0.26637617
000190 da 4d c1 3d 57 b7 e3 3d 19 3f c9 bc 3a b4 e6 bd
       0.09438677 0.11118954 -0.02456622 -0.11264844
0001a0 4e 44 8f 3d 9e b8 24 3e 8c 32 63 be de 85 d2 3d
       0.0699545 0.16086051 -0.22187251 0.102794394
0001b0 d5 91 55 3e 62 d4 23 3d 11 5c 7b 3d 4a 13 52 be
       0.20856412 0.039997466 0.0613671 -0.2051517
0001c0 75 5a 9a 3e 19 b6 69 3c 91 f0 09 bd f9 da 54 be
       0.30147138 0.014264607 -0.033676688 -0.20786656
0001d0 8e a1 b3 3d 36 49 61 3c d0 38 10 bd 26 31 43 3d
       0.087710485 0.013750365 -0.03521043 0.047654293
0001e0 d3 08 86 bc c3 05 23 bc 2b de 0a be 1c 19 a6 3d
       -0.01636163 -0.009950104 -0.13561313 0.08110258
0001f0 5f a3 95 3d a9 6e c8 bd 8f 4b 1b be ab 36 08 3e
       0.07306551 -0.09786732 -0.15165542 0.13302104
000200 d3 43 13 3e d0 d8 81 3d 41 15 db bc a2 d2 c6 bd
       0.14381342 0.06340182 -0.026743533 -0.09708144
000210 f4 b1 cc bd 43 47 40 be c8 1c 57 3c d5 6c 9d 3c
       -0.09994879 -0.18777184 0.013129421 0.019216934
000220 38 c1 cd bd e2 2f 80 be a7 36 6c bb 63 77 e4 bd
       -0.10046619 -0.25036532 -0.0036043318 -0.11155584
000230 58 51 d7 ba ab 29 07 3b a8 47 28 be c4 c4 5b bd
       -0.001642744 0.0020624201 -0.16433585 -0.053654447
000240 d8 3f 39 be 89 5d 9b 3d c0 94 2b 3e 56 c5 12 3e
       -0.1809076 0.075862 0.16755962 0.1433309
000250 73 91 81 bd c3 12 aa be a7 a5 66 be a1 eb 86 bd
       -0.0632657 -0.3321744 -0.22524129 -0.065879114
000260 59 24 45 be 15 e6 0d bc af c6 96 3c da 2e de 3c
       -0.19252147 -0.008660813 0.018405287 0.02712195
000270 54 b3 d2 bd a9 46 97 be 3d 5b 86 bb d4 ec 27 3e
       -0.102881104 -0.29546097 -0.004100232 0.16398937
000280 11 92 ee 3d eb dd 34 be 44 74 49 bc c8 c1 0d be
       0.11648954 -0.1766278 -0.012295786 -0.13843453
000290 a2 72 80 3d 57 4c 1c bd bc 5e 2a be c7 2c ec bc
       0.062718645 -0.03815874 -0.16637701 -0.028829945
0002a0 a2 03 40 be 8b ed 00 bd 93 c8 11 be 49 40 44 bd
       -0.18751386 -0.03147654 -0.14236669 -0.04791287
0002b0 7a b7 02 3a 3a 22 94 be 0b 44 5e bd bb 3e 22 bd
       0.00049864466 -0.28932363 -0.05426411 -0.039610606
0002c0 bd b7 9e bd e3 a1 be bd 9e b5 09 bc 85 7d fc 3d
       -0.07749889 -0.09308221 -0.008405117 0.123286285
0002d0 85 64 41 be 16 f1 49 be d1 d9 1a be de 2f db bc
       -0.18886001 -0.19720873 -0.15122153 -0.026756223
0002e0 c5 ec 3f 3e 3c 99 2b bd 5a 49 90 3b a6 da f4 3d
       0.18742664 -0.041894183 0.0044032754 0.119557664
0002f0 f9 f7 db 3d 97 32 55 be 3d 41 3d be 8f db 19 3e
       0.107406564 -0.2082008 -0.18481918 0.15025161
000300 0c 4c 20 3e da a0 ad bd 8b bc ae be 4e d7 44 3c
       0.1565401 -0.084779456 -0.34128222 0.012014223
000310 27 04 60 3e 17 6a d7 3d 98 8f 3e be cc dc 50 be
       0.21876584 0.10518282 -0.18609464 -0.20396727
000320 6c 1f 9e bd 78 53 47 bc 26 ba fc b9 3c 90 a7 3b
       -0.07720837 -0.012165897 -0.00048203877 0.0051136296
000330 f0 e6 51 3d e3 5f 9f be 91 07 22 be 14 33 ac bb
       0.05124563 -0.31127843 -0.15823199 -0.0052551124
000340 2b 34 57 3c 1e e0 a9 bc d8 39 06 be af 34 d3 bc
       0.013134996 -0.02073675 -0.13108003 -0.025781957
000350 66 91 d3 bc e1 77 fd bd d3 c2 ae bd a6 a9 60 3c
       -0.025826167 -0.12376381 -0.085332535 0.013712322
000360 63 2f ed bc 2e 26 58 be 4b b2 2d be b3 e0 12 be
       -0.02895326 -0.21108314 -0.16962545 -0.14343528
000370 ef 0d b6 3d fb fc 02 bc 62 03 c9 bd c6 81 94 be
       0.08889376 -0.007994886 -0.09815098 -0.2900526
000380 48 30 8f be b1 2f e1 be 74 f8 c7 bc 11 82 9d bd
       -0.27966523 -0.43981698 -0.024410464 -0.07690824
000390 02 1a 07 be d6 c0 25 3e e3 de 2f be 07 54 53 bd
       -0.13193515 0.16186842 -0.17174868 -0.051593807
0003a0 90 ec 9d bd 44 84 5d be 93 31 b7 be 86 5f 16 3d
       -0.07711136 -0.21632487 -0.3578001 0.036712192
0003b0 e2 28 06 3e 8e 1c 22 be c2 8d 66 be 71 6a a5 bd
       0.13101533 -0.15831205 -0.22515014 -0.08076943
0003c0 dc 72 3b 3e 8f 4a 89 3d 86 d1 3a be b7 ef 13 be
       0.18305534 0.06703674 -0.1824399 -0.14446913
0003d0 51 f4 07 bb f3 75 d5 3c 75 62 c4 3d 79 f4 ce 3d
       -0.002074499 0.02605722 0.09589092 0.10105223
0003e0 5c 45 92 be eb 51 af be 34 58 3b 3e e2 2a ba bc
       -0.28568542 -0.34242186 0.18295366 -0.022725526
0003f0 ca 06 b1 3d a7 bf bb 3d 38 11 a4 3d 74 2c ed 3d
       0.08643873 0.09167414 0.08011097 0.115807444

fc1.bias f4 [120]
000000 5d 3d 75 bc 6b 8d 34 bd f5 45 dc bc 60 3a 29 3a
       -0.014968243 -0.04408018 -0.026888827 0.0006455537
000010 66 bd c4 3d a0 fa 2d 3d 9e 67 82 bd 12 eb 5d bd
       0.096064374 0.042475343 -0.0636742 -0.05417926
000020 ee 34 05 3c 74 b2 a1 bd 36 11 a7 3c 67 0b 6c 3c
       0.008130295 -0.07895365 0.020393949 0.014407015
000030 fe 99 7b bd 05 8c 83 bb 16 86 99 bd c4 60 8a bd
       -0.061426155 -0.0040144944 -0.07496278 -0.06756738
000040 62 74 9e bc aa 98 d9 3c a3 b2 61 bd 6e 73 7b 3d
       -0.019342605 0.026562054 -0.055102002 0.06138938
000050 2d 58 be bc 64 53 33 bd bd 7e 35 bd 6b 5a 58 3d
       -0.023235405 -0.0437807 -0.04431032 0.052820604
000060 b2 67 44 bd d3 61 46 bd ed 5f 10 3d 87 3a 87 bd
       -0.047950454 -0.048433136 0.035247732 -0.0660296
000070 6a 5b b8 bd 6a 10 ea bd db 50 6f bd 45 1e bf bd
       -0.09001811 -0.11428912 -0.05842672 -0.09331945
000080 c5 5a 2f bd 10 d5 ec bd 09 9c 28 3d 8f fa fa 3c
       -0.042811174 -0.11564076 0.04116443 0.030637054
000090 d8 30 0e 38 d0 de 4c bd c8 93 c8 bd 2c e5 96 bc
       3.3900928e-05 -0.050017178 -0.09793812 -0.018419825
0000a0 67 63 76 bd d0 f9 34 bd 0e f4 83 bd 83 65 53 3d
       -0.06015339 -0.044183552 -0.06443034 0.05161048
0000b0 36 a2 1e 3c 58 67 ea bc 57 39 42 bd 81 31 bf bd
       0.009682229 -0.028613731 -0.047417965 -0.09335614
0000c0 6c 5b 23 3e 6a 54 88 bd ae 1f 82 bc 34 d3 20 3d
       0.15952843 -0.06656726 -0.015884247 0.03926392
0000d0 89 dd 86 3b be d3 00 bd 0c 09 90 bd 1a a0 33 3d
       0.0041157645 -0.031451933 -0.070329756 0.043853857
0000e0 e5 7b 9c bc 5c 23 05 bc 01 3d b4 bc fd 1f 58 3c
       -0.019102046 -0.008126106 -0.022001745 0.01319122
0000f0 ac 04 9c 3d 15 79 87 bc 02 67 42 bd df 9d 3a 3d
       0.076180786 -0.016537229 -0.047461517 0.045560714
000100 c3 af 28 bd 0b 2a 3e 3d 50 43 4d bd 3a e5 24 3d
       -0.041183244 0.046426814 -0.050113022 0.04025767
000110 ca c9 02 be 53 a9 24 3d d8 b3 a8 3d 08 99 6e 3c
       -0.12772289 0.040200543 0.082374275 0.014562853
000120 92 97 83 bd 89 72 af 3d a4 4d 41 3d e5 af 01 3d
       -0.06425394 0.08566768 0.047193184 0.031661887
000130 17 48 0d 3c de 09 0d bd b7 33 84 3c 78 34 9c bd
       0.008623145 -0.03443324 0.01613794 -0.07627195
000140 00 0c a1 bc 10 10 9a 3d f9 40 6d bd 34 c8 2c bd
       -0.019659042 0.07522595 -0.05792329 -0.042183116
000150 bb d7 cc bc 1a 7d 93 3d d3 06 eb 3c 3b 8c a4 bc
       -0.025005212 0.072015956 0.028689777 -0.020086398
000160 3f c3 08 bc c3 dc e0 bd fc 5b 86 bc e9 ef 36 bc
       -0.008347332 -0.10979607 -0.016401283 -0.0111655975
000170 43 e0 0a 3d 24 30 1b 3d 75 24 13 bb a7 0f 15 bd
       0.03390528 0.037887707 -0.002245215 -0.03639188
000180 02 20 5b 3d 9a b1 f9 bc a1 4b f1 bd c5 dd b2 bc
       0.053497322 -0.030480195 -0.11782003 -0.021834264
000190 44 28 99 3d cc 23 10 be 48 de e9 bc 39 d2 df bb
       0.07478383 -0.14076155 -0.028548375 -0.0068304804
0001a0 42 bc 9f bc b5 c9 a1 bd 48 82 04 bd 55 ca 96 3c
       -0.019498948 -0.07899801 -0.03235081 0.018407026
0001b0 cc 77 a9 bc 9d 90 92 bd 5e ae 61 bd 76 75 80 bd
       -0.020687006 -0.07156489 -0.05509793 -0.06272404
0001c0 87 99 c5 3c f0 cb 10 3c 08 ff 84 3d aa f8 c5 bb
       0.02412106 0.008837685 0.06493956 -0.006041606
0001d0 1e b7 09 bd a3 37 28 bc 34 29 01 bc b1 6d b1 3d
       -0.0336219 -0.010267171 -0.007883359 0.086635

fc2.weight f4 [84, 120]
000000 e6 3c 05 be 6c 8c 27 3c 35 d1 96 3d 44 d0 10 be
       -0.13011512 0.01022635 0.07364122 -0.14141947
000010 3d 04 ff bd 53 5e 3c be 2e 08 60 3c 90 9e 7f 3d
       -0.1245198 -0.18395357 0.013673825 0.062407076
000020 ec da 12 3d a0 a4 5b 3e 50 8d 64 bd 1d 13 1e 3d
       0.03585331 0.21449518 -0.05579883 0.038592447
000030 0e da 3b 3d 64 eb 24 be e1 ec 11 3e b8 3a 77 be
       0.04586225 -0.1610542 0.14250518 -0.24143493
000040 52 7c 04 be 21 7d 09 be f5 11 e7 3d 5f 00 bf 3d
       -0.1293805 -0.13426639 0.11282722 0.09326243
000050 20 4d 9e bc bd 48 29 bd 61 a8 7e bc 32 d8 f0 bc
       -0.019323885 -0.041329134 -0.015543074 -0.029399965
000060 52 76 ae bd 31 47 0f 3e bf af d3 3d 3e 34 33 3d
       -0.085186616 0.13992001 0.10336255 0.043750994
000070 3c 2a 6a be 55 1c 22 3d 20 e4 3d bd 4f fb 6b 3d
       -0.22867674 0.0395778 -0.046360135 0.057612713
000080 f0 17 2f be b8 3b ae 3d 2d d4 b3 bd 83 61 b1 bd
       -0.17098975 0.08507484 -0.08780704 -0.08661177
000090 df 4b 0b 3e 4d e7 93 bb ad cd 88 bd 14 67 bc 3d
       0.13603161 -0.004513657 -0.066798545 0.09199348
0000a0 99 e1 e1 3d 2a db c7 3d 28 b5 2a be 61 81 84 be
       0.110293575 0.09758599 -0.16670668 -0.25879958
0000b0 99 41 9d be 5c 6a 11 3d 2d 24 2b 3d 40 85 c6 3d
       -0.3071411 0.035501823 0.041782547 0.09693384
0000c0 aa ee 59 bd c4 9e 2a 3d 3c ab f2 bc 42 a2 33 3c
       -0.053206123 0.041655317 -0.029622667 0.010963978
0000d0 d8 58 c1 3d 47 47 3c be a5 89 2a be 94 c1 fd 3d
       0.09440774 -0.18386565 -0.1665407 0.12390438
0000e0 ed 66 1c 3c 7d d9 41 3d 9b 78 f3 3b f9 c5 9a bd
       0.009546024 0.047326554 0.007430149 -0.075572915
0000f0 0b d4 ea bd c7 f3 ca 3c ac 72 37 3e 1b 3c d5 3d
       -0.11466225 0.024774445 0.17914838 0.10411855
000100 25 4f b8 3d 4c 46 11 3d 59 ea 9a bc 29 8f 86 3d
       0.089994706 0.03546743 -0.018910574 0.065702744
000110 b6 83 83 3d 9a 2e 0c 3d c6 94 ea 3d 17 44 04 3d
       0.06421606 0.03422413 0.114541575 0.032291498
000120 88 10 1d bb 6e 0d 3c be 29 be a7 3c ae 29 88 3d
       -0.0023966152 -0.18364498 0.020476418 0.06648575
000130 78 44 a9 bd 34 f4 91 bd 2a da 64 3d 01 51 1b bd
       -0.082650125 -0.07126656 0.05587212 -0.03791905
000140 09 9d 15 3e d4 0e 2b 3d de d8 eb 3d ff 22 83 bd
       0.14610685 0.041762188 0.115159735 -0.06403159
000150 de a2 c2 3d b4 34 2d 3e b7 19 cb bc 07 5c b3 bd
       0.09503721 0.16914636 -0.024792535 -0.08757787
000160 22 69 59 be 38 5a 9c 3d 69 6c 14 be 0c b4 09 3e
       -0.21231511 0.07634395 -0.1449448 0.13447589
000170 1f 99 52 bd 0d 60 09 3e ee 94 4c bd 28 d3 a7 bc
       -0.05141556 0.13415547 -0.049946718 -0.02048643
000180 e5 90 c2 bb 73 05 80 3c c2 cc 0e 3d 2f ef 43 bd
       -0.005937683 0.015627598 0.03486324 -0.047835525
000190 f6 bc 30 3e a7 ef 28 3e 7d 81 5e 3d ec e1 99 3d
       0.17259583 0.1649767 0.05432271 0.07513794
0001a0 65 18 39 3e 2c f7 48 3d 16 6b 6d bd 60 cf 09 bd
       0.18075712 0.049063846 -0.057963453 -0.033645034
0001b0 17 1a 82 3c 5f 3f 0f bd e5 65 33 bd 51 71 81 bd
       0.015881581 -0.034972545 -0.043798346 -0.063204415
0001c0 7b f6 84 3e 6d a4 85 bd 26 79 d0 bd 90 26 b1 bd
       0.259693 -0.06525502 -0.10179357 -0.08649933
0001d0 f4 e1 3b 3e f7 02 3c be 91 4c 30 3e 04 79 d4 3d
       0.18347913 -0.18360506 0.17216708 0.103746444
0001e0 a0 f2 45 bd ae a3 12 bc 22 6f 66 be 51 ce 2b 3d
       -0.04832709 -0.008950157 -0.22503331 0.041944806
0001f0 e2 92 bb bd a0 04 b8 3c 47 90 29 3c 50 0c 91 3c
       -0.09158875 0.022463143 0.01034934 0.017706066
000200 5a 0d 00 bd 8a bd 0c 3c 5a 27 85 bd f8 25 1c be
       -0.031262733 0.0085901115 -0.06501646 -0.15248859
000210 bd c2 65 3d 28 46 1d 3d 13 b6 63 3c 9a f5 a0 bc
       0.05609392 0.038396984 0.01389839 -0.019648362
000220 69 6f 02 3e 39 e6 72 bd 76 4f 6e be 65 8e a9 bd
       0.12737812 -0.05930159 -0.232725 -0.08279113
000230 d8 a4 cf bc dd 44 96 3d 70 b3 df 3c 00 b9 ab bd
       -0.025347158 0.073373534 0.027307242 -0.08384895
000240 60 42 b1 bd c3 b5 34 be ea e4 a0 3d 33 87 7a bd
       -0.08655238 -0.17647462 0.07856162 -0.061164092
000250 63 3e cf bd fd f6 fb bc 41 f5 9f 3b 9c ee 8f 3d
       -0.10119321 -0.030757422 0.0048815315 0.07027933
000260 e8 f8 53 3d 78 b1 a6 bc a2 8f b8 bd f5 d8 2d 3d
       0.051751047 -0.020348296 -0.09011771 0.042443234
000270 2f a9 d2 3b 06 ee 8b 3d 24 e4 58 3d 2e 3b aa bb
       0.0064288597 0.06832509 0.052951947 -0.005195043
000280 f4 d0 1a 3d a9 24 74 bd 34 3d 8e 3d 18 fa a6 be
       0.03779693 -0.059605274 0.06945267 -0.3261268
000290 05 7a 03 3d 30 55 85 bb 32 29 67 bd 07 72 0a bd
       0.03209879 -0.004068993 -0.05643577 -0.03380015
0002a0 8d ce 1d bd be b3 5d bd 16 31 63 bd 64 ff 6e bd
       -0.03852706 -0.054126494 -0.055466734 -0.05834903
0002b0 60 ab 23 be a8 53 6a bc f8 0d 61 be 4c 49 05 bd
       -0.15983343 -0.014302172 -0.21977985 -0.032540604
0002c0 d6 0c 14 3d d9 59 52 be a2 e4 82 bd b5 ef 8c 3c
       0.036145054 -0.20542087 -0.063912645 0.017204145
0002d0 7e f6 05 be 78 98 68 bc 08 68 a6 3d 00 61 78 bd
       -0.1308231 -0.014196508 0.08125311 -0.06063938
0002e0 43 f6 cd 3c 27 bd 55 be 30 2f 55 bd 7d db 7e bc
       0.02514184 -0.20872937 -0.052046955 -0.01555526
0002f0 7d 83 d1 3b 7d 7c 87 3d 95 60 82 be 44 78 2f 3d
       0.0063938485 0.06615541 -0.2546431 0.042839304
000300 70 48 cf bc db 09 44 be e8 35 52 bd d2 18 46 bc
       -0.025303096 -0.19144385 -0.05132094 -0.012090879
000310 08 24 32 3d f2 28 8e 3c f3 df e7 3c 01 79 90 bd
       0.043491393 0.017353509 0.02830503 -0.0705433
000320 dc 42 f5 bd 7b e5 e7 bd cb d6 c5 bd b0 6d b7 3c
       -0.11975643 -0.11323067 -0.09660109 0.02239117
000330 0b 6d e0 bd 6c 48 df bd c8 11 94 3a c0 6f 27 bd
       -0.10958298 -0.10902485 0.0011296803 -0.040878057
000340 b6 ce 81 bd 72 b7 cc bd e3 b7 b8 bd 8e 9c a5 bc
       -0.06338255 -0.09995927 -0.090194486 -0.020216253
000350 a7 5c 59 3c 31 1d 3b bc 93 0d a0 bd 53 9c 86 3d
       0.013266719 -0.011420534 -0.07815089 0.06572785
000360 3c 02 9f bd c5 31 92 bc c5 46 00 be f3 5a c7 3c
       -0.07764098 -0.017845998 -0.12526996 0.02433536
000370 31 f6 b6 3d d1 4c 3e 3d c2 12 0e be 74 ff d3 3c
       0.08933676 0.046459977 -0.13874343 0.025878645
000380 05 04 c6 bd 0e f3 bf 3d d2 e7 6f 3d ea da 26 be
       -0.096687354 0.09372531 0.05857069 -0.16294447
000390 12 ba ab bd 51 71 f7 3c db 1b 85 3d f2 2f d2 bc
       -0.083850995 0.0302054 0.06499454 -0.025657628
0003a0 c0 e8 44 be e7 97 0f bd 41 86 59 be 1c 01 81 3d
       -0.19229412 -0.035056975 -0.2124262 0.0629904
0003b0 71 66 35 be 72 73 d5 bd 20 37 ff bd 10 8c 4f bd
       -0.1771486 -0.1042241 -0.12461686 -0.050670683
0003c0 89 29 39 3e b1 47 16 3d 95 7a 18 3d 9a 65 90 3e
       0.1808225 0.036689464 0.03722628 0.28202516
0003d0 fe 01 20 be 07 ba 0a 3d 18 36 0a be 4d ff fd 3d
       -0.1562576 0.033868816 -0.13497198 0.124022104
0003e0 3c f5 9c 3d 7a 78 3f be 45 17 ea bc 7a c5 b5 bd
       0.07663962 -0.18698302 -0.028575549 -0.08875556
0003f0 d0 8b e5 3c 30 ad 92 bd 55 2d 18 be 46 6d a3 3c
       0.02802077 -0.07161939 -0.14861043 0.019949567

fc2.bias f4 [84]
000000 3f 4e cf 3d e9 71 69 3c 68 a8 87 3c 84 30 92 3c
       0.10122346 0.01424835 0.016559795 0.0178454
000010 8a a6 23 bd c2 d8 1c bd 71 6b 2a bc 7a 4d cb 3d
       -0.039953746 -0.038292654 -0.010401593 0.09926887
000020 10 18 ef bd f0 6d 0b be 7d 26 1a 3d e3 d0 84 3c
       -0.116745114 -0.13616157 0.03763436 0.016212886
000030 8f 0f 61 bd 1e f4 b7 bc e9 1e 87 bd d6 35 28 bd
       -0.05494648 -0.022455271 -0.065976925 -0.041066967
000040 51 af a1 bd 07 28 0d bd 93 db 21 3d 0b 3f 27 3d
       -0.07894767 -0.034462 0.039516043 0.040831607
000050 d1 a6 18 3d 03 ab 90 3d 94 f3 df 3d ca ce 94 bd
       0.037268464 0.07063868 0.10935131 -0.072660044
000060 76 91 d3 bd e3 94 a5 bd e9 9b 9b bd f3 0c e4 bd
       -0.10330479 -0.080850385 -0.07598097 -0.11135282
000070 c7 71 75 bd 4c ba 3b 3d dc 4d 69 bc 48 1f a2 bd
       -0.05992296 0.045831963 -0.0142397545 -0.07916123
000080 68 9a b5 bd 9c 97 c7 3c e8 40 dc 3d 2d 62 fd bc
       -0.08867341 0.024364285 0.107545674 -0.030930603
000090 90 e6 37 3d 24 74 18 3e cc 64 8b 3c 53 4e d6 3d
       0.044897616 0.14888054 0.017015837 0.10464158
0000a0 d1 e6 6f 3d 13 3e ba bd 21 e1 cb bd 6a 20 a2 3d
       0.058569733 -0.09093871 -0.09955049 0.07916339
0000b0 5f fb b0 3c b3 72 fa 3d 9b 4b 28 3d ec a5 d1 3d
       0.021604238 0.122289084 0.041087728 0.10236725
0000c0 d2 05 16 3e 7f 7e ff bd c7 85 01 bc 9b c0 5f bd
       0.14650658 -0.12475299 -0.00790543 -0.054627042
0000d0 82 2b 3e bd cb 2d 7a 3c 6f be a5 3d 40 dd ad 3c
       -0.04642821 0.015269707 0.08092963 0.021223664
0000e0 73 76 af bd f3 f6 cf 3d 81 ed d8 bd aa e0 52 3d
       -0.08567514 0.10154524 -0.10592175 0.051483788
0000f0 d1 98 f7 bc 2c c7 0b 3e 1e 28 02 3e 26 f9 0c 3e
       -0.030224236 0.13650197 0.12710616 0.13766918
000100 3e c7 3e 3d a3 66 47 bd 31 50 93 bd 58 bc c6 bd
       0.04657673 -0.048681866 -0.0719303 -0.097038925
000110 bb de ac bd 23 d7 a9 3d 3f ef f6 bd 41 8e ce bc
       -0.0844092 0.08292987 -0.12057351 -0.025214316
000120 87 d2 0c 3d e7 75 99 bd af d8 84 bd 8e 8e 01 bd
       0.034380462 -0.07493191 -0.064866416 -0.03163009
000130 df 78 a8 3d 6d 87 78 bd 12 c7 83 3d 26 c7 c7 b9
       0.08226179 -0.060676027 0.06434454 -0.00038104615
000140 68 7d 1e 3d f8 ab f2 3c a8 7b 0f 3c 39 b6 c4 3d
       0.038693815 0.029623017 0.008757509 0.09605069

fc3.weight f4 [27, 84]
000000 76 fa 83 bd 98 33 44 bc fd 8b 0f be 8a 3e 58 3a
       -0.06444256 -0.0119751915 -0.14018245 0.0008249065
000010 e4 31 c6 bd be 55 30 be ef 45 37 3d c8 93 01 be
       -0.09677485 -0.17220208 0.04474443 -0.1265403
000020 53 bd 50 bd c6 c3 ec bd 9f 7b 6a bd af 5a b2 bd
       -0.050961804 -0.11560778 -0.0572468 -0.08708703
000030 59 1d 65 3d 76 86 fc bd c6 a8 83 bf 69 94 9b be
       0.05593619 -0.12330334 -1.028588 -0.30386665
000040 2e e8 6b 3d 43 da f1 bd cc 15 29 be c2 de 8c bd
       0.05759447 -0.11809208 -0.16512221 -0.06878425
000050 8c 70 7d bd 65 80 d3 bd 51 99 1d be 05 b8 cf bd
       -0.06187491 -0.10327224 -0.15390517 -0.10142521
000060 78 6e 68 bf 88 cc 37 be f9 8b 2b bf 8a 28 1a 3d
       -0.9079356 -0.17949116 -0.67010456 0.037636317
000070 67 b6 90 be 41 b5 28 be 42 89 07 be f3 a6 de bd
       -0.28264162 -0.16475393 -0.13235953 -0.10871687
000080 7f d4 6a be fa 69 82 bd 97 7c 0e 3d f3 ed 3b be
       -0.22932623 -0.0636787 0.034786787 -0.18352489
000090 87 29 0f be 26 61 50 be 41 59 c7 bd bf fd 13 be
       -0.13980685 -0.20349559 -0.09733821 -0.14452265
0000a0 ad 6b 06 be 79 56 af be 56 ef 83 3d 49 3e bd bd
       -0.13127013 -0.3424566 0.06442134 -0.092403956
0000b0 1f 31 f1 bd ed c5 14 be c1 b5 13 be ee 37 17 be
       -0.11776947 -0.14528628 -0.14424802 -0.14767429
0000c0 3f f9 3d be 31 97 27 be 2c 7f 8a be 38 19 95 3d
       -0.18552111 -0.16366269 -0.2705015 0.07280201
0000d0 0e fa f7 bd de 98 83 bd 4e 64 df bd de 5c 4d bd
       -0.12108241 -0.064256415 -0.109078035 -0.050137393
0000e0 4c e1 93 be a4 a8 0f bd e5 50 41 be 11 3b f3 bd
       -0.28882825 -0.035072938 -0.18878515 -0.118765004
0000f0 77 ad 04 be ae 50 33 be 0d a0 1e bd b7 b8 1e bf
       -0.12956797 -0.17511246 -0.038726855 -0.620006
000100 6c dd 2e be 3d 2c 97 bf ac 85 1e be 6b 65 25 be
       -0.17076653 -1.1810375 -0.1548068 -0.16151969
000110 e3 18 9a bf b2 37 22 be c1 9a 1d be ef 27 ec 3b
       -1.2038845 -0.15841559 -0.15391065 0.007206909
000120 f1 2b c2 bd 8c fc 70 bf c4 7c 85 bd f1 44 58 be
       -0.094810374 -0.94135356 -0.06517938 -0.21120049
000130 62 cd e1 bd f9 6b bd bd 63 6b 0f be eb 77 29 be
       -0.11025502 -0.0924911 -0.14005809 -0.16549651
000140 f0 e7 8c bf e3 2e 0a bf ac cf 7e 3d f6 4e 2d be
       -1.1008282 -0.53977793 0.06220977 -0.16924652
000150 92 11 b3 3c ee 35 99 bd 6d 4b 93 be 17 02 b2 3c
       0.021858964 -0.074809894 -0.28768483 0.021729512
000160 48 0c 86 3d db 50 50 3d db 28 e0 3c 63 a9 12 be
       0.06545311 0.05085836 0.027363231 -0.14322428
000170 09 ef d2 bd f9 f5 89 3d a0 b9 ab 3d 68 2f d1 bd
       -0.102994986 0.06736369 0.083850145 -0.1021412
000180 52 b2 32 be 97 e8 d9 bd 68 18 9c 3d 3d e8 04 3e
       -0.17450836 -0.10640066 0.076218426 0.12979217
000190 1c 3e e7 bd 32 60 15 3e 8a da f6 3d 01 25 1a be
       -0.11291143 0.14587477 0.12053402 -0.15053178
0001a0 cc cc 13 be a5 66 de 3d b5 c6 f0 bd 9a 3a 10 3e
       -0.14433593 0.10859422 -0.1175665 0.14084855
0001b0 8d b5 90 be 6f 37 6e bd 9c 78 23 be d5 4c a5 bd
       -0.28263512 -0.058158334 -0.15963978 -0.08071295
0001c0 04 0e 6b 3e fa 3e c7 3b 06 64 7f be 56 a5 20 3e
       0.22954565 0.0060805054 -0.249405 0.1568807
0001d0 d8 03 76 be 65 ef e8 3b ca 9e e7 bc 53 48 96 3d
       -0.24024904 0.007108616 -0.028273959 0.073380135
0001e0 10 4f 58 be 4a ad 44 3e a9 e6 c5 bc 5b 02 19 3e
       -0.2112391 0.1920673 -0.024157839 0.14942305
0001f0 e7 cd 40 bb 66 5e be bd 40 7d ca be 0c 98 03 be
       -0.0029419602 -0.09295349 -0.39548683 -0.1285097
000200 70 ec 10 3a 7c ec fd ba dc 07 05 be 34 0e 5b 3b
       0.0005528396 -0.0019372846 -0.1299128 0.0033425214
000210 c9 17 f7 3d 90 2a 0e be 39 b9 14 bf 0b c4 58 bd
       0.120650835 -0.13883424 -0.5809513 -0.052921336
000220 39 ad 02 be 56 a9 03 be 22 64 42 3e 19 c3 3b be
       -0.12761392 -0.12857565 0.1898351 -0.18336143
000230 e9 06 ad be 8c 4e 72 be f0 f2 7d 3d 6f b8 ec 3d
       -0.33794335 -0.23662776 0.06199926 0.115586154
000240 67 a9 15 3e f7 15 c2 bc 9a 88 e2 3d ca 41 aa be
       0.14615403 -0.023692114 0.11061211 -0.33253318
000250 cb d2 31 bd b6 e3 42 b8 0d 62 b0 bc de 79 65 be
       -0.04341392 -4.6465277e-05 -0.02153113 -0.2240977
000260 c8 51 46 be 59 8e bf bb 08 6b 30 be 23 ca 8e bc
       -0.19367135 -0.0058458266 -0.17228329 -0.01743037
000270 8b ac 09 3e d9 98 28 be c0 b3 fe bd 57 c4 62 bc
       0.13444726 -0.16464557 -0.12436628 -0.013840756
000280 a5 6e 13 3d ed 48 35 3d ad df 7f be 0d 77 65 3e
       0.03599419 0.044259 -0.2498767 0.22408696
000290 a9 6d 6d be 76 7e db 3c a1 9e e4 3c b6 32 29 bd
       -0.23186363 0.0267937 0.027907671 -0.041308127
0002a0 9b d0 14 3e 99 9d 50 3c 5c 8b fe 3c 21 14 e2 3d
       0.14532702 0.012732887 0.031072311 0.110389955
0002b0 18 1d f9 bd bc 45 7e 3d fd d8 04 be e2 2b 2b bd
       -0.12163752 0.062078223 -0.129734 -0.041789897
0002c0 73 76 f6 3c 03 37 60 be 97 08 a7 3d 55 b6 31 bd
       0.030085778 -0.21895985 0.08155935 -0.043386776
0002d0 7b c7 9d 3b 13 30 50 be 79 dc fe be a7 4b 29 be
       0.0048150397 -0.20330839 -0.49777582 -0.16532765
0002e0 a6 0e 0d be 7e 7e 08 be 7f a1 cc 3d d4 4b 4e bd
       -0.13775119 -0.13329503 0.099917404 -0.050365284
0002f0 94 1a 5b be 70 96 57 be 45 3c 1b be f2 31 94 be
       -0.21396858 -0.21053481 -0.1515971 -0.28944355
000300 af 99 ce bd 06 b3 95 be 16 25 fd bc bc 82 1e be
       -0.100879066 -0.29238147 -0.030901473 -0.15479559
000310 0c 6f 8d bd 8b 4e a9 3d d0 7c 2c 3e 55 46 c5 bd
       -0.06905946 0.08266934 0.16844487 -0.096325554
000320 0a 62 34 3e 12 3a d1 3d ae e3 ca 3c 47 03 53 be
       0.17615524 0.10216154 0.02476677 -0.20606719
000330 12 c0 18 3e 9e 1a dc 3d f3 38 05 be 91 85 c4 bd
       0.14917019 0.10747264 -0.13010006 -0.09595788
000340 9c 0c 60 be 15 6a 58 3d 77 52 34 bb 22 b1 f3 bd
       -0.2187981 0.052835543 -0.0027514973 -0.1189902
000350 fa 51 2f be 31 d3 fc 3d de ff 22 3e be f8 de 3d
       -0.17121115 0.12344969 0.15917918 0.108872876
000360 30 77 35 bd 6e 79 fd bd 77 fe f8 bd fe 89 a7 3c
       -0.04430312 -0.123766765 -0.1215791 0.020451542
000370 62 eb 0c 3e 19 e5 0d bd fd 54 6a 3d d9 6f e2 be
       0.13761666 -0.034642313 0.057209957 -0.44225958
000380 cb de f7 be 37 d7 f1 be 96 03 1f bd 54 0a a2 bc
       -0.48412165 -0.47234508 -0.03882178 -0.019780315
000390 53 27 9c bd 2f 73 60 bc 0f 15 6c 3e b6 4c d0 bd
       -0.07624688 -0.013699337 0.23054908 -0.101708815
0003a0 3c 5a 14 3d 9e 69 21 bc 47 c0 ad be 3c 8b dc bd
       0.036218867 -0.009851841 -0.33935758 -0.10768744
0003b0 60 28 17 be c1 cb 5b 3d 40 24 bd bd 47 12 a8 bb
       -0.14761496 0.05366111 -0.0923543 -0.005129132
0003c0 07 bb cb bd 13 c5 79 bd 44 62 67 be b5 03 46 bd
       -0.09947782 -0.06097896 -0.22596079 -0.04834338
0003d0 f9 a6 4a 3e 82 e8 6b bd 16 6a 03 3e 9a 18 1c be
       0.19790258 -0.057594784 0.12833437 -0.1524376
0003e0 64 4f 27 3e 31 57 3c be 59 5f 20 3d 9f 49 a4 3d
       0.16338879 -0.18392636 0.03915343 0.080218546
0003f0 25 b9 ba be 9c 5f 2d be 2a 0c e1 3d a9 f4 bd bd
       -0.3646938 -0.16931003 0.10988648 -0.09275181

fc3.bias f4 [27]
000000 7d bf 1f bd 9d 7a 79 bd 42 d1 07 3d 49 61 04 3d
       -0.039000977 -0.06090795 0.03315855 0.03231934
000010 9b 09 bf bd 9c cf 3c bd 2c c8 e5 3d 0d 4a ad bc
       -0.09328004 -0.04609643 0.112198204 -0.021153474
000020 53 1e f0 3c a4 8c b0 3d b2 94 63 3d 98 28 94 3c
       0.029311335 0.08620575 0.05556173 0.018085763
000030 4e af d7 bd 21 57 a5 bd da e9 24 3e b5 6b 42 bd
       -0.105314836 -0.08073259 0.16104832 -0.047466
000040 b7 3d 4f 3e 8c ac a0 bc f7 c4 5c be 50 65 0f be
       0.20238386 -0.019613527 -0.21559511 -0.14003491
000050 41 6a 3a bd 0a e0 74 bd 6e 27 54 3c 00 c3 13 be
       -0.045511488 -0.059783973 0.012948854 -0.14429855
000060 4c dd 57 bd 73 40 5f 3c d9 7d 9e 3d
       -0.05270128 0.013626206 0.07738847
